pendulum/models/pendulum_pinn_hidden_6_20_t_0_0.1_10_lr_0.005_epochs_10000.pt (torch, 17282 bytes, 13 tensors)

weight f4 [20, 1]
00000000: a6df 79be f0a0 653e 3fdf cb3d b31a 0cbe
00000010: feb4 d13d 1009 223f ba0d 4abe c375 7bbf
00000020: c864 b4bf 3fa2 68bf cd3c 62bd 6169 c93e
00000030: 9cab 29be 1c92 cbbe 4a09 3f3f 750c 64bf
00000040: 2319 99be 7d07 bd3d f1d6 4e3e 5f0b 003e
-0.24401721 0.22424674 0.0995469 -0.1368206 0.102396 0.6329508 -0.19731799 -0.98226565
-1.4093256 -0.9087257 -0.055233765 0.3933821 -0.1656937 -0.3975991 0.7462355 -0.8908151
-0.2990199 0.09229944 0.20199181 0.12504338

bias f4 [20]
00000000: 16df 9f3e 4050 a4bf 6c5a 20bd ec98 d23d
00000010: 7534 4d3d f1ea 55bd ec29 18be a722 073e
00000020: 1e9c f0bd 449e c8bd d2fb 433a bd16 7d3d
00000030: c762 683d 09bb 863d 2e84 51be aa1f 06be
00000040: b23b 23be 582a 183d ac63 273e 929a 96bd
0.3122489 -1.283699 -0.039148733 0.10283074 0.050098855 -0.05222601 -0.14859742 0.13196813
-0.11748527 -0.09795812 0.0007476184 0.061789263 0.056734826 0.06578643 -0.20460579 -0.13098016
-0.1594074 0.037149757 0.16346616 -0.07353701

weight f4 [20, 20]
00000000: 8ca5 fd3e 981d 40bf aff0 9ebe f59e 793e
00000010: a8f2 bdbd 7fce 143d d517 bbbd e366 0cbe
00000020: fe3b 05be d2a8 723b 1a39 e8bd c9bb d9bd
00000030: 8bb5 043e c393 063f 4cc9 d8bd 553f a3bc
00000040: 42ce 98bd 019b 19bd ad0b cb3e 5c5a b6be
00000050: cdc5 663e 9350 04bf 12b6 a4be 117c a03e
00000060: 3cae 57be cc3c 39bf b681 5bbe d38b 793f
00000070: 9055 9b3e 5d91 3c3f 66c2 f1bd 82af cfbe
00000080: 2c86 6cbc 123c 723f f502 3dbf 66c8 243f
00000090: f1ff cc3e 2d30 adbe 74fd 5fbe 8c90 74be
000000a0: 4e4b 50be 4377 44be 0c83 10be 4a18 063e
000000b0: 7b6d 86be 8f51 f8bd 79dc 913e 1411 7ebe
000000c0: c4b0 f03e 45af 243e c6c7 3dbd 80de 52bd
000000d0: a6c0 0a3e cf9b fe3e b7ad c7bd e2a5 983e
000000e0: 319f 6e3e 5bd7 e4be f208 fcbe 74bb a1be
000000f0: 8a5c 5d3e 07e2 e13e 5f67 21be 7fb1 c03d
00000100: b870 cebe 94b1 0cbe 265c da3d 07d8 76bc
00000110: 0e02 edbd 8c77 c43e 2064 053f 7b32 3c3e
00000120: 079d 383c 7f0c f23c ddab 603e afa3 5bbd
00000130: e01b 553c 807e babe daae 763e 3261 083e
00000140: df8a abbe 1101 e63d 3c56 5c3d 174c 01bf
00000150: 0fc9 453e 2902 a3be 0c4e fcbd 0fe0 163e
00000160: 9a26 8b3e f054 6abe 5a92 833e 5702 5d3e
00000170: cff5 c7be 29bf 943d b3be 0dbd aec0 103e
00000180: 947c cabd 4a98 49be 3146 b33d 5808 313e
00000190: dadf bbbd b6ae 34be c697 b73e 8897 21be
000001a0: ffd3 f03c 7f7f bcbe c2d1 2a3d b738 643e
000001b0: ffae e4bd 78ed 2a3d 4137 98bd ffe4 d9bd
000001c0: 7c2b b33e bbe1 c1bd b99e 1f3e df04 5e3e
000001d0: 01f0 d0bd 8975 103e 9fec 9e3d 9636 1f3e
000001e0: 0b57 25be 32f9 6c3e 453b e1bc b1ef dcbd
000001f0: 177c 5f3d ae92 193f 3502 cb3d 29ab 453e
00000200: 1511 103d db70 b5bc feb7 3bbe 1988 003e
00000210: ad90 c6bd 8145 683d 2695 073f ad5f f63c
00000220: 8636 623e 2a3a 863e 41a3 2c3e 6ab4 84be
00000230: 81e1 e03e 8852 3dbe 9ca5 49bd 18cc 373f
00000240: bbb4 65be 35b2 073e 4d1c f33e 40ff bebe
00000250: 9001 42bd fc53 103d 3f5a 6b3d a2ae 9cbe
00000260: 6a2a 043e 61cd 0b3e 5ddf 023e e6f6 fb39
00000270: bf51 25be 646f dcbe 29ed 5e3e af53 4dbd
00000280: 9081 b6bd 26a8 423d b9e1 37be 1b88 fe3d
00000290: bae5 2c3e 913d 4ebd 0008 febe e666 b2be
000002a0: d386 9e3d d30d f93c 6bf3 c63d d8a0 b83d
000002b0: 6894 943e f044 a2be b7e3 793e bc81 dbbe
000002c0: 321f 063e e97f 0dbe 62eb a73e efe2 ef3d
000002d0: db74 543e 95b7 86bf 3a32 2abf 701c 123f
000002e0: 5562 23bf d564 31be 137b bcbd 9d8f cabe
000002f0: d854 9cbe 1a42 d2bc 92e7 813e 4bb3 143e
00000300: a42e 1e3e d020 28bd 5d03 843e 0d5a 02bf
00000310: 19bf 58be 8cef 95be 155f f73d e5a3 70be
00000320: 4762 743e a5cc a93e 9145 b3bc 4866 c1be
00000330: ba56 a63e ff2d fa3e 4d71 293e 80d0 13bd
00000340: e1c9 803d ce09 083e 5434 04bf e63e 7fbe
00000350: 655a bbbd 3903 553e 305b afbd b1f6 123e
00000360: b0ef cd3c ed20 0b3f be93 41be 96a7 3d3e
00000370: 54e0 b93d a96e bebc a45a af3e adff f6bd
00000380: 5a2c 4cbe d1f6 233e 6e36 2c3e 299e 233d
00000390: f668 1fbe c2e0 18bd 1055 93bc adc0 9ebc
000003a0: 04bf c1be 51b6 c2be f7f4 e53d ce8a bc3e
000003b0: 2fd5 23be 49d4 36be 6b8a 8ebe 6d35 bf3e
000003c0: 8128 8cbe b04f 033e 035a db3e c154 7ebd
000003d0: 66e9 c2bd 1d2d b1be 8e77 1fbe aa17 20be
000003e0: 77fa de3c 8cca ca3e 1534 68be cdf0 273e
000003f0: c58f bcbe d4c2 b63b 8e6a 5abc 6d94 cc3e
0.49540365 -0.75045156 -0.31043002 0.24377044 -0.09274799 0.036329743 -0.09135405 -0.13711123
-0.13011166 0.0037026894 -0.11339016 -0.1063152 0.12959878 0.52569216 -0.10585269 -0.01992766
-0.074612156 -0.03750134 0.39657345 -0.35615814 0.22536393 -0.51685447 -0.3217016 0.31344655
-0.21062559 -0.72358394 -0.214362 0.9747898 0.30338717 0.73659307 -0.11804657 -0.4056359
-0.014436286 0.9462291 -0.7383264 0.64368284 0.40039018 -0.33825818 -0.21874028 -0.23883265
-0.20341226 -0.1918612 -0.1411249 0.13095203 -0.26255402 -0.12124931 0.2848852 -0.24811202
0.4700986 0.16082485 -0.046333097 -0.051481724 0.13550052 0.49728248 -0.0974993 0.2981406
0.23302914 -0.44695553 -0.49225575 -0.31588328 0.21617332 0.44117758 -0.15762089 0.09408855
-0.40320373 -0.13739616 0.10662107 -0.015066153 -0.115726575 0.38372457 0.52105904 0.18378632
0.011267907 0.029546974 0.2194056 -0.053622898 0.013007134 -0.36424637 0.24090138 0.13318327
-0.33504388 0.11230672 0.053793177 -0.5050673 0.19314979 -0.31837586 -0.12319574 0.14733909
0.27177888 -0.22883964 0.25697595 0.21582924 -0.39054725 0.072630234 -0.034605693 0.14136001
-0.09887043 -0.19687 0.08753622 0.17288339 -0.09173556 -0.17644772 0.3585798 -0.15780461
0.029397963 -0.36816022 0.041703947 0.2228726 -0.1116619 0.041730374 -0.07432414 -0.10639381
0.34994113 -0.09466883 0.15587892 0.21681546 -0.10202027 0.14107336 0.07759976 0.15548167
-0.16146486 0.23141935 -0.027494082 -0.10787905 0.0545617 0.5998944 0.0991253 0.19303574
0.03517254 -0.02214854 -0.18331906 0.12551917 -0.096955635 0.05670691 0.5296196 0.030074919
0.22091112 0.2621625 0.16859151 -0.25918895 0.43922046 -0.18488514 -0.049230203 0.717958
-0.22432224 0.13251574 0.4748253 -0.37304115 -0.04736477 0.035236344 0.057459112 -0.30601984
0.12906805 0.13652565 0.12780519 0.00048058404 -0.16144465 -0.43053734 0.21770157 -0.050128635
-0.08911431 0.04752364 -0.179572 0.12428304 0.16884509 -0.050351683 -0.4961548 -0.3484413
0.077405594 0.0304021 0.09714397 0.090150535 0.29019475 -0.3169322 0.24403273 -0.42872417
0.13097838 -0.13818325 0.3279677 0.11713206 0.20747702 -1.0524775 -0.6648289 0.5707464
-0.6382192 -0.1732362 -0.09203162 -0.39562693 -0.3053348 -0.025666285 0.25371987 0.1452152
0.1544748 -0.041046917 0.25783816 -0.50918657 -0.21166648 -0.29284322 0.12078682 -0.23500021
0.23865615 0.33163944 -0.021883758 -0.37773347 0.32488042 0.48863217 0.16547127 -0.036087513
0.06288505 0.1328499 -0.51642346 -0.24926338 -0.09148101 0.2080201 -0.085623145 0.14351918
0.025138706 0.54347116 -0.18904015 0.1852096 0.0907599 -0.023246126 0.3424884 -0.12060485
-0.19938794 0.16012122 0.16817638 0.039945755 -0.15567383 -0.03732372 -0.017984897 -0.019378984
-0.37841046 -0.3802972 0.11228364 0.3682465 -0.15999292 -0.17854418 -0.2783998 0.37345448
-0.27374652 0.12823367 0.4284211 -0.062092546 -0.095171735 -0.3460473 -0.1557295 -0.15634027
0.02721904 0.39607656 -0.22676118 0.16400452 -0.36828437 0.0055774245 -0.013331069 0.3995699

bias f4 [20]
00000000: d47b 353e 1604 6d3d c3e5 19be dc47 4abe
00000010: 667a 333d 9f82 1fbd 33ae cebd 309b 033e
00000020: 64f6 a73c f7d8 333e abaa 733e 941f 50bd
00000030: 70ae 15bd 86fd e4bc 0ce1 e53d 6072 cbbd
00000040: 9c2f 843d a49d fcba c649 4e3c d781 01be
0.17723018 0.057865225 -0.15029053 -0.19753975 0.0438179 -0.03894293 -0.100918196 0.12852168
0.02050323 0.17563234 0.23795573 -0.050811365 -0.03654331 -0.02795292 0.11224565 -0.09933925
0.06454393 -0.0019273055 0.012590831 -0.12647186

weight f4 [20, 20]
00000000: ccbb 793f 47ec 8dbe 62dc 18bf 7a16 2cbf
00000010: 8012 11bf a13f 10bd 0557 dfbd 491f f83e
00000020: 2dbe 08bd f15a 2440 301b 903d 1610 48bf
00000030: 7bc0 a3be 0b23 7f3c a731 f73b e0e6 90be
00000040: ab4d 3f3e ebd0 433e f9d4 a73c b257 41be
00000050: c6d6 44bf fbb8 d23d 045b 1ebe 81f2 af3d
00000060: ee87 df3d 7aad c6be 37d2 993e 4d75 36be
00000070: 76c0 fc3d 6965 85be f64b 783e f75b a33c
00000080: 86ee b33e 30d9 3dbe d511 19be 11b3 c0bd
00000090: e1af e7be d84c 44be ab6a 143f 0d9d 9d3e
000000a0: 8207 92be 896c 7fbe 66c9 713e 060e 873e
000000b0: b503 79be 34d8 a23d 0b7e 513e 7a8e 293c
000000c0: 631f 023f 1ec5 933e 67e4 81be 56ca 833d
000000d0: 239c 9ebe 6058 a23b 6fd4 7bbc cd8b 5fbe
000000e0: 5374 063f c309 7a3e 137e 133f 0c2b afbe
000000f0: 92c2 cabe 85d3 78be 96c8 d7be 69bb a2be
00000100: a607 093e 6299 b5be 6353 12bd 7460 d8be
00000110: 8542 113e 8a1f da3c 6226 08be 24c9 4f3e
00000120: 1045 763e 9a89 a13e 32d5 a53d 4d63 86bd
00000130: 6645 4cbe 5698 82be 9c2d 1e3f d97e 673e
00000140: abbc 1e3d 35ca 933e 8b3e b83e 77ef ec3d
00000150: 3a27 953d 3fc1 ca3e 9093 943e 8c5b 5ebe
00000160: b9dd 1dbe bfc1 14bd 38b8 053d 765f 0f3d
00000170: 9c0a a73e 8ba9 8abe 37a3 44bf 12ab fa3e
00000180: 3226 1d3d c402 2ebe f3df 8bbe 8ee4 12bc
00000190: b1ab 823e a845 0ebf 5ace d13d 62a1 103e
000001a0: 8118 babe 8dd1 983e c476 b6bd e591 9bbe
000001b0: f87a 133d b8ae d83d c25e 263e 52df e43d
000001c0: 64b8 e03e fb5e dabd 1843 7e3e 0fcc 043e
000001d0: 6c20 07bf 50f3 08be 09b2 903e 74a7 bebd
000001e0: 9067 d93b b798 46be e92c 31be 00c2 113e
000001f0: 78db c7be 368c 79be f41c 833e f4be 833e
00000200: 4d49 3bbc 3d59 103e f9b2 833d 7d2f 9e3e
00000210: af35 febe 789e 9dbc 6ea3 b3bc 66b0 e73e
00000220: 7e8a 0e3d 37b0 be3e 21c7 ffbe f13c 213f
00000230: 07cd 0a3e 712c c23e 4cc0 a83e d78f be3d
00000240: 988d 0a3f b433 fe3b 0201 b2bd bdf0 0cbe
00000250: b4da 993e eadc a0bd bdc0 acbd 4b73 e83d
00000260: 6336 3dbd 07df 6b3e 671f 433d 3fb8 0cbe
00000270: b5d1 32be 68a4 f7bb 26b9 a83e 022c a9bd
00000280: e8fb fcbe e3a2 953c 02dd 99be 5195 453d
00000290: 935f 003e 1ec5 a0bd e288 523e 9375 1ebf
000002a0: 1eb8 5cbd a273 3bbf c895 ef3e 6d12 bc3e
000002b0: 3eb4 143f 6a11 413e 2152 013c ccf0 403e
000002c0: 895f 97bc 870d c53b e043 fbbe d5ec 9dbe
000002d0: a8fe 39be 2a3c d63c 269d 85bd ef62 b63e
000002e0: 5350 94be a3a9 603e 333c 82be 2b23 a03e
000002f0: 1796 2f3e d008 263f 6f3f 053c 9783 893e
00000300: b079 cabe 6647 63be fb23 163f 2744 733e
00000310: 7b71 b03e 7b9c 9fbb dc82 9cbd f9a8 7cbe
00000320: 3adb 4e3f 85bf cd3d 97d8 d9bd aac0 14be
00000330: 0292 2cbe dafe bdbd d0a7 9a3b 13dc b23e
00000340: 913a dd3d 14a2 b33f d19b 12bf 4f1b 25be
00000350: bd91 20bf 7932 bcbd 4692 d9bd b3aa 68be
00000360: 6992 5abd e112 ae3e 67db 70bd 1883 eb3e
00000370: 74c9 033e 1fe4 b93d 7cca 17be 7f7c 073d
00000380: ebff 11be 56da 693d 73c4 a73d 2da7 253d
00000390: 2496 0d3e 31ac 65bd 5f92 ce3e 8997 5dbe
000003a0: 81aa 943d 4103 81be 8be6 f73e 5e4b a1bd
000003b0: 7aef 0a3e 635d ecbd e81e 103e 15fb e33e
000003c0: 5e95 fb3e 4b5f c0be 9b1b cf3e 7637 9a3e
000003d0: 0d27 c93d 56cf 27be 94f1 60be cc0a 93bd
000003e0: 1b00 c4bd 2ba4 ba3e cda8 6e3d 2515 4abe
000003f0: 99f8 1e3d 4f90 bb3d 2ac9 3abe 83eb 953e
0.9755218 -0.27719328 -0.5971128 -0.67221797 -0.56668854 -0.03521693 -0.109052695 0.4846137
-0.03338449 2.5680506 0.070364356 -0.78149545 -0.31982788 0.01557232 0.007543761 -0.28301144
0.18681972 0.19122665 0.020487295 -0.1888111 -0.7689022 0.102891885 -0.15464407 0.08591176
0.109145984 -0.38804227 0.30043194 -0.17818184 0.123413965 -0.26053932 0.24247727 0.019941313
0.35142916 -0.18539882 -0.14948209 -0.09409154 -0.45251372 -0.19169939 0.5797526 0.30783883
-0.28521353 -0.24943747 0.23611984 0.26377887 -0.2431782 0.07951394 0.20458238 0.0103489105
0.5082914 0.28861326 -0.2536957 0.06435077 -0.30978498 0.004954383 -0.015370472 -0.21830674
0.52521247 0.24417786 0.5761425 -0.3421253 -0.3960157 -0.24299438 -0.42145222 -0.31783608
0.13381824 -0.35468584 -0.035724055 -0.42261088 0.14185531 0.026626367 -0.13295892 0.20291573
0.24049783 0.31550294 0.080973044 -0.06561909 -0.19948348 -0.25506848 0.61788344 0.22606982
0.038754147 0.2886521 0.35985216 0.11569112 0.072828725 0.3960056 0.2901883 -0.2171461
-0.15416612 -0.036317583 0.032646388 0.035003148 0.32625282 -0.27082476 -0.76811546 0.4895864
0.038366504 -0.16993243 -0.27319297 -0.0089656245 0.25521615 -0.55575037 0.102444366 0.14124063
-0.3634682 0.29847375 -0.089093715 -0.30384746 0.036005944 0.105802 0.16247085 0.111754075
0.4389068 -0.10662647 0.24830282 0.12968467 -0.52783847 -0.13374066 0.2826083 -0.09309283
0.00663466 -0.19394194 -0.17302288 0.14234161 -0.3903463 -0.24369892 0.25608027 0.25731623
-0.0114310505 0.14096542 0.06430621 0.30895606 -0.49650332 -0.019240603 -0.021928515 0.4525177
0.034800045 0.37243816 -0.4995661 0.62983614 0.13554774 0.3792453 0.3295921 0.09304779
0.54122305 0.0077576283 -0.086915985 -0.1376371 0.3004967 -0.07854636 -0.084351994 0.113501154
-0.046194445 0.23034297 0.04763737 -0.1374216 -0.1746281 -0.0075574405 0.32953757 -0.08260347
-0.4941094 0.018266147 -0.30051428 0.048238102 0.12536459 -0.07850097 0.20560029 -0.61898154
-0.053886525 -0.73223317 0.46793962 0.36732808 0.5808753 0.18854299 0.007893116 0.18841857
-0.018478172 0.0060135755 -0.49075222 -0.3084475 -0.1816355 0.026151735 -0.06524114 0.35622355
-0.28967533 0.21939711 -0.25436553 0.3127683 0.17147098 0.64857197 0.0081327995 0.26858208
-0.39545965 -0.22195205 0.5864865 0.23756467 0.3446158 -0.004870949 -0.07642147 -0.24673833
0.80803263 0.10046295 -0.10637014 -0.1452662 -0.16852573 -0.09277125 0.004719712 0.34933528
0.10802186 1.4033837 -0.57269007 -0.16123699 -0.6272238 -0.091893144 -0.106236026 -0.22721367
-0.053362284 0.33998778 -0.05880299 0.45998454 0.12869817 0.09076714 -0.14823335 0.033077713
-0.14257781 0.057092987 0.081917666 0.040442634 0.13826805 -0.056072418 0.40346047 -0.21639837
0.072590835 -0.25197795 0.48418078 -0.07875703 0.13567916 -0.115412496 0.1407429 0.44527498
0.49137396 -0.37572703 0.4045075 0.30120438 0.098219015 -0.16387686 -0.21967155 -0.07179794
-0.095703326 0.36453375 0.05826645 -0.19734628 0.0388113 0.09158384 -0.182408 0.29281244

bias f4 [20]
00000000: 27ba b63d 9af3 30bb 1b0e c8ba 8c50 843c
00000010: 3c1d 5ebd 0c42 8bbc 1d1c 87bd 65d9 ec3a
00000020: 484c 333d 862a b93c 014c bb3c b03b bf3c
00000030: d2da adbb d5d6 233d bc7b f13c 2087 9c3c
00000040: 7f9a c53d daf6 013d f63e a23d b660 dfbd
0.089222245 -0.0027000667 -0.0015262993 0.016151689 -0.0542271 -0.016999267 -0.06597159 0.001807016
0.04377392 0.022603285 0.02286339 0.02334389 -0.0053056264 0.0399998 0.029477946 0.019107401
0.096486084 0.031729557 0.07922165 -0.10907118

weight f4 [20, 20]
00000000: e8ae 113e 4582 863e 8938 8a3e 77f7 9f3d
00000010: 7715 d43e edc7 113e cbb9 a73e 0813 a5be
00000020: 62f1 d6ba d2e1 39bc 81d4 21be 7c62 eb3d
00000030: 4a4a d93e a012 373e 923d 9a3e 3cc5 bfbc
00000040: 55e4 6fbc 92cc c0be 1507 f5bd 5f60 56be
00000050: 64e6 7ebe 87a9 043e a3f7 cfbd fe50 f53d
00000060: c7aa f63d f6b7 59bd 11fb 8e3d fbff 973e
00000070: 39a7 8c3e 1ce9 cfbe 702c 983c 1146 ac3e
00000080: 70e3 59be 1e9e 0a3d c61e 09bd 403b 663e
00000090: 3e60 763d 6371 0bbe 4d53 c73d 260e 883e
000000a0: 89d6 38bf cd19 f43c 096c 77be ea43 c23e
000000b0: ef85 2a3d 7a67 13be ba84 1ebd 8ada d7be
000000c0: a4dc c93e b8c8 5cbe 6d6e 1cbf 3118 263b
000000d0: 6fe4 8cbe b5bb 13bf a476 cf3c 7c96 f2bd
000000e0: f00a 1f3d 9c8a c0bd 1854 073d 7b46 69be
000000f0: 32b5 973e 29eb f6bd 3cb8 353e 7fcd aabd
00000100: ea37 41be 9b56 0cbe e14e 013e 7f42 02be
00000110: 1347 27be 026e 6e3e de26 663b 35b2 cbbe
00000120: c08e 453c 2a37 a93e 70b1 863e 88ad b03d
00000130: ee14 323e bb25 9abe 66c7 0c3f 7d7a 07be
00000140: 6bb6 1cbe 848a 3f3e 3a1f fb3d 4dcb 953e
00000150: 90bf 00bf 1b00 283e bd45 51bc 7cf3 ab3d
00000160: 2245 393d f903 03bf 0748 27be 836c bd3b
00000170: 832e 0bbe 07e4 cfbe b01e 073d d938 93bc
00000180: 77f0 e6be 1e10 4c3e 5c00 02be b652 babd
00000190: f70f 2dbf 2b3f 513e e12d df3c 1fe0 17be
000001a0: d5a6 c03e c5ea ae3e 3244 443d d38c 3a3e
000001b0: 4631 cf3e e86a 07bf f07f 98be 9c71 0dbd
000001c0: 796c 03bd ba80 e83d a967 f33d a2d9 11be
000001d0: a15d ddbd 8221 8bbe 10a5 69be e086 84bd
000001e0: ded6 8e3d d80f 213e 382b 463e f72a 223e
000001f0: 2757 10be 7944 9abd b031 e7bd 6654 3ebe
00000200: 79de 5cbd cf51 563e 1d74 58be a0f6 0ebe
00000210: 7974 a4bd 1f5a 113d 3d73 a43e a6c2 a1bd
00000220: 3aa7 d73c d0f7 13be ab77 0cbe 987c 1d3d
00000230: 4e20 1c3f 42ff 09be 6483 3b3e f9d7 773d
00000240: 506d a33e 0e69 813e ee9c 65be 53c1 80be
00000250: b11c ac3e d661 833d 7f6a 32bd 70be a1be
00000260: 2ebd 4c3e 5453 cbbe 9c74 883e 1f26 38be
00000270: 96a9 eabb 31c9 bf3e 34d0 b73e 7fd1 6dbd
00000280: 198f 44be c42c 743d c0a0 103e 83f3 84bc
00000290: 9b05 c23e 396e 173d f459 a5bd 0527 2c3e
000002a0: a86b 843e 2d1c 53bd e3f8 8ebe 5179 a43d
000002b0: b3ab a23e 4ca1 d8be 7813 9bbe fe38 da3c
000002c0: a688 a73e daad 853e 4b09 6abe 16f4 65bd
000002d0: 48e1 d63e 6527 51be 504b cd3d 9d4e 793e
000002e0: 4b10 c1be 7ec2 acbd 71d6 153f 8361 aabe
000002f0: 0db6 44bf 6b28 323b 9d58 bd3e fc9a f2bd
00000300: f5de e03e 7d79 613e 385c c93c 6409 b8bd
00000310: 4991 973d 9991 aebe a41d 183f c24b d13d
00000320: 8332 083f b802 82be e672 b53e 08d8 c6bd
00000330: 02fd ddbc c438 783d 38b8 c5bd d742 ae3d
00000340: 0bbc 213e a9c4 24bd 73df 34bd 968b 923e
00000350: 61b2 283d 5b76 a33e 3840 6d3e 8fef 9ebd
00000360: 4808 883e f408 903e 9a72 f03d c11b 153e
00000370: b19f b03d ce4b 653f 9c1b c53d bd39 6f3e
00000380: 2477 b5bd 5c2a ff3e c1a6 c43e 7dd5 d9bd
00000390: 89d7 4fbe cfde d83d 1019 973e b8fa a73e
000003a0: 6f37 efbc 82b5 67be f96c b8bd 6d08 263d
000003b0: 346e a3be dce5 463e 0e20 51be de4d 063c
000003c0: ec08 34bd 83cd efbd 2ff0 dabe a89d ecbd
000003d0: 151a 063f 8ebd 34be 8709 c73e 66d1 a53c
000003e0: b09e 753b d102 97be 4547 4bbd d62c 1abe
000003f0: 134e 5f3e 0056 3cbe 75d1 913d 9bc5 88be
0.14226878 0.26271263 0.26996258 0.07810872 0.41422626 0.14236422 0.32758936 -0.32241082
-0.0016398842 -0.011345344 -0.1580372 0.11493394 0.4243949 0.17878199 0.301251 -0.023409478
-0.014641841 -0.37656075 -0.119642414 -0.209352 -0.24892575 0.12955295 -0.10154655 0.11978339
0.12044292 -0.053153954 0.06981481 0.29687485 0.2747133 -0.40607536 0.018575877 0.33647206
-0.21278167 0.0338422 -0.033476613 0.2248354 0.060150377 -0.13617472 0.09732685 0.26573294
-0.72202355 0.029797459 -0.24162306 0.3794244 0.041631635 -0.14394942 -0.038700797 -0.4215892
0.39426148 -0.21560943 -0.61105996 0.002534401 -0.2751803 -0.57708293 0.025325127 -0.11845109
0.03882879 -0.09401438 0.033039182 -0.22780792 0.2963043 -0.12056572 0.17746061 -0.083399765
-0.18868986 -0.13704912 0.12627746 -0.12720679 -0.16335706 0.23284152 0.0035118381 -0.397844
0.01205796 0.330499 0.2630725 0.086268485 0.17390797 -0.3010691 0.5499176 -0.1323032
-0.15303962 0.18705183 0.12261815 0.2925667 -0.502923 0.1640629 -0.012772975 0.0839605
0.045231946 -0.51177937 -0.1633607 0.005780758 -0.13591962 -0.4060366 0.03298825 -0.017971443
-0.45105335 0.19928023 -0.1269545 -0.09097807 -0.67602485 0.20434253 0.027243556 -0.14831589
0.37627283 0.3416349 0.0479166 0.18217783 0.4046728 -0.528975 -0.2978511 -0.034532174
-0.03208587 0.11352678 0.11885006 -0.14243177 -0.10808874 -0.27174002 -0.22816873 -0.06471038
0.069745764 0.157287 0.19352424 0.15836702 -0.14095746 -0.075325914 -0.11288774 -0.18586883
-0.053923104 0.20929645 -0.21138044 -0.13961267 -0.08030028 0.035486337 0.3211917 -0.07898454
0.026324857 -0.14450002 -0.13717525 0.0384489 0.60986793 -0.1347628 0.1831184 0.060508702
0.31919336 0.25275463 -0.22423145 -0.25147495 0.3361564 0.06415145 -0.043558594 -0.31590605
0.19994041 -0.39712012 0.26651466 -0.17983292 -0.0071613295 0.37458184 0.35901034 -0.05806112
-0.19195212 0.059613004 0.14123821 -0.016229397 0.37894902 0.03697035 -0.08073798 0.1681176
0.25863385 -0.051540542 -0.2792426 0.08030952 0.3177162 -0.4231056 -0.3028829 0.026638504
0.32721442 0.261092 -0.22855107 -0.05614098 0.4196875 -0.20425184 0.1002413 0.24346395
-0.37707743 -0.08435534 0.58530337 -0.3327752 -0.7684029 0.0027184736 0.3698167 -0.11845967
0.43920103 0.22019 0.024580106 -0.08986166 0.07400758 -0.34095457 0.5942023 0.10219528
0.53202075 -0.253927 0.35439223 -0.097091734 -0.027098183 0.06060101 -0.096542776 0.085088424
0.15794389 -0.040226612 -0.04415841 0.2862212 0.04118574 0.31926236 0.23169029 -0.07760536
0.26568818 0.2813183 0.117406085 0.14561369 0.08624209 0.89568794 0.09624407 0.23361869
-0.08860615 0.49837005 0.38408473 -0.10636423 -0.20297064 0.10589372 0.2951131 0.3280847
-0.029201237 -0.22627833 -0.0900516 0.04053538 -0.31920016 0.19423622 -0.20422384 0.008197276
-0.04395382 -0.1170912 -0.4276137 -0.11553508 0.5238355 -0.17650434 0.38874456 0.02024145
0.0037478618 -0.29494336 -0.049628515 -0.15056166 0.21807127 -0.18392181 0.07120029 -0.2671326

bias f4 [20]
00000000: e6ca 183c 02ba 0abd aaca 763d dc89 a2bc
00000010: 9496 55bd 0b2d bd3b 46be 873c 9f74 9abc
00000020: 7b9a 003d 071e 8abd de93 8a3d d235 f5bc
00000030: c5b9 a6bd 6555 ae3a 6efa 113d 47ac acbc
00000040: 1841 3abe d5b3 ec3d e83f 943c 2246 6aba
0.0093257185 -0.033868797 0.06025187 -0.019841127 -0.052145556 0.005773192 0.016570222 -0.018854437
0.031397324 -0.067440085 0.06766485 -0.02993289 -0.081409015 0.0013300596 0.03563922 -0.021078242
-0.18188894 0.11557738 0.01809688 -0.0008936842

weight f4 [20, 20]
00000000: 4f7a 833e a923 9d3e e6fe 013e c518 ab3e
00000010: 357e df3d 34dd a13e c7fd bd3d 84e1 afbe
00000020: 38a8 d93d a726 c6bd 5f32 1d3e aac5 07bd
00000030: 3c01 8abe b9cb 213d f89e 00be 3daf 3bbe
00000040: 5bf4 ff3e 556f 133e 1ba4 17bd 026c d5bd
00000050: 2418 9abd fcea 873e 300c 5dbe 634a 073e
00000060: 866e b43c 0d66 a93e 3bf8 003e fda4 87bd
00000070: a689 12be 701e 98bd 2d7c 5e3d b7bd 1fbe
00000080: f017 96be 6355 0c3e a8d4 22be bfea 4d3e
00000090: 7920 21bd f846 3cbd 9d06 773e f023 5cbe
000000a0: 2cfa ce3e e288 153e 62c9 383d b400 d2bd
000000b0: 0611 29be 8089 e0bb 84bf 8c3e b01f 573e
000000c0: f2d5 34be 4538 ab3a 4516 6d3c c85a 933d
000000d0: df40 dc3e edf9 ba3d ae15 63bc 6d4d 103e
000000e0: fb37 ca3c ecef 4fbe 9dfb d1bd 84ca fcbd
000000f0: ebbb 12be f6b7 15bf d1ea 3b3e cb1d 8c3e
00000100: 0d63 f7be 9d43 8f3e c24a 8f3e b1f1 2f3f
00000110: 3ec1 a4bc 2009 4a3f c979 bc3e d704 f13d
00000120: d4ac 1b3e 904b 38be 7ebb 8c3e ae62 37be
00000130: 938f 73bc e55e 743e 50df ff3d 0e0c bcbe
00000140: 0303 1fbe aaaf 0abe cf52 e93d 5e30 0c3f
00000150: ed71 a3be eb51 d53e 56fe ee3d 8ef3 6f3d
00000160: 9027 24be 3a0f 0a3e 6e0b 323e 2978 de3d
00000170: f9de 8dbe af3b 25be f705 4bbe 3a19 5f3d
00000180: 7a2c 7ebd 205c a03e 7087 8dbe fc22 d1bd
00000190: 9fda 8cbe 346d 033e fb25 64be c3f7 b5bd
000001a0: 0249 a5be 5d34 94be 2df1 cd3d 8c02 4abd
000001b0: 7a68 823d dcda 34be ba7f cebd 4c48 d43d
000001c0: 3bb8 cc3b c301 a63e 0fe3 fc3e 5ddc 933e
000001d0: 643a d13e a8fa a1be a80c 8a3e dff8 833e
000001e0: 9853 cbbe 193c 8cbe 1235 84be 75c8 18be
000001f0: c85f e53d 3249 b4bd 14e0 6b3e 8fb8 c03c
00000200: 1b30 0cbe 3858 593e 5060 dfbd c9a2 eb3d
00000210: 1ae8 cdbe 615e 48bd b03f 89be a3d2 a5bd
00000220: 73ad 5fbe f573 ad3e 8ec3 a1bd 140c 87bd
00000230: e46b 3e3e 5e36 9bbe e60c afbe aa30 a9be
00000240: e8b6 bdbd 3b82 233e 027d 713e 4950 f4bd
00000250: 1174 debe a119 3c3f 8638 dd3e 0f43 c93d
00000260: 81d0 153f 4243 85bd c184 52be 3f50 e23c
00000270: 029e bf3e 1039 153c f84e dbbd b89a 41bf
00000280: 34bd ca3e e345 9dbe 410a b53e 4745 d6be
00000290: 67a0 cc3c 7b30 703d 07e8 42bd 85fb b93c
000002a0: 7a4b 91bd c82d 17be e755 a13c 7ba2 26bc
000002b0: 0094 b0be 782f 0e3d cee8 9abd 368c bf3e
000002c0: 643e 24be 26de 993e 2c76 d3be 22c5 cabe
000002d0: 1a12 4e3e a60f babe 4a33 83be 787b 8b3e
000002e0: 6138 60be 10df 84bd 8912 13bd 9bcf 803e
000002f0: 5bf7 c03d ef5a 0dbe cf02 8d3e e191 18bf
00000300: d01d bf3d 14ed 603e 3df6 f13e 5949 423e
00000310: 44d2 5abe 0872 61bb a785 94be 6019 85be
00000320: 5dbd 8e3e 129f bcbe f763 153e ebd8 cd3e
00000330: 917b edbd d8e0 21bd f884 753e c52b 3bbe
00000340: 1dbd b3bd 68ce 3e3e 4467 2abe 7af3 c5be
00000350: 4c18 a2bc 8b0a 07bf e487 da3d 20e2 77be
00000360: 1642 9dbc 8819 3cbe 8ec1 dc3e a158 95bd
00000370: 80e2 95bd 5153 273e 3ab0 6fbe 7116 e9be
00000380: 194b 9fbe 4ca2 f63d 5534 da3e 5214 f6be
00000390: c2f1 bc3e a3ba 883d 9f40 e53e 354a f4bd
000003a0: 37df 1d3d d2dc cebc ecce ae3c fc5c cfbc
000003b0: d442 a23e 443f c6bd 69a0 c03e 4df2 e3bc
000003c0: 084b 83be de83 ba3e c57c 7cbe 8ea0 e9be
000003d0: 8e0a e4bd 1b59 523b 3043 b0bc 3648 01be
000003e0: 3090 3d3e 4845 30be 9e06 7bbe 8450 1ebe
000003f0: 5f8c 103e 11ba a63e 83b6 04be 89e6 363f
0.25679252 0.3069127 0.12694892 0.33417335 0.10912744 0.31614077 0.0927692 -0.34351742
0.10627788 -0.09675341 0.15351246 -0.03314749 -0.26954067 0.039500926 -0.12560642 -0.18328567
0.49991116 0.14397939 -0.037021738 -0.104209915 -0.07524136 0.26546466 -0.2158668 0.1321197
0.022025358 0.3308567 0.12594692 -0.06623266 -0.14310321 -0.074276805 0.054317642 -0.15599714
-0.29315138 0.13704447 -0.15901434 0.2010908 -0.03933761 -0.04596612 0.24123617 -0.21498084
0.4042524 0.14602998 0.04511393 -0.1025404 -0.165104 -0.006852329 0.27489865 0.21008182
-0.17659739 0.0013063034 0.0144706415 0.071950495 0.43018243 0.09129701 -0.013860149 0.14092036
0.024684897 -0.20306367 -0.102530695 -0.12343314 -0.14329498 -0.5848383 0.18351294 0.2736648
-0.48317757 0.27981272 0.27986723 0.68728167 -0.020111676 0.78920174 0.36811665 0.11768501
0.15202647 -0.17997575 0.27486795 -0.17908737 -0.014865774 0.23864324 0.12493765 -0.36727947
-0.15528493 -0.13543573 0.113927476 0.547613 -0.31922856 0.4166406 0.116696045 0.05858188
-0.16030717 0.13482371 0.17387173 0.108627625 -0.27709177 -0.16136049 -0.19826494 0.054467417
-0.062054135 0.31320286 -0.27642393 -0.10211751 -0.27510545 0.12834626 -0.22280113 -0.088851474
-0.32282263 -0.289462 0.10055766 -0.049318835 0.063675836 -0.17661613 -0.10082956 0.10365352
0.006247548 0.3242322 0.49391982 0.2887906 0.4086486 -0.31636548 0.2696278 0.2577581
-0.39712214 -0.273896 -0.2582174 -0.14920218 0.111999094 -0.088030234 0.23034698 0.023525504
-0.13690226 0.21225059 -0.10907042 0.11505658 -0.40216142 -0.04891813 -0.26806402 -0.080968164
-0.2184351 0.3387753 -0.07898627 -0.065941006 0.18595845 -0.30314916 -0.34189528 -0.3304494
-0.09263402 0.15967648 0.23582843 -0.11929376 -0.43447927 0.73476607 0.43207186 0.098272435
0.58521277 -0.06506969 -0.20558454 0.027626155 0.37425238 0.009107843 -0.107084215 -0.7562671
0.39597476 -0.30717382 0.35359386 -0.4184973 0.02497883 0.058639985 -0.04758456 0.022702942
-0.07094474 -0.14763558 0.019694282 -0.010170574 -0.34487915 0.03471324 -0.07563935 0.3741166
-0.16039425 0.30052298 -0.41301095 -0.39603525 0.20124093 -0.36340064 -0.25625068 0.27242637
-0.21896507 -0.06487858 -0.03590635 0.2515839 0.09422179 -0.1380422 0.27541205 -0.59597594
0.09331858 0.21965438 0.47258177 0.18973292 -0.21369272 -0.0034400243 -0.2900822 -0.25995922
0.27878848 -0.3684011 0.14588915 0.40204558 -0.11595834 -0.03952107 0.23976505 -0.18278416
-0.08776305 0.18633425 -0.16640955 -0.3866232 -0.019786976 -0.5275046 0.1067045 -0.24207354
-0.019196551 -0.18369114 0.4311642 -0.07292295 -0.07318592 0.16340376 -0.23407069 -0.45524934
-0.31111982 0.120426744 0.4261805 -0.48062378 0.36903197 0.06676223 0.44775864 -0.11928216
0.038542952 -0.02525178 0.021338902 -0.025312893 0.3169161 -0.09680036 0.37622383 -0.027825499
-0.25643182 0.36428732 -0.24656971 -0.45630306 -0.11134826 0.0032096568 -0.021516412 -0.12625203
0.18512034 -0.17213929 -0.24514243 -0.15460402 0.14116047 0.32563832 -0.12960248 0.7144552

bias f4 [20]
00000000: d459 b1bc 9f1e 2f3c d11e 1ebd 0a1f ea3c
00000010: 25ea 2b3d 944f 2bbb 5782 bb3d fd64 16bd
00000020: 5a71 753c 0064 2c3d e0bc c8bb 9837 a63c
00000030: 28f5 abbc 175f 8fbd 2636 423d b613 27bd
00000040: b4a6 743b 1933 b5bc 7877 95bd 6035 bebc
-0.021649279 0.010688453 -0.038603608 0.028579254 0.041971345 -0.0026139962 0.0915572 -0.036717404
0.014980638 0.042087555 -0.0061260313 0.020290181 -0.020990923 -0.07000559 0.04741492 -0.040790282
0.0037330808 -0.022119092 -0.072981775 -0.02321881

weight f4 [20, 20]
00000000: cc77 d03e 7a3d 87be 7ff9 62be a850 a3be
00000010: 4a1c c5bd ea69 64bc feac 08be e5d7 05be
00000020: 59a0 dbbc c184 f9be b8bd 1a3e bef8 72be
00000030: 7701 693e 6efe 9abe f61b 2e3d 8447 bb3c
00000040: 03f1 fb3d a37e bf3b a7a8 cebd 90b4 90bd
00000050: 8b2a 2bbe bea7 eb3d 0aef bbbc aec9 a4be
00000060: 6042 bebe cb73 0d3e 6c60 963d 57d8 d4bd
00000070: 52a9 7cbd 4e7b 653d 5447 a23d 7a64 063b
00000080: 56bd 4ebd edd6 ac3e 5a20 c03e d94a b93b
00000090: ac9c e73d 7fba f9be efb2 853e 9e9e 9bbe
000000a0: b465 03be b74b 80bd 7972 503d 7d32 5fbd
000000b0: 5d4c 213e f5e4 37bd 68c6 9fbd f481 eebd
000000c0: b748 d1be 1daa 443e 854a ca3e 8cac 84bc
000000d0: 25f0 4d3c 8747 513d be82 d93e 55b0 8d3e
000000e0: f659 c23e 081f b53e d1c4 34be d580 213e
000000f0: 471a e13b 522a 303e 0e32 ffbc 65a3 8d3e
00000100: 8fce 9d3d bf22 07bd b9c0 99bd 8b86 f6be
00000110: 59c8 963d 1339 f83b 34fa 2abd a218 d83d
00000120: 42b5 b83e e8de 9ebb e3f0 b1bd 0c33 dcbe
00000130: cd92 8fbe 4a0f 983e ee1c 643e 4048 f0bd
00000140: 91ae 4a3d 9ce4 aa3e f8f9 efbd a1ee c7bd
00000150: 9153 bdbe ac2f 833e ab5b acbe ecb5 3ebe
00000160: e536 6bbe 73c8 813e b802 9c3e 45e4 c33e
00000170: ad8b edbd b82e 69be cbc2 013e fb2f e43e
00000180: c72c 853d 458a 373e 73f6 933e 0fe5 723e
00000190: 1d74 263e b7c9 0f3c af43 b73e 94a1 493e
000001a0: d9fd 91be 05df f63a d443 8abd 6fde 4e3e
000001b0: c0d6 debe d9b3 18be 4363 40be 3c2a afbb
000001c0: b964 b0be 7262 383d c82d 5f3d 7a0e 70bc
000001d0: f3fc 29bd ece2 1f3f dcc4 4e3d 81e1 733e
000001e0: e117 06be 2f5a a73e ce45 603e 017d 66be
000001f0: 4de2 4d3e 2c2e c7be 1a7f c43d 1ee3 d23d
00000200: 8daf 01be 7fdb 043e 4762 c13d c500 b8bd
00000210: faa7 253e cb0f 99bd 49e2 613e ca00 84be
00000220: 0d32 c23d cf12 df3d 1153 44bc 3d3e 84bd
00000230: b04b 22be 7de1 51be d992 1b3e c2e8 7abe
00000240: 020f f9be 2632 003e b3dc cd3e edf6 503e
00000250: bad8 03bd c179 32be 56f2 f0be c605 7e3e
00000260: a6a8 1f3e 0656 253e 38fb 92be 16bf 24bf
00000270: 5773 68be ad48 a63e fc20 063e d38e 8fbe
00000280: ab4a 143e d2da 5a3e 0f34 863d 9e61 8c3e
00000290: ba48 ddbe da6d a93d bb3a b43d ea4d c53d
000002a0: 479d 613d 5b11 143e 492b 633d 8ae2 bdbe
000002b0: 2bf2 a2bd 815d bb3e 1d09 4fbd 8adf 57bd
000002c0: 6f05 fd3c 5a57 3f3e 517a ff3c 07e2 a53d
000002d0: 0050 7dbd c7f6 d73d 132e 823e fb6c 063e
000002e0: 6dd5 0dbe 966d edbc 8033 b93e bbb5 b0bd
000002f0: 59b5 723e 6302 c7bd 2386 06be c2ae adbd
00000300: 06e9 28be 0e34 163e 2fc5 b53d 4dbb f13e
00000310: 8c0e da3c b1ce 1e3e aa87 e0bc 3904 22be
00000320: abc7 54be 6114 d9bd 3a43 a93d cfdc 88bd
00000330: 5dca 443e 2be1 e03d bbc4 e5bd 14d9 80bd
00000340: 9b3d 08be f885 ba3d 019d 1cbe 2f76 483e
00000350: 9a14 a03e aaaf 7dbd 3636 38be 7a5c f6bd
00000360: 2bf8 acbd 7a63 09bf ee21 5ebe 9dac b83e
00000370: 0152 62be ca88 fd3d e658 1e3e f3f6 b9be
00000380: ab8a 803d f4e9 253e 628f 92bd 44de 2a3e
00000390: c2e9 9c3e 7d43 0fbf 7f36 173e e79d c33e
000003a0: 5adb 3dbe 8183 c5be d0f6 2bbe e7b4 333e
000003b0: 84eb 873e aff1 5c3c 6c50 98bd d865 72bd
000003c0: 68a4 cd3e e019 963d ee03 adbd 9716 a4bd
000003d0: b274 0f3e 9071 41be 6336 42bd c9e0 43be
000003e0: cc90 20bc ce37 01bc e56b aabd 45e0 20be
000003f0: cbca 593c 6474 9d3e f322 69bd 2318 44be
0.40716398 -0.2641409 -0.22165488 -0.31897473 -0.09624536 -0.0139412675 -0.13347241 -0.13070638
-0.026809858 -0.48734096 0.15111434 -0.237277 0.22754465 -0.3027224 0.042507134 0.02286125
0.12301829 0.0058439537 -0.10090762 -0.070656896 -0.16715448 0.11506604 -0.022941131 -0.3218512
-0.37160015 0.13813703 0.0734261 -0.10392826 -0.061684914 0.056025796 0.07923761 0.0020506666
-0.050473534 0.33757725 0.37524682 0.0056546745 0.1130918 -0.48775098 0.26113078 -0.30394453
-0.12831765 -0.062644415 0.05089042 -0.05449151 0.15751787 -0.044896085 -0.07801515 -0.1164588
-0.4087579 0.19205518 0.3950998 -0.016195558 0.012569462 0.051093604 0.4248256 0.27673593
0.3795926 0.35375237 -0.17653205 0.15771802 0.0068695876 0.17203644 -0.031151798 0.27663723
0.077054136 -0.03299212 -0.07507462 -0.48149523 0.07362432 0.007575163 -0.04174252 0.10551573
0.3607579 -0.00484835 -0.086885236 -0.43007696 -0.28041688 0.29699165 0.22276661 -0.117325306
0.049482886 0.3337754 -0.117176 -0.09762312 -0.3697782 0.25622308 -0.33663687 -0.18624085
-0.2297016 0.25348243 0.30470824 0.38260093 -0.11598907 -0.22771728 0.12671964 0.44567856
0.06502681 0.1792384 0.28898963 0.23720191 0.16255231 0.00877612 0.35793826 0.19690543
-0.28513983 0.0018834776 -0.067512184 0.20202039 -0.43523216 -0.14912356 -0.18787865 -0.005345611
-0.34451845 0.04501576 0.05448702 -0.014651889 -0.041500997 0.6245563 0.05048071 0.23816492
-0.13095047 0.32685992 0.21901628 -0.22508623 0.20105858 -0.38902414 0.09594555 0.102972254
-0.12664624 0.12974356 0.09442573 -0.08984522 0.16177359 -0.074737154 0.22058977 -0.25781852
0.09482203 0.10892259 -0.011982695 -0.064571835 -0.15849185 -0.20496173 0.15192737 -0.24502853
-0.48644263 0.1251913 0.40207443 0.20406695 -0.03218911 -0.17429258 -0.47059888 0.2480689
0.15591678 0.16146097 -0.2870729 -0.64354074 -0.22700249 0.32477322 0.1309852 -0.28038654
0.14481609 0.21372536 0.06552898 0.27418226 -0.43219548 0.08272906 0.088002644 0.096340016
0.055081632 0.14459746 0.0554612 -0.37086898 -0.07956346 0.36594775 -0.0505458 -0.052703418
0.03088638 0.18685666 0.031186255 0.08099752 -0.061843872 0.10545116 0.25425777 0.1312751
-0.13850947 -0.028982919 0.36172104 -0.08628412 0.23701991 -0.09717252 -0.13137107 -0.08480598
-0.16495141 0.14668295 0.088755004 0.47213212 0.026618265 0.15508534 -0.02740844 -0.15821923
-0.20779292 -0.1059959 0.082647756 -0.06682741 0.1921782 0.109804474 -0.11219164 -0.06291404
-0.1330475 0.09107584 -0.15294267 0.19576333 0.31265718 -0.061935104 -0.1798943 -0.12029357
-0.08445772 -0.53667414 -0.2169263 0.36069193 -0.22101595 0.12379606 0.154636 -0.3632122
0.06276449 0.16202527 -0.07156254 0.1668635 0.30647093 -0.55962354 0.14766882 0.38206407
-0.18540707 -0.38576892 -0.1679337 0.17549478 0.26546872 0.013485356 -0.07437214 -0.059179157
0.40164495 0.07329154 -0.08448015 -0.08012121 0.1400936 -0.18890977 -0.04741515 -0.19128717
-0.009800147 -0.00788684 -0.083213605 -0.15710552 0.0132929785 0.30752861 -0.056918096 -0.19149832

bias f4 [20]
00000000: 7558 81bc 8520 95bc a45b 0abc d4f6 20bc
00000010: 2428 453c 26f5 54bd c8b4 c8bb fcce 6f3c
00000020: 2553 6d3c 4c88 4dbc 780c 79bd 24d9 b03a
00000030: 96ff 06bc 8d3a 7d3c fbbf d8b8 55ad e03a
00000040: b282 94bc fd5a c43d 733f 073d 1443 ad3a
-0.01578925 -0.018203983 -0.0084447 -0.009824473 0.012033496 -0.051991604 -0.0061250664 0.014636751
0.014485155 -0.012544703 -0.060802907 0.0013492447 -0.008239647 0.015455854 -0.00010335442 0.0017141501
-0.018128727 0.09587667 0.033019494 0.0013218843

weight f4 [1, 20]
00000000: 9ada 1b3d f7ad 16bc bbc8 db3e 6dea 993e
00000010: 7973 8d3e c7da fabe c570 bd39 9a5b e23e
00000020: 6543 b83a e22e 273c 0df2 f33a 9bb9 ffb9
00000030: 1a56 013e d291 413b aefc db3d bf35 36be
00000040: 15f1 0ebe 1c8a fa3a 6070 e4be 444b 933c
0.03805027 -0.00919675 0.42926583 0.30061665 0.2762716 -0.4899504 0.0003613291 0.4421051
0.0014058171 0.010204049 0.0018611565 -0.00048775677 0.12630501 0.0029536379 0.10741554 -0.1779394
-0.13959153 0.0019114646 -0.44616985 0.017980225
