pendulum/models/pendulum_pinn_hidden_6_20_t_0_0.5_10_lr_0.005_epochs_10000.pt (torch, 17282 bytes, 13 tensors)

weight f4 [20, 1]
00000000: 9fbd 0dbf c655 613f d360 883d 38d7 cbbc
00000010: 7802 4d3d e3c7 013f e364 1ebe 7713 4fbf
00000020: 9444 91bf 5aee 54bf e346 6bbb 31e0 023f
00000030: ca44 88be 444e 05bf 2d49 433f 813d 20bf
00000040: 2777 8bbe ee8b 9f3c 7056 323e 3297 133e
-0.55367464 0.88021505 0.06659093 -0.024882898 0.050051183 0.5069563 -0.15468173 -0.80889076
-1.1349053 -0.83176196 -0.0035900406 0.5112334 -0.26614982 -0.5207255 0.7628353 -0.6259385
-0.27239344 0.019475903 0.17415786 0.14413145

bias f4 [20]
00000000: 3355 043e 2c93 d0be 4d39 04bc 83b6 513c
00000010: 26c3 f53c fe6e 12bc c83d dfbd 1370 343e
00000020: e82e d3bd 6f97 e7bd 33d8 85ba 1468 8e3d
00000030: befc 0abd 510d 443d b3f9 10be 834d afbd
00000040: 044b cebd eb3f c73b 15dc 9a3d 352b c0bc
0.12923126 -0.40737283 -0.008070302 0.012799862 0.03000028 -0.008937595 -0.10900456 0.17620878
-0.10311681 -0.113081805 -0.0010211527 0.06953445 -0.03393244 0.047864262 -0.14157753 -0.08559706
-0.10072902 0.0060806177 0.075615086 -0.023458103

weight f4 [20, 20]
00000000: e1b2 b93e 8fb7 10bf 71c3 133d 06a7 0abd
00000010: d935 073d 265d d5bb 0fb1 07be 420c 1d3d
00000020: 91d0 673d fb97 0c3e 8735 8ebe 1d29 69bd
00000030: 50ad 1ebd 0e7c f63e 7fcd 5dbe a1cd fd3d
00000040: d427 d9bd 9dda e33d a4b3 cd3e 7a73 bfbd
00000050: ad7d 1d3f 9b80 29bf 6542 41be 038e db3d
00000060: 16fe b9bd 8b8e 02bf 021e 9bbe 829c 623f
00000070: acf3 4e3e d7a0 1d3f 08a7 0bbe 1d7f a4be
00000080: 82c3 04be de46 3e3f d058 6dbf eccf 0b3f
00000090: 0dce 9a3e b4e8 11be 4baf 0bbe 77a9 bcbe
000000a0: 85b2 48be 3540 51be 92d5 80bd 426a 063e
000000b0: db6b 53be cb84 d7bd 230d 763e 9448 8dbe
000000c0: 7c0c fd3e b19f 0e3e 58e4 66bd 69f0 b6bc
000000d0: 8ac8 0b3e a184 fb3e 5982 bcbd d494 753e
000000e0: e0dd 353e 76f0 c0be a6bc e7be f2ca 90be
000000f0: 62d6 363e 3893 c23e fb6b 92bd 06a9 be3d
00000100: 72c4 9bbe 7a06 8cbd 5293 8e3c 385a a0bd
00000110: 65f1 21be 3068 a23e db13 ce3e 51eb 813e
00000120: 23f1 f4bc 3045 0abd ff85 8e3e 2788 07be
00000130: 3822 a2bd 1322 1abe 2a95 af3e 0f8d 403e
00000140: abca 73be 3c08 193c 8f52 71be 97af 91be
00000150: 684b 373d cb46 afbe f110 ccbc 8209 953d
00000160: 997b 5f3e e8a4 75be 2e97 bd3e 84a1 033e
00000170: 74c9 85be 6a30 243e 3410 973b 060d 073e
00000180: d1d1 3dbc 1d58 9bbe b48c 8339 5f7c 34bd
00000190: 43bf 01be a4d2 35be 43c5 8d3e 6a74 07be
000001a0: b1d0 f23b 7c8d a3be 603c da3c cdc7 203e
000001b0: 30a6 1ebe e479 10bb 8c70 9bbc a4e5 97bd
000001c0: 6904 b63e da38 12be dfed 6c3e 937a 343e
000001d0: 1ba7 01be dcf7 763d 15f9 bf3d f004 023e
000001e0: 0504 4e3c 4124 2a3d 5887 16be f2d1 5f3d
000001f0: 1352 27bc fc67 fc3e e907 2a3e 0f93 733e
00000200: 787c a73c 0dfe 0e3c 1be5 2dbe 7497 2b3d
00000210: d1f4 883c 4fb0 3b3e 1916 de3e 4b4e 683d
00000220: ad8f 923e bebb 643e 8a51 f13d 2894 bfbe
00000230: 7784 b63e 9919 41bd 34fd dc3d 2700 063f
00000240: 37d4 fdbd 11ce f43d ad03 d13e b276 8bbe
00000250: ed3a a53c dd23 a23d c0eb df3b 0bd6 75be
00000260: d30d 853c d6e9 b13d a090 ad3d dea0 823d
00000270: 0022 5dbe 0125 b7be 1a9d 863e abaa ba3d
00000280: 8dc2 9dbd 2d4b 073d 2da4 7fbe 30fc 053e
00000290: 7af1 2c3e 08d4 a4bd 3253 04bf a5da 9dbe
000002a0: e034 e93d e199 283d 75c3 ba3d a18d aa3d
000002b0: 4646 9e3e 7650 9abe 5475 613e b8c8 d3be
000002c0: b2f6 e83d 1b14 1ebe 4272 b83e 5657 9b3d
000002d0: c807 843d 1851 e2be cef4 64be 2c22 6b3e
000002e0: b6e9 fcbe 6a6d abbe 8f02 72bd c548 53be
000002f0: 9eb3 0dbe b0b3 213e d68d 513d 50df 963d
00000300: eef3 373c 0681 c93c d55d 9c3d 9ed1 a8be
00000310: 235c 02be df71 f6bd 1590 303d e3eb a13d
00000320: c314 773e 7f68 383e dafa 16be fc56 80be
00000330: 1093 3e3e d32e 143f 9194 503e 6432 efbd
00000340: eae1 273d c025 a43d 887b 83be 5b84 55be
00000350: 181a 46bd 89e5 213e 1903 6d3c a3a5 cc3d
00000360: 0009 613c 20da 0a3e 5003 59be 41c1 f23d
00000370: eb67 a43d f8cf cabc d1f2 af3e 1cfc dfbd
00000380: 4cce 3fbe c40f 363e d2ed 1c3e 82bc 7e3c
00000390: dc5b 31be f238 69bd 92e7 21bd 3155 b1bb
000003a0: 315d c1be fa62 cbbe 22ad 0b3e 20c1 b03e
000003b0: d036 34be 6a2f 1bbe cbf3 83be 8eff bf3e
000003c0: 1ab1 3abe 6ad0 07bd 8524 943e c5a1 be3d
000003d0: a13b 1fbe ea34 aebe f8c8 f0bd ebdc 49be
000003e0: 668e bbbc 40b2 b63e 75a0 5cbe b889 073e
000003f0: d209 8fbe 1df0 503d 3a2a d43b e1f2 b43e
0.36269286 -0.5653009 0.03607506 -0.033850692 0.033010338 -0.0065113483 -0.13251136 0.038341768
0.05659539 0.13729851 -0.27775213 -0.056923974 -0.038739502 0.4814152 -0.21660422 0.12392736
-0.106033 0.111256815 0.40176117 -0.09348197 0.6151989 -0.6621186 -0.18872984 0.10720446
-0.09081666 -0.50998753 -0.30296332 0.8852006 0.20210141 0.6157355 -0.13637936 -0.3212823
-0.12965205 0.74326885 -0.9271364 0.5461414 0.3023533 -0.14248925 -0.13641088 -0.3684804
-0.1959935 -0.2043465 -0.06290735 0.13126472 -0.20646612 -0.10523375 0.24028449 -0.27594435
0.49423587 0.13928105 -0.05637011 -0.022331433 0.13650718 0.49124625 -0.09204549 0.23982555
0.1776042 -0.37683457 -0.45261115 -0.28279835 0.17855218 0.38002944 -0.07149502 0.093095824
-0.30423313 -0.06837173 0.017404232 -0.07829708 -0.15814741 0.31720114 0.40249524 0.25374845
-0.02990014 -0.03375739 0.27836606 -0.13235532 -0.07916683 -0.15052061 0.3429349 0.1880381
-0.2380778 0.009340342 -0.2356665 -0.28454277 0.044749647 -0.34233698 -0.024910422 0.07277204
0.21824493 -0.23988688 0.37029403 0.12854582 -0.2613026 0.16034093 0.004610086 0.13188562
-0.011585669 -0.30340663 0.000250911 -0.044063922 -0.12670617 -0.17756134 0.2768956 -0.13228002
0.007410132 -0.31943882 0.026640117 0.15701218 -0.15493083 -0.0022045309 -0.018974565 -0.07416847
0.3555024 -0.142795 0.23137616 0.17624883 -0.12661402 0.06029497 0.093736805 0.12697196
0.0125742005 0.04153848 -0.14700067 0.05464358 -0.010212439 0.49298084 0.1660458 0.23786567
0.020445094 0.008727563 -0.16981928 0.041892484 0.0167183 0.18328975 0.43376234 0.05671529
0.2862524 0.22337243 0.117831305 -0.37417722 0.35647938 -0.047143552 0.10790482 0.5234398
-0.123939924 0.119533665 0.40823117 -0.27238995 0.0201697 0.07916997 0.0068335235 -0.24007432
0.016241943 0.08687179 0.08474851 0.06378339 -0.21595001 -0.3577042 0.26291734 0.091145836
-0.07703123 0.033030678 -0.24964972 0.13084483 0.16888991 -0.08048254 -0.51689446 -0.30830875
0.11387038 0.041162375 0.09119312 0.08327795 0.3091299 -0.30139512 0.22017413 -0.41364074
0.113751784 -0.15437357 0.36024672 0.075850174 0.06446797 -0.44202495 -0.2235901 0.22962254
-0.49397057 -0.33481914 -0.05908447 -0.20633228 -0.1383805 0.15791202 0.051160656 0.07366812
0.011227591 0.024597656 0.076350845 -0.32972425 -0.1273046 -0.12033438 0.043106157 0.0790632
0.24129014 0.18008612 -0.1474413 -0.25066364 0.18610787 0.5788395 0.20369174 -0.11679533
0.040986933 0.08015013 -0.25680184 -0.20851271 -0.04836473 0.15810217 0.014466071 0.0999253
0.013735056 0.1355977 -0.2119267 0.118532665 0.08027633 -0.02475737 0.34364942 -0.10936758
-0.1873104 0.17779452 0.15325096 0.015547873 -0.17320198 -0.056939073 -0.039527483 -0.005411767
-0.37766412 -0.3972395 0.13640264 0.34522343 -0.17599034 -0.15154806 -0.25771937 0.3749966
-0.18231621 -0.033157744 0.28934112 0.09308199 -0.1555009 -0.34024745 -0.11757082 -0.1971318
-0.02289505 0.3568287 -0.21545584 0.1323613 -0.2793718 0.05101024 0.0064747604 0.35341552

bias f4 [20]
00000000: 5ff7 a83d 5ddc 203e 5c28 0abe 0276 87bd
00000010: 7894 153c b9a4 1fbc 1780 1dbd 58da f53d
00000020: 8901 353d f1ac 043c 919d 103e 8fd3 b1bc
00000030: 3e01 70bc c25b 1dbd 5a59 ff3d a508 bdbd
00000040: 7948 1a3d 33d4 613c f3d2 10bd 2467 a9bd
0.08250307 0.15709062 -0.13491958 -0.06614305 0.009129636 -0.009743863 -0.038452234 0.120045364
0.044190917 0.008097873 0.14122607 -0.021707324 -0.014648734 -0.038417585 0.12468214 -0.092301644
0.03766677 0.013783502 -0.035357427 -0.08271626

weight f4 [20, 20]
00000000: 7aa4 1c3f 55d3 69be ce5f 04bf ac1f 1cbf
00000010: 42b6 29be 6e48 08bd 14a5 f9bc c8e2 b53e
00000020: 008d 09be 0d18 533e 5dfe 383e 08c6 40bf
00000030: 71ba 223b d30a 55bd 83ed 94bd 2905 50be
00000040: 6fce 833e 3a3e 0a3e 0ff1 91bd 91bf 5dbe
00000050: e60f 44bf d4b3 643e 4885 75bd b66b 9e3d
00000060: 12f6 5d3d d423 b3be 0c58 973d bada 9cbd
00000070: 4c32 a43c d4b1 babe 961f 4e3e c545 05be
00000080: 1385 373e fd0f 7fbe 5a98 84be 0f86 473c
00000090: 85d6 afbe 086e edbd fc3f eb3e 6558 753e
000000a0: 946f afbe 1b4e b7bc f93f 723e 8dcf 803e
000000b0: f654 783d c063 1c3e 6442 333e a934 9dbd
000000c0: 7cde 013f dd05 f43d 77f4 2ebe 7c98 203e
000000d0: 25d6 cabd 4e91 8f3c f0a4 cfbc babb 72be
000000e0: 93f3 063f bb20 233e 87e1 fa3e faab bbbe
000000f0: effd dcbe c772 c5bd 71f6 a9be 6155 94be
00000100: 16ee 9e3e 7148 89be 1487 fabd 4dcb dcbe
00000110: 2a41 f23b 26ee 68bd c8d1 c3bd fea1 a33d
00000120: e57a 993e 3723 473e edc5 6fbc d251 f53c
00000130: e0d0 3bbd 3144 b1bd cc42 d43e 0d1b 313e
00000140: 05b1 963d 1f55 583e d79d 813e d33e 8f3d
00000150: ecc4 dabd 78ba c13e 156a 8d3e 6dca 0bbe
00000160: 6737 553b 2712 563d 5445 85ba d2cd 133d
00000170: c860 803e 9daa 10be ec97 2bbf 5cf3 bf3e
00000180: c54e 233b b587 46be 2f98 2dbe 03b0 87bc
00000190: 82ed 4c3e aaaf f2be ba0b 0b3e ee9c 343e
000001a0: 5c5f aebe c7bb a93e 4754 3abe aafc 9fbe
000001b0: 6b01 733c 061e 333d 6a30 193e b151 b23d
000001c0: 77dc ce3e 55a2 03be 46ad 593e cc65 283e
000001d0: 87a0 e3be eaf2 97bd 49ab 6a3e ce81 09be
000001e0: d62c 00be 61f0 2fbe 7072 32be d095 2d3e
000001f0: 15f4 90be f5a7 6fbe a5f1 473e ffbf 413e
00000200: 585e 4c3c 571e 4bbe 7c23 4f3d 633c b93e
00000210: f7cd a9be e47c 0fbb 5623 01bd 8457 df3e
00000220: 0f18 e33c 6a1f b13e 09f4 febe 2e5a 153f
00000230: 9d44 123e e351 ac3e dfb1 a63e 7296 e53d
00000240: cc9d db3e c2ac 66bb 9dad 88bd 3299 c0bd
00000250: 730e 963e 5857 453d dbd6 bcbd 5ac4 a23d
00000260: bb93 36be 4b6e 653e 1ced 823d 5355 06be
00000270: 59d8 4bbe 1ee3 73b9 0e2d b63e 94e3 553c
00000280: b722 67be 4e8b 753b ee76 8fbe 6517 04bd
00000290: 23a4 44be 39ff 34bd d7b0 903d 50b5 cebe
000002a0: 67db a7bd 4846 6cbe f696 b63e 8f78 633e
000002b0: 3750 2dbd 63bb 143e 2869 29bc 18bf 643e
000002c0: 7416 ea3c 5123 023e b3cd 01bf 03ba 9abe
000002d0: 1112 89be 8ce6 2d3c 3bf7 1cbe e912 c93e
000002e0: 3b56 01be e1be 1a3e 1e5a 0fbe 116f 353e
000002f0: 1b85 903e cc0e 063f 5af5 eb3c 3e9f c13e
00000300: 6974 81be 4f1d 10be d931 2f3f 561f 193e
00000310: e988 823e a3d4 e6bd fd3f acbb 65fe 31be
00000320: 4c8a 9d3e 8db5 7e3e bdf2 5fbd ec1f 35bd
00000330: a88d d53e 946b 51bd 38fe a7bc f5ec c73d
00000340: fcc3 55bc 5890 05bd b151 ccbe cfc2 efbd
00000350: 1ab7 4cbe ff25 06be 8fc6 05be 1374 1fbe
00000360: 9daf fa3c dbd3 4f3e 5883 30be 5f9b 973e
00000370: 6fac 3d3e 5a1e b43d 832f 22be cc4e 773c
00000380: 5ae6 3dbe 2444 893d 93c7 113d 6412 993d
00000390: 01e3 f03d 59fd 1b3d 9a6b b83e 73ee 84be
000003a0: 8607 5c3d 0d99 87be 9665 fd3e a317 a7bd
000003b0: 93aa 2b3e 98c9 b7bd 74a8 f23d 5de6 ca3e
000003c0: 2723 dc3e f096 83be 9397 cc3e 5440 973e
000003d0: 1a9c 103e 5abd 12be 308d 6abe fdcf dabd
000003e0: c65d 89bd d808 393e 7c92 d73c 6296 05be
000003f0: a963 3d3e 5347 0b3e 6460 6ebe 5b59 7a3e
0.6118847 -0.22834523 -0.51708686 -0.6098583 -0.16573432 -0.0332722 -0.030474223 0.35524583
-0.13432693 0.20614643 0.18065782 -0.7530217 0.0024830366 -0.052012276 -0.07271864 -0.20314468
0.25743434 0.135003 -0.071260564 -0.21655108 -0.7658676 0.22334224 -0.05994156 0.07735388
0.05418975 -0.34988272 0.073898405 -0.07658906 0.020043515 -0.36463797 0.20129237 -0.13014896
0.17921858 -0.24908443 -0.25897485 0.012177958 -0.34343353 -0.115932524 0.45947254 0.23959501
-0.34264815 -0.02237611 0.23657216 0.2515835 0.0606279 0.15272427 0.17505795 -0.0767606
0.5073011 0.11915181 -0.17085443 0.15683168 -0.09904126 0.017525341 -0.025347203 -0.23704425
0.52715415 0.15930454 0.4900019 -0.36654645 -0.43162486 -0.09641033 -0.33195832 -0.2897139
0.3104102 -0.2681308 -0.12232795 -0.43123856 0.007393022 -0.05686774 -0.09561497 0.07989882
0.29976574 0.19447027 -0.0146345915 0.029946242 -0.045853496 -0.086555846 0.41457212 0.17295475
0.073579825 0.21126221 0.25315735 0.06994405 -0.10682091 0.37837577 0.27619997 -0.13651438
0.0032534243 0.052263405 -0.0010167756 0.036084957 0.25073838 -0.14127584 -0.6702869 0.37490356
0.0024918776 -0.19387706 -0.16952585 -0.016563421 0.20012477 -0.47399646 0.13578692 0.17637989
-0.34057128 0.33151075 -0.18196212 -0.31247455 0.014831881 0.043729804 0.14959875 0.08706988
0.40402576 -0.12854894 0.21257505 0.16445082 -0.4445841 -0.07419379 0.22916903 -0.13428423
-0.12517104 -0.17181541 -0.17426467 0.1695168 -0.2831122 -0.23403914 0.19525774 0.18920897
0.012473665 -0.19835792 0.05057095 0.36178884 -0.3316495 -0.002189451 -0.03152784 0.43621457
0.027721433 0.3459428 -0.4979556 0.5834073 0.14283986 0.33656225 0.3255758 0.11210336
0.42893827 -0.0035198187 -0.06673739 -0.0940422 0.293079 0.048179 -0.09220668 0.07947607
-0.17829792 0.22405355 0.06392881 -0.13118486 -0.19906749 -0.00023258894 0.3558125 0.013054747
-0.22571836 0.0037467065 -0.28020424 -0.032248873 -0.19203238 -0.04418871 0.070649795 -0.40372705
-0.081961446 -0.23073685 0.3566205 0.22213958 -0.042312827 0.14524607 -0.010340013 0.22338521
0.02857516 0.12708785 -0.507045 -0.3022004 -0.26771596 0.010614049 -0.15328686 0.3927224
-0.1263055 0.15111877 -0.1399922 0.1771815 0.2822655 0.5236633 0.028803516 0.37816805
-0.25284126 -0.1407368 0.68435436 0.1495336 0.2549508 -0.11271026 -0.0052566514 -0.173822
0.30769575 0.24873944 -0.054674853 -0.044219896 0.41709638 -0.051127985 -0.020506963 0.09761993
-0.013047215 -0.03260836 -0.39906076 -0.11707079 -0.19991723 -0.13100432 -0.13064025 -0.15571623
0.030601317 0.2029566 -0.17237604 0.29610726 0.1852281 0.087948516 -0.15838437 0.01509447
-0.18544903 0.0670245 0.03559072 0.07474211 0.117620476 0.038083408 0.36019593 -0.25963172
0.053718112 -0.26483956 0.49491566 -0.08158805 0.16764288 -0.08973998 0.11848536 0.39628878
0.4299557 -0.25701094 0.39959392 0.29541266 0.14122048 -0.14330044 -0.22905421 -0.10684202
-0.06707339 0.1806978 0.026314966 -0.13045648 0.18495049 0.13601427 -0.23278958 0.24448149

bias f4 [20]
00000000: 9fc4 b53c 19e4 abbd 8462 293d 5dae a3bb
00000010: efa2 20bd a07c e9bc 2756 6ebd 8f0c 60bd
00000020: f140 f73c b13c ba3d 73ba 02bc 6cdb 653d
00000030: c6c0 043c 46db 293c 9d91 813d 0e71 803d
00000040: cf35 a23d 9d5d d63c 2188 2d3e 0fc2 dd3c
0.022188483 -0.083931156 0.041353717 -0.004995151 -0.039217886 -0.028501809 -0.05818763 -0.054699477
0.030182334 0.09093607 -0.007979023 0.05611746 0.008102601 0.01036722 0.06326602 0.062715635
0.079204194 0.026167685 0.1694646 0.027070073

weight f4 [20, 20]
00000000: 9b60 363e 732f 583e fc66 663e b312 963c
00000010: 8fe0 cd3e 6611 a83d 40ee 983e e5df acbe
00000020: 0967 64bc 3459 eb3c 282e 3bbe babb d03d
00000030: d80d db3e 85aa 703e c06e 9e3e f9fb e4bc
00000040: 2a85 713c afcc 83be 2e15 1cbd e164 49be
00000050: d86e 00be da70 6b3d 677a 01be 50b8 003e
00000060: 70d6 dc3d 2c81 51bd 373c 513d d1d9 643e
00000070: 4b7c 2a3e d468 c6be 3bf5 443d 6161 bb3e
00000080: 3de5 35be c34e 973d 3e4a b5bc 7a7c 693e
00000090: 2ca8 853d c0df c4bd c436 4e3e 73c4 883e
000000a0: d9dd 86be 92db 24be 24b6 40be 049b 913e
000000b0: 22dd fa3d a8d5 3dbe 3d30 53bc 33f0 08bf
000000c0: f6e9 213e 20c4 04be 35dc b6be 871c 65be
000000d0: 412a 0abe 9d1d ecbe f9e5 1a3e 3f07 61be
000000e0: bda6 f83d 6b2b 49be b8f0 993e 2f11 62be
000000f0: dbe9 943e 0d8b 4c3c 913a 363e 0c4e c2bc
00000100: 0e66 6abe fd1b b8bd d43c 003e ec6e f5bd
00000110: 8e61 18be d703 723e 4402 0eba 2c34 96be
00000120: bb4c 9cbd ba72 5b3e 7159 7b3e 81cf e93d
00000130: 2992 013e 22e5 37be 6b7b 9f3e 6216 02be
00000140: e27b 9cbe 6c9c 133f cf41 4e3e 5921 bf3d
00000150: d005 d4be 3f28 4e3d 3083 dc3d e853 0c3e
00000160: 5a7c 943b 10fd 0ebf 887e f7bd e766 1dbe
00000170: 5e0e dbbc 913b a3be 857b fd3d 46ab eabd
00000180: 371a 59be 50e0 e73d b39d 86be 02b5 3dbe
00000190: 98ee 7bbe a160 013e 6487 f63b 0c05 4fbe
000001a0: 00dd dc3e 6c94 943e dc87 5f3d 1242 323e
000001b0: 2afa 763e 0c67 01bf 7165 3cbe 43b0 abbd
000001c0: f42b bd3c d625 433e c743 243e 9dd2 39be
000001d0: 919a 88bd b9d0 a7be 6683 05be 1d9d 7fbd
000001e0: cc87 ab3d 185e 143e ac03 0d3e 7bbd d73d
000001f0: 0cca adbd d391 04be f941 00be 662c ebbd
00000200: 1db1 1abc 82dc 4b3e 1f3e 61be 9ec1 49be
00000210: b07e b1bd a4d9 a43d 07ff 9d3e 7d82 a2bd
00000220: 6d63 753d 603e 70be f192 81bd a26a 873c
00000230: 3b4a 043f 1a28 42bd 4c9f 523e 3534 6f3d
00000240: c215 a13e 221b 773e 1a72 57be ef6a 56be
00000250: 6ba2 933e ffa3 383d 08cf 4cbd 977b a2be
00000260: 01fd 313e 0c68 d9be 21a0 843e d59c 3fbe
00000270: 61f2 b4bc 60eb d03e 53f9 853e 8ec0 9cbd
00000280: 5040 28be d4cb 12bd 3951 093e 816b 1abd
00000290: 2286 ce3e b910 1e3d acb2 91bd 9c3d d93d
000002a0: 9aac 443e d37b a0ba db92 7cbe 50e7 7c3c
000002b0: c2fe c13e c0f9 bebe 4dc8 86be ddba 8d3c
000002c0: 01d4 b33e 387c 313e c36a cfbd 99ba f4bc
000002d0: 122f 893e f147 d13d 0e84 053e 33f1 9e3e
000002e0: 4bc5 cabe ed68 a7bc b775 ec3e 98de abbc
000002f0: 760d b8be 86a5 e3bd 8117 933e a67b a5bd
00000300: b9e7 863e 15a3 d9bb 7715 4dbd 0bf6 7abd
00000310: f83c bd3c 9b65 8ebe 3d78 2d3e 8ae5 6c3d
00000320: 5704 7e3e 6b7a 8fbe 28a8 c23e 6492 15be
00000330: b6e4 9a3c ddf7 993a 8a6e 5c3c e7f1 b83d
00000340: 3cc1 383e 140a 483c 3da8 723c bd69 5d3e
00000350: 3630 693c 3f1b bf3e f329 823e 9936 a6bd
00000360: fd53 a73e 1ed8 113d 2392 1d3e d9d5 5b3e
00000370: 4b8b 423d 1f52 643f 11bf e33d c8c1 7d3d
00000380: 3a87 42bd c223 cb3e 9a07 c43e 46c3 b0bd
00000390: 2e48 61be 215f cb3d 8e30 a53e a519 623e
000003a0: 8962 8d3d fbcd 11be f6c2 05bd bb80 303a
000003b0: 8ebf 6abe e6ca bb3d 71d0 63be 93f6 29bc
000003c0: d577 02bd 7c2e e6bd 40fa cbbe 9778 d6bd
000003d0: 4e82 d23e 4a5e 2fbe a166 b53e 9fa4 8d3d
000003e0: 3fa8 d6bd 1a43 bcbe 8198 05bc 7e3f 18be
000003f0: d9c2 703e 8ba3 3dbe ac23 df3d 9126 92be
0.1781029 0.2111185 0.22500223 0.018319463 0.40210387 0.082064435 0.2986927 -0.33764568
-0.013940581 0.028729059 -0.18279326 0.10192056 0.42784 0.23502548 0.3094387 -0.027952181
0.014741221 -0.257421 -0.038106136 -0.19667388 -0.12542284 0.05748067 -0.12644349 0.1257031
0.10783088 -0.05114858 0.051082816 0.22348715 0.16648977 -0.38751853 0.048085432 0.36597732
-0.17763229 0.073880695 -0.022130128 0.2280139 0.06526217 -0.096129894 0.20138079 0.2671238
-0.2634113 -0.16099384 -0.18819481 0.2843858 0.12249209 -0.18538535 -0.012889919 -0.53491515
0.15811905 -0.12965441 -0.3571488 -0.22374164 -0.13492681 -0.46116343 0.1512679 -0.2197542
0.12141178 -0.19645469 0.30066466 -0.22076868 0.29084668 0.012484324 0.17795779 -0.023718856
-0.22890493 -0.08989713 0.12523204 -0.11984047 -0.14880964 0.23634277 -0.0005417208 -0.2933668
-0.07631823 0.21430483 0.24545838 0.11416531 0.12653412 -0.17958501 0.31148848 -0.12703851
-0.30563265 0.57660556 0.20142291 0.093325324 -0.41410685 0.05033135 0.107672095 0.13703883
0.0045314254 -0.5585489 -0.12084681 -0.15371285 -0.02674025 -0.31881383 0.12377075 -0.11458449
-0.21201406 0.11322081 -0.2629219 -0.1852608 -0.24602735 0.12634517 0.007523464 -0.20216769
0.4313736 0.29019487 0.054572925 0.17408016 0.24118868 -0.5054786 -0.18398072 -0.08383229
0.023092248 0.19057402 0.1604148 -0.18146749 -0.06670106 -0.3277643 -0.13038406 -0.062405694
0.083755106 0.14489019 0.13770932 0.105341874 -0.08485803 -0.12946253 -0.12525167 -0.11483078
-0.009441641 0.19908336 -0.21996354 -0.19702765 -0.08666742 0.08049324 0.30858633 -0.07935045
0.059909273 -0.23461294 -0.06326855 0.016530339 0.51675767 -0.047401525 0.2056858 0.058399398
0.31461912 0.24131444 -0.2103962 -0.2093923 0.28834853 0.045078274 -0.050002128 -0.31734917
0.1738167 -0.42462194 0.2590342 -0.1871217 -0.022088232 0.40804577 0.26166782 -0.076539144
-0.16430783 -0.035838917 0.1340989 -0.03770018 0.4033671 0.038590167 -0.07114157 0.10607454
0.19206467 -0.0012243934 -0.24665396 0.015436009 0.37889677 -0.3729992 -0.26324692 0.017301017
0.35122684 0.17332542 -0.10127785 -0.029874133 0.26793724 0.102188 0.13038656 0.31043395
-0.39603648 -0.020435775 0.4618356 -0.020980164 -0.3594777 -0.111155555 0.2872887 -0.08080225
0.26348665 -0.0066417553 -0.0500693 -0.0612698 0.023100361 -0.27811894 0.16940399 0.057836093
0.24806343 -0.28023085 0.38018918 -0.14606625 0.018907886 0.0011746843 0.013454089 0.09030514
0.18042463 0.012209434 0.014810619 0.21622367 0.014232686 0.37325475 0.2542263 -0.081158824
0.32681265 0.035606496 0.15387778 0.21468295 0.04749612 0.89187807 0.111204274 0.061952382
-0.047492243 0.3967572 0.3828705 -0.086309955 -0.2200019 0.09930254 0.32263607 0.22080095
0.0690356 -0.14238732 -0.032656632 0.00067330495 -0.22924635 0.09169559 -0.22247483 -0.010373729
-0.031852562 -0.11239335 -0.39839363 -0.104722194 0.4111504 -0.17125812 0.35429862 0.069161646
-0.10481309 -0.36769944 -0.008154036 -0.1486797 0.23511828 -0.18519418 0.10895476 -0.2854505

bias f4 [20]
00000000: 9ed5 473d f37c 33bd 5b00 d43d d9fc 4dbd
00000010: b44e d8bd 2f95 84bc 281f 2c3d 4d09 20bd
00000020: 46df 563d f487 243c 6196 3e3d 6e9b 5abd
00000030: 8fd2 a2bd 27db 6c3c bba3 1c3b 807e a53c
00000040: a672 99bd 0cc3 473e f739 603c 72a9 5ebd
0.048787706 -0.043820333 0.1035163 -0.050289962 -0.105618864 -0.016184418 0.0420219 -0.03907137
0.052459024 0.010042179 0.04653013 -0.053370886 -0.07950317 0.014456547 0.0023901302 0.020201921
-0.074925706 0.19507998 0.013685695 -0.054360814

weight f4 [20, 20]
00000000: 9961 973e e444 693e bca6 5c3d ad3f a33e
00000010: 77b3 cc3d 2b05 173e 59be 023e ee92 65be
00000020: afb7 a33d 6d10 cbbd 3791 1c3e 4c62 89bd
00000030: a4a9 71be e40e 893d d4fa d23d 1f75 1abe
00000040: 1dbd f73e 32b6 373d 8fe7 e23a f5e2 2fbd
00000050: 056f 76bd 6512 7f3e bdbe 79be 8fb1 a73d
00000060: 7c81 4d3d a730 9d3e dd2b 083e fb2a 7dbd
00000070: 197c f3bd 6404 20bd 0c01 4c3d 2c1c f3bd
00000080: fc65 8dbe a568 643e 13b4 07be 6823 703e
00000090: 32e0 12bd 4be8 aabd 0a98 693e f273 51be
000000a0: cbb3 b63e e5ac aa3d 88c1 85bb 131c bfbd
000000b0: c67c 33be b346 abbc 14b9 8a3e eb07 483e
000000c0: 0eb2 48be 99e6 733d 9e74 a13c 9a98 4c3d
000000d0: 0a5f c43e 2d24 c53d 9714 1ebd d858 e13d
000000e0: 30b8 4abb 293f 79bd 793f e0bd 045b 8ebe
000000f0: e49f 70be d7da e2bd 2ab4 453e 6699 803c
00000100: a137 b6be e3c5 8a3e 0192 423e d61a ad3e
00000110: 112f 003d 4b90 d13e ca08 523e 8333 253e
00000120: 642d a03d b3a1 1a3e e03d 603e 8ecc a03d
00000130: 6787 b4bd e708 853e 9e04 cabc a184 54be
00000140: 2913 83bd 1460 52bc 722e eabc 124a f43e
00000150: d4ef a8be 8f16 9a3e f402 8c3e afe3 863c
00000160: a573 4dbe c9ef c83c c08a d73d 0b3b b93d
00000170: 191d 49be 4849 c8bd daef e9bd 15f8 f43d
00000180: 5749 823d a618 133e f9f9 6ebe 1f9c 4fbd
00000190: 55c9 acbe 3030 233d d5cb 49bd e1af 8ebd
000001a0: f223 9abe ac55 bebd a9f6 073d 6274 26be
000001b0: d32b f33d 5b6c d5bd ab2c e6bd 1c40 033e
000001c0: c525 2ebd fbaf 993e 396c 883e b0e2 7b3e
000001d0: 78d3 a63e 8d0c 88be 396f 5a3e 4fc0 9c3e
000001e0: 3087 93be fa55 67be 1ad7 64be 25d9 12be
000001f0: 0c36 023e 4b89 01be 7f1f 8f3e 8cc0 a13d
00000200: cd8a 1bbe b0a7 f63d c81c e6bd 896d 1b3e
00000210: 7c76 9dbe d2fa 02be 8ca5 7dbe 152a cdbd
00000220: d177 abbd 9bed 0b3e 3190 81bd a777 d93c
00000230: 620a 223e 355d fdbd 9bd1 66be cd54 d7be
00000240: b091 4bbd 8c8c 2e3e e773 333e 5e90 82be
00000250: d06a a4be a600 b33e 2363 5b3e 087f e43d
00000260: a7c7 0f3f 796a 2b3d cf20 9cbe 7086 3c3e
00000270: 53e6 af3e 15d5 993c cad6 07be 4c27 08bf
00000280: 1ff5 e63e 626b 9cbe 4381 ae3e 0284 b7be
00000290: 3e24 fcbc 3509 653d 4ca5 a03d 583b 843d
000002a0: cce6 99bd 8c4f 56be dc54 8f3d 10a7 8bbd
000002b0: 0d52 a3be 6a12 71bd 2fbc 48bd 8002 803e
000002c0: f438 43be 8da0 493e 1b00 a7be 1e3b babe
000002d0: 6980 573e b811 82be 573d 17be b474 9b3e
000002e0: 17d9 80be b00a 50bd c08e 30bd c94e 3e3e
000002f0: a9db e63d cb04 d0bd a42a a33e 0d5a 21bf
00000300: 05c7 cc3d b4b9 2d3e 1a54 de3e e8cc 2d3e
00000310: 7c81 a4be 7dc3 4e3d bd30 94be 3b79 15be
00000320: 85e9 243e 4832 9dbe c5c2 bd3d 3483 ce3e
00000330: 81e5 83bd 7e4e 29be 2852 3d3d 80d6 ecbd
00000340: 36e2 57be 3bbf a13e 440a 91bd 9807 5dbe
00000350: b870 ddbd f128 edbe 457e fa3d 4d88 41be
00000360: 5dd9 edba 95d4 9b3d ea53 593e 1655 36be
00000370: 37cf 7ebd a7ba 2d3e c641 6fbe eb01 cabe
00000380: 5e8c b1be b66d db3d 8289 ba3e c55e fdbe
00000390: edce b73e e93a c53d 8fd8 f23e a775 0fbe
000003a0: e9eb 543d 8788 60bc c665 a23d 6c94 4e3d
000003b0: 52f7 803e 4031 28be d9c7 c13e bfda 7abc
000003c0: 40dc 79be 1212 8c3e 8926 9cbe c4f5 8bbe
000003d0: 5f5b 35be d7c5 4fbd f52f a23d da85 f93c
000003e0: d841 d23d 35cc d4bd 6b17 c8bc d057 2abe
000003f0: db12 073e 1067 b23d b884 18bd 3d26 f13e
0.2956665 0.22780186 0.053869948 0.31884518 0.09995168 0.14748065 0.12767924 -0.2241933
0.07994019 -0.09915242 0.1528977 -0.06708202 -0.23599869 0.06692293 0.10301748 -0.1508374
0.4838647 0.04485149 0.0017311441 -0.042941052 -0.06016447 0.2490936 -0.24389167 0.081881635
0.050172314 0.3070118 0.13297983 -0.061808567 -0.11888904 -0.039066687 0.049805686 -0.11870608
-0.2761687 0.22305544 -0.13252287 0.23451006 -0.03585834 -0.083450876 0.22811905 -0.20454386
0.35684046 0.08333758 -0.0040819086 -0.093315266 -0.17528066 -0.020907735 0.27094328 0.1953427
-0.19599172 0.059546087 0.019708928 0.04995022 0.3835376 0.096260406 -0.038593855 0.11003274
-0.0030932538 -0.06085125 -0.109496064 -0.27803814 -0.23498493 -0.11076897 0.19307008 0.015698146
-0.35589316 0.271041 0.19001009 0.33809537 0.031294886 0.409304 0.20511165 0.16132931
0.078211576 0.15100746 0.21898603 0.07851516 -0.088148884 0.25983354 -0.024660405 -0.20753719
-0.06400139 -0.01284029 -0.0285866 0.4771276 -0.32995474 0.30095336 0.27346003 0.01646599
-0.20063646 0.024528401 0.10524511 0.09044465 -0.19640006 -0.09779602 -0.11422701 0.119613804
0.06361645 0.14364871 -0.23337545 -0.050685998 -0.33747354 0.039840877 -0.049266655 -0.0696714
-0.3010555 -0.09293684 0.033194218 -0.16255334 0.11873593 -0.10421058 -0.112389885 0.12817425
-0.04251649 0.30017075 0.26645067 0.24598193 0.32583213 -0.26572075 0.2133149 0.3061547
-0.28814077 -0.22591391 -0.2234768 -0.14340647 0.1271593 -0.1265003 0.27953717 0.078980535
-0.15189667 0.120437026 -0.11235958 0.15178503 -0.3075446 -0.12790993 -0.24770182 -0.10017792
-0.083724625 0.13664858 -0.063263305 0.026546312 0.15824273 -0.123712935 -0.22540896 -0.42056885
-0.049699485 0.17045802 0.17524682 -0.25500768 -0.3211274 0.34961432 0.21424536 0.11157042
0.5616402 0.041849587 -0.3049378 0.18410659 0.3435541 0.018778363 -0.1326553 -0.5318496
0.45108888 -0.30550677 0.34082994 -0.358429 -0.030779 0.055916984 0.07844028 0.064566314
-0.07514724 -0.20928782 0.069986075 -0.06818974 -0.31898537 -0.05885545 -0.04900759 0.25001907
-0.19064695 0.19690152 -0.32617268 -0.36373228 0.21045078 -0.25404143 -0.14769493 0.30362475
-0.25165626 -0.050791442 -0.043104887 0.18584742 0.112723656 -0.10157164 0.3186847 -0.6302803
0.099988975 0.16965371 0.4342354 0.16972697 -0.3213004 0.0504794 -0.28943434 -0.14597027
0.16104706 -0.30702424 0.09265665 0.40334475 -0.06440259 -0.16533849 0.04622093 -0.1156435
-0.21082386 0.3159121 -0.07082036 -0.21584928 -0.10812515 -0.46320298 0.12231115 -0.18899651
-0.0018146444 0.07608906 0.21223417 -0.17805895 -0.062209334 0.16965733 -0.23364934 -0.39454588
-0.34677404 0.10714285 0.36433035 -0.49486366 0.3590006 0.09630377 0.47430846 -0.14009725
0.051982794 -0.013704426 0.07929568 0.050434515 0.2518869 -0.16425037 0.37847784 -0.015310942
-0.24400425 0.27357537 -0.3049815 -0.27335942 -0.17710637 -0.050725784 0.07919303 0.030459333
0.10266465 -0.10390512 -0.024425229 -0.1663506 0.13190787 0.08711064 -0.037235945 0.47099486

bias f4 [20]
00000000: 208b 5dbd 0579 b8bc 01fc a3bc e0d6 223d
00000010: 54ac a13c 85fc 18bd 4cf1 703d df9c c83c
00000020: ac86 053d 099f 0c3d 710b 843d 24f9 073b
00000030: 3f83 d13c e181 393d c096 363d 1ee2 c8bc
00000040: bbd4 ac3c 006a 01bd 4c90 e0bd a533 51bd
-0.054087758 -0.022518644 -0.020017626 0.039755702 0.019735493 -0.037350196 0.05882387 0.024488864
0.032599136 0.034331355 0.06447495 0.0020747865 0.025575278 0.045289878 0.04457736 -0.024521884
0.021097532 -0.03159523 -0.109650224 -0.051074643

weight f4 [20, 20]
00000000: 5378 d33e c9a5 16be 6e8d 57be 2082 b9be
00000010: efdc 0ebe ce3b 983d 7b17 15be 2872 dcbd
00000020: ead7 3abd 6c9d f5be c156 273e d27e 64be
00000030: 56c6 663e b7b6 a1be 5503 213d 6221 65b8
00000040: 3728 b53d dafb 353d f613 00be 6cb3 42bd
00000050: d108 c9bd 2dc5 0bbd a933 2d3c d455 5cbe
00000060: 751e aabe ac75 a83d 88f0 353d 89ed f3bd
00000070: 54a7 debd d9f9 c43d 35df da3d d991 393d
00000080: 6ea8 a9bd e74a d43e ded0 d73e d639 9c3d
00000090: c9fc 543e db85 f1be 143c 803e 2280 8fbe
000000a0: 8eee 19be e408 75bc f58b 533d 4d11 563c
000000b0: 6ae5 7a3e 8dbf e2bd d165 98bd 6826 05be
000000c0: 887a 84be e669 4c3e acbd ac3e 636a 32bd
000000d0: 30b5 6a3d 0e7f 2bbc 74c0 aa3e 24f8 813e
000000e0: 3155 c03e abe6 9b3e 9ac5 30be d09e 8c3d
000000f0: edb8 9b3c 628e b83d 776a 33bd 2a4d 933e
00000100: 6c33 113e 76bf 9bbd 01a5 58bd 2f32 c0be
00000110: 30ff 883d 9272 9a3d caf7 5b3b 8ce2 e53d
00000120: 8631 a43e 3dbe 6ebd df0d b4bd 3ed8 c6be
00000130: c31c 63be 1fe8 843e 4dd6 4c3e 6153 bdbd
00000140: 08c4 36bd f64e a53e 9867 e2bd 706b eabd
00000150: ccad d2be 8098 923e 379c b7be 2729 3abe
00000160: 2b3e 1cbe e940 593e 8d19 353e 4efd c33e
00000170: 689a 46bc b5b5 7bbe 5860 b03d 6ac0 a33e
00000180: b1fa 913c f035 533e 7fa6 9e3e 26e1 3a3e
00000190: f9d7 003e 5cfb 04be ce99 aa3e 5e9d 603e
000001a0: ae15 7fbe db6b 8fbd 85e9 14bd 9dda 1f3e
000001b0: e87e bcbe 60dc 16be aac3 49be d0f8 bfbc
000001c0: ca6f 9dbe 2d03 783d 0fce 6a3d aa9c 50bc
000001d0: 49c2 e5bc d3bd 113f 6726 d33c 003c 5e3e
000001e0: 31af 3fbe 3f77 a23e f78b 5c3e ba6e 8fbe
000001f0: 953d e93d b9ba 87be 55a0 b63d b939 1b3d
00000200: 6f8e e8bd 06f5 963d ab31 813d 3f6b c3bd
00000210: 27bf 5c3e 5273 e2bd 1cbf 673e fea7 8ebe
00000220: dd34 8f3d 05f5 fe3d cba9 5bbd f194 cabd
00000230: 8c62 d5bd 0aab 18be 1dc5 2c3e 803c 54be
00000240: 0110 88be 748a a13c 173c c93e 4a40 8b3e
00000250: 317f 09be 9d8e cdbd 2816 d2be 2201 9b3e
00000260: 064c b13c 37f5 243e 6b69 80be bbf1 18bf
00000270: 09a7 6cbe 6a73 9f3e 7e2f 543e d475 83be
00000280: 2252 2a3e 3140 663e 8559 6f3d 40b6 943e
00000290: 933d dcbe af99 743d 48ab b13d e63e 7d3d
000002a0: 1237 3f3d 1f56 1a3e 7c73 593d 21ab b2be
000002b0: d8d3 7fbd 669e d03e 985f 17bd 8455 03bd
000002c0: 2353 6a3d a137 423e d9fb 063d db2d 303d
000002d0: 6f56 aabd a3ee e73d c7b6 853e cf4f e33d
000002e0: da5f 16be 285f 3d3c e1de b83e c9c0 94bd
000002f0: c67e 713e 2199 c4bd 79ca fabd 5ba1 cebd
00000300: e3ac 38be 4905 d23d a24c 9a3d e65c ef3e
00000310: ea5b ef3b 7301 323e e3d6 56bd d206 01be
00000320: 2ac6 94be ae46 b0bc 97d6 363d a702 c9bd
00000330: 86ee 353e c0e1 1c3e 904f 8bbd 7e80 5dbd
00000340: 9b39 a2bd 40a7 913d bfe4 23be cadb 163e
00000350: 4b57 9a3e be15 0cbe 379f 69be 332e 12be
00000360: 4384 e5bd e0bc 10bf 6524 72be cfcf bd3e
00000370: 4077 92be ea22 463e f68b 4e3e 1e90 a1be
00000380: a7bd dd3d bbd0 cb3d ef91 dabd fdf7 e03d
00000390: 993f 963e 4819 08bf dd10 273e b574 cb3e
000003a0: a56b 50be ce33 9fbe 9e8b 15be 86ea 413e
000003b0: f565 893e 3697 3f3d 647d 96bd 53ff d1bc
000003c0: 1e47 c43e 2afa ccbc faa2 99bd 25e5 bcbd
000003d0: 32ca 1a3e 8625 33be 673f 3bbd 302f f1bd
000003e0: f940 3fbc 44bc 3db9 a8af 93bd 4740 27be
000003f0: e930 0bbc 5d31 903e 8525 86bd 1eea 62be
0.41302738 -0.1471168 -0.21050045 -0.3623209 -0.13951467 0.07433282 -0.14559738 -0.10763961
-0.045616068 -0.47971666 0.16341688 -0.22314003 0.22536597 -0.31584713 0.03930982 -5.4628945e-05
0.08845561 0.044429637 -0.12507614 -0.04753439 -0.09816135 -0.03412359 0.010571399 -0.21517116
-0.33226362 0.08225569 0.04441884 -0.119105406 -0.10871759 0.09617967 0.106871046 0.045305107
-0.082840785 0.41463396 0.4215154 0.07628219 0.20799555 -0.47172436 0.25045836 -0.28027445
-0.15032408 -0.014955733 0.051647145 0.013065648 0.24501577 -0.11071692 -0.07441295 -0.13002932
-0.25874734 0.19962272 0.33738458 -0.04355849 0.0573017 -0.010467304 0.33349955 0.2538463
0.37564996 0.30449423 -0.17262879 0.068662286 0.019009078 0.09011532 -0.043802705 0.2876981
0.14179772 -0.07604878 -0.052891735 -0.37538287 0.06689298 0.07541384 0.0033564442 0.11224851
0.32069033 -0.058286894 -0.08791708 -0.38836855 -0.2217894 0.25958344 0.20003624 -0.09244419
-0.044620544 0.32286805 -0.11054915 -0.11446273 -0.41148221 0.28631973 -0.3586137 -0.18179761
-0.1525809 0.21216168 0.17685528 0.38279194 -0.012121774 -0.24581034 0.08612126 0.31982738
0.017819734 0.20626044 0.309864 0.1824995 0.12582387 -0.12986511 0.3332047 0.21935031
-0.24910614 -0.07002994 -0.036355514 0.15610738 -0.36815572 -0.14732504 -0.19703546 -0.023434073
-0.3074935 0.060549904 0.05732542 -0.012732664 -0.028046744 0.56930274 0.025775148 0.21702576
-0.18719174 0.31731603 0.21537767 -0.28014165 0.11388699 -0.26509646 0.089173 0.037896845
-0.11355292 0.07370953 0.063083015 -0.0954194 0.21557294 -0.11057152 0.22631496 -0.27862543
0.06992505 0.124490775 -0.053628724 -0.098916896 -0.10419187 -0.14908996 0.16872068 -0.20726204
-0.2657471 0.01971934 0.39303657 0.27197486 -0.13427426 -0.10036967 -0.4103253 0.30274302
0.021642696 0.16109167 -0.25080428 -0.5974385 -0.23110594 0.3114274 0.20721242 -0.25675833
0.16632894 0.22485425 0.05843498 0.29045296 -0.43015727 0.059716877 0.086752474 0.061827563
0.04668338 0.15071915 0.05308865 -0.34896186 -0.06245789 0.40745848 -0.0369564 -0.032063976
0.05720819 0.18966533 0.032955024 0.04301248 -0.08317267 0.11324813 0.2611601 0.11099207
-0.14685002 0.011558332 0.36107543 -0.07263333 0.23583516 -0.095995195 -0.1224565 -0.1008937
-0.18034701 0.10254914 0.07534148 0.46750563 0.007304658 0.17383365 -0.052451026 -0.12600258
-0.29057437 -0.021518078 0.044638243 -0.09814959 0.1776677 0.15320492 -0.06802285 -0.054077618
-0.079211436 0.071119785 -0.16005228 0.1473228 0.30144724 -0.13680169 -0.22814642 -0.14275436
-0.112068675 -0.565382 -0.23646696 0.37072608 -0.28606606 0.19349256 0.20170578 -0.31555265
0.10827189 0.099519216 -0.10672366 0.109848 0.29345396 -0.53163576 0.16315027 0.39737478
-0.20353563 -0.3109421 -0.14604041 0.1893712 0.268356 0.046775065 -0.07348135 -0.025634443
0.38335508 -0.025021631 -0.075017884 -0.09223393 0.15116194 -0.17494783 -0.045714762 -0.117765784
-0.0116732055 -0.00018094579 -0.07211238 -0.16333114 -0.008495548 0.2816266 -0.06550125 -0.22159621

bias f4 [20]
00000000: ddd0 0bbd 76a8 14bd 91b2 75bb 178f 18bc
00000010: fe8c eebc 85d7 33bd 57b1 1b3d 2a65 aa39
00000020: 8a30 b83c 8ea7 92bc 492e 01bd 4441 40bd
00000030: b24e d0bc bae9 52bc 4372 48bc 4c8f bc3c
00000040: 997e d83c 26d3 bfbc 661e d73c f968 0e3d
-0.034134734 -0.03629347 -0.0037490467 -0.009311459 -0.029119965 -0.043906707 0.03801092 0.000325003
0.022484083 -0.017902162 -0.03153828 -0.046937242 -0.02542815 -0.012873108 -0.012234273 0.023017548
0.026427554 -0.023416113 0.026259612 0.03476808

weight f4 [1, 20]
00000000: 4a6a 323d 7462 2fbc f06c c43e 7749 e53b
00000010: a77e 803e 8d1b ecbe 2495 49ba df5b bc3e
00000020: 210f 84bd c993 e53d 293a ca3a 3389 9a3a
00000030: fb9d c63d ef57 e13b 9d6a 823d 698c 4ebe
00000040: 6c37 71bd a1ae 633a 9fa2 29be f8e4 a53d
0.043558396 -0.010704625 0.38364363 0.006997283 0.25096628 -0.4611477 -0.0007689765 0.36788842
-0.06448198 0.112098284 0.001542871 0.0011790156 0.09698101 0.0068769376 0.06367991 -0.2017075
-0.058890745 0.00086853845 -0.16565941 0.08100313
