pendulum/models/pendulum_pinn_hidden_6_20_t_0_10_n_50_lr_0.005_epochs_10000.pt (torch, 17300 bytes, 13 tensors)

weight f4 [20, 1]
000000 2f c8 72 be 62 d4 81 3e 3d 90 ea 3d 59 86 19 be
       -0.23709176 0.25357348 0.114532925 -0.14992656
000010 2a 8e e8 3d ba 55 32 3f fe 94 2c be 86 e7 80 bf
       0.11355241 0.6966206 -0.16853711 -1.0070655
000020 52 45 a9 bf 0e 41 66 bf 8f 60 79 bd ea 56 c6 3e
       -1.322428 -0.89943016 -0.0608831 0.38738185
000030 87 4c 02 be bb 0a b9 be 82 ff 38 3f 0d df 55 bf
       -0.12724505 -0.36141 0.72264874 -0.83543473
000040 4c c9 97 be f7 15 f1 3d f4 17 77 3e f7 fc 17 3e
       -0.29645765 0.117717676 0.24130231 0.14842592

bias f4 [20]
000000 a8 1c a6 3e 1d 52 c0 bf 24 44 26 bd 78 d7 89 3d
       0.32443738 -1.5025059 -0.040592328 0.067305505
000010 6f 81 33 3d d6 18 41 bd ce 1f 12 be ec cd 1b 3e
       0.04382461 -0.047142826 -0.14269945 0.15215272
000020 5c b2 dc bd 6d bc ac bd 1b 80 42 3b c0 27 6a 3d
       -0.10776207 -0.08434377 0.0029678408 0.057166815
000030 4e 47 1f 3d ee d8 8d 3d 4d ff 55 be c6 24 ed bd
       0.03888636 0.06926142 -0.20898171 -0.115792796
000040 9c ec 1e be 2a 33 f8 3c 6d 0d 37 3e b5 8c 90 bd
       -0.15519947 0.030297834 0.17876215 -0.07058088

weight f4 [20, 20]
000000 93 01 ec 3e b2 e7 4f bf b5 6f a0 be 37 0f 51 3e
       0.4609495 -0.81212914 -0.31335226 0.2041596
000010 83 08 a1 bd d1 69 c4 3d bc 33 07 be aa 46 3a be
       -0.078629516 0.095904954 -0.13203329 -0.18191019
000020 f5 06 33 be d2 1c 1f bd 31 8c cb bd 07 18 87 bd
       -0.17483123 -0.038845845 -0.09938849 -0.0659638
000030 87 44 cb 3d 7a fc f6 3e f2 2b 67 bd e6 58 81 bd
       0.0992518 0.482395 -0.056438394 -0.06315784
000040 cf 7d f6 bd 8c fc c9 bc 91 51 e6 3e 11 7b ac be
       -0.12035715 -0.024656557 0.44984105 -0.33687642
000050 08 0c 5f 3e 4f 89 06 bf a9 f5 a4 be dc 5e f5 3e
       0.21781933 -0.52553266 -0.32218674 0.47923934
000060 ec c1 58 be de 49 49 bf 97 e5 5f be 58 ed a8 3f
       -0.21167725 -0.7862834 -0.21864925 1.3197432
000070 a9 ec a4 3e bb 57 42 3f 4f 98 cc bd 06 be d5 be
       0.32211807 0.75915116 -0.09989988 -0.4174654
000080 5a cc 96 bc 1a 50 81 3f e4 51 34 bf ed 3b 27 3f
       -0.01840799 1.010257 -0.70437455 0.65325814
000090 73 7e cb 3e be d3 b4 be 9d da 59 be f3 ae 6f be
       0.3974491 -0.35317796 -0.212748 -0.23406582
0000a0 50 48 54 be 4f d7 43 be 2c cf 07 be c6 b5 ff 3d
       -0.2073071 -0.19125102 -0.13262624 0.124858424
0000b0 23 1b 83 be 04 7b f3 bd be 93 90 3e 56 c6 82 be
       -0.2560664 -0.11888698 0.28237718 -0.25541943
0000c0 3a e9 e7 3e 60 f2 0e 3e 85 53 a9 bd 02 4c 15 bd
       0.45295125 0.13959646 -0.08267883 -0.03644944
0000d0 73 13 0a 3e e5 54 f9 3e d0 98 bf bd 79 08 90 3e
       0.13483982 0.48697582 -0.093553185 0.28131464
0000e0 fc f2 68 3e dc 65 d4 be 30 46 fa be ee 5c 9e be
       0.22748941 -0.41483963 -0.48881674 -0.30930275
0000f0 59 31 3e 3e 53 d9 fa 3e 97 f0 98 bd 62 a8 7b 3d
       0.18573512 0.4899393 -0.07467764 0.06143988
000100 1b 31 b4 be ee 8d 00 be c5 40 a9 3d 1c b8 d7 bc
       -0.35193714 -0.12554142 0.08264307 -0.026332907
000110 4d 63 f4 bd 80 97 be 3e 1e c4 d5 3e f5 f3 50 3e
       -0.119330026 0.3722496 0.41751188 0.20405562
000120 19 41 5a bc b4 1a 23 3c 18 66 70 3e 1c d1 82 bd
       -0.013321185 0.009955097 0.23476446 -0.06387541
000130 13 48 a9 bb f0 61 83 be c0 b0 84 3e 7d fa 3a 3e
       -0.0051660626 -0.25660658 0.259161 0.18259616
000140 0f e7 ae be c9 56 e4 3d bd ef e1 bb 95 5f fa be
       -0.3416066 0.111493655 -0.006895034 -0.48901048
000150 6c 62 3d 3e 74 90 9b be 4f 44 01 be be 95 00 3e
       0.18494576 -0.30383646 -0.12623714 0.12557122
000160 ed 79 82 3e 3c d3 7b be fa 83 90 3e 6e 8c 6d 3e
       0.25483647 -0.24592298 0.2822569 0.23198101
000170 5d f6 be be 72 72 43 3d 09 84 d6 bb 8f 35 fd 3d
       -0.37297335 0.047716565 -0.0065465015 0.12363731
000180 18 f2 dd bd 6a 4e 5b be 93 16 b9 3d ff d0 18 3e
       -0.10837191 -0.21416631 0.09037509 0.14923476
000190 21 21 0d be 1f 24 2f be fe 6e af 3e ed cb 39 be
       -0.13782169 -0.17103623 0.34264368 -0.18144198
0001a0 df 3c 44 3d c8 00 b0 be d1 14 10 3c 95 26 4e 3e
       0.047909614 -0.34375596 0.0087940255 0.20131905
0001b0 cc 7e 0f be e6 9d ab 3c a8 ed 47 3d 87 2e 84 bd
       -0.14013213 0.020949315 0.04881063 -0.06454187
0001c0 56 2d ab 3e 1e 6b 0e be 46 51 35 3e f1 c9 48 3e
       0.33433026 -0.1390805 0.17706785 0.19608285
0001d0 54 d4 0f be fa 62 48 3e 90 99 db 3d 04 8b 34 3e
       -0.1404584 0.19569007 0.10722649 0.17631155
0001e0 b6 b5 21 be 65 b5 64 3e e6 3a 3b bc 61 f3 e0 bd
       -0.15791973 0.22334822 -0.011427617 -0.10983921
0001f0 f3 d4 a0 3d 31 b0 18 3f 28 cc b1 3d 55 f8 45 3e
       0.07853117 0.59643847 0.08681518 0.19333012
000200 50 66 bc 3c 94 3c 0d bd da 14 59 be f0 4b 0c 3e
       0.022998005 -0.0344816 -0.2119936 0.13700843
000210 57 91 b2 bd 65 8a 4c 3d 20 48 07 3f ff 7a 71 3c
       -0.087191276 0.04993667 0.5284443 0.014738797
000220 a2 82 4e 3e cb ce 9a 3e 79 8f 3a 3e 2d e6 80 be
       0.2016702 0.30235896 0.18218793 -0.2517561
000230 46 fb dc 3e 8e 50 32 be 60 47 21 bd 84 71 33 3f
       0.43160456 -0.17413542 -0.03937471 0.70095086
000240 a5 39 4c be ff 10 1d 3e 69 5e e7 3e 03 0a c1 be
       -0.19943865 0.15338515 0.45189217 -0.3770295
000250 7e 04 07 bd 12 2d 1c 3d 3f 92 0f 3d f1 af 96 be
       -0.03296327 0.03812892 0.03505158 -0.29431108
000260 02 64 da 3d 20 8a 04 3e 2f e6 0a 3e 36 2a da 3b
       0.10663606 0.12943316 0.1356437 0.006657864
000270 b9 e5 36 be a5 44 d5 be 5f 26 77 3e 81 60 20 bd
       -0.1786107 -0.41653934 0.24135731 -0.039154533
000280 05 e0 bc bd dc 0b 56 3d c3 db 36 be 04 e8 01 3e
       -0.09222416 0.052257404 -0.1785727 0.12686163
000290 e9 76 2c 3e 81 1b 3b bd c9 e4 ff be 59 23 b2 be
       0.16842236 -0.045680527 -0.49979237 -0.34792593
0002a0 e3 96 c0 3d 86 ff e1 3c 8a 3a bd 3d b2 af ca 3d
       0.09403779 0.027587663 0.09239681 0.098967925
0002b0 56 1f 92 3e 11 09 a3 be 85 ef 7c 3e 3c cb e5 be
       0.28539532 -0.31842855 0.24700744 -0.44881618
0002c0 e5 46 03 3e 0a 24 16 be 98 81 a9 3e 21 8e ee 3d
       0.12820013 -0.14662185 0.33106685 0.11648203
0002d0 70 84 7e 3e f4 09 81 bf aa 79 25 bf a9 24 05 3f
       0.24855208 -1.0081162 -0.6463877 0.52009064
0002e0 62 db 22 bf 07 47 3e be a0 42 a2 bd dc c2 c3 be
       -0.63616 -0.18581782 -0.07922864 -0.38234603
0002f0 fa 48 94 be a7 8d ae bb b5 43 ad 3e 69 a5 05 3e
       -0.28961927 -0.005326945 0.3384072 0.1305138
000300 e2 f6 38 3e f9 f6 a7 bc 03 7d 79 3e bf 49 fb be
       0.18062928 -0.020503508 0.24364094 -0.490797
000310 d7 ab 4b be 06 be 8e be ee 9a fb 3d e3 29 6b be
       -0.1988977 -0.2787935 0.1228541 -0.22965197
000320 e0 02 52 3e a2 dd 8f 3e 77 de da bc 25 40 c7 be
       0.20508909 0.2809878 -0.026717408 -0.38916126
000330 89 da a2 3e 3e 61 06 3f 3a 03 11 3e d2 b4 81 bd
       0.31807354 0.5249213 0.14161387 -0.06333317
000340 30 02 80 3d 97 9d f6 3d 4b 03 e4 be 50 9b 4b be
       0.06250417 0.120417766 -0.44533762 -0.19883466
000350 99 82 cb bd 28 37 1f 3e 76 b7 40 bd d4 d1 05 3e
       -0.09937019 0.15548384 -0.047049962 0.13068324
000360 3d 76 9c bc 3d 30 18 3f c4 71 28 be ec 14 3b 3e
       -0.01909935 0.59448606 -0.16449648 0.182697
000370 3a ac c6 3d a4 58 a0 bc dc f8 be 3e 89 95 f3 bd
       0.09700818 -0.019573517 0.3729924 -0.11893756
000380 59 44 41 be ce d4 18 3e 5a 3d 2b 3e ec 09 43 3d
       -0.18873729 0.14924929 0.16722623 0.047616884
000390 6d 27 20 be 9f c4 0a bd a4 d9 2d bd 8f ef d2 bc
       -0.1564004 -0.03387892 -0.042443886 -0.025748996
0003a0 82 74 c1 be c0 5f be be d8 e0 ce 3d 52 a6 bd 3e
       -0.377842 -0.37182426 0.10101479 0.37040955
0003b0 27 9a 20 be af f4 03 be 2e 51 8f be 66 eb c3 3e
       -0.15683804 -0.12886308 -0.27991623 0.38265532
0003c0 51 59 94 be 75 29 23 3e de 86 ec 3e d1 67 9c bd
       -0.28974393 0.15933783 0.46196645 -0.07636989
0003d0 88 ad 89 bd 9d 47 b5 be 4d 06 2a be 2f 3d 20 be
       -0.067225516 -0.354062 -0.16603966 -0.1564834
0003e0 a7 16 30 3c 51 3b c8 3e af 7e 8b be 4b d9 2c 3e
       0.010747588 0.39107755 -0.2724509 0.16879766
0003f0 82 3d c5 be 56 3c 0e bb 63 c5 80 bc 2a 3f c9 3e
       -0.3852349 -0.0021703443 -0.015719121 0.39306003

bias f4 [20]
000000 0e ac 4d 3e c2 9e 9a 3d 81 b7 13 be 1b db 44 be
       0.20085165 0.07549812 -0.1442547 -0.19224207
000010 51 f3 30 3d 12 91 f7 bc 81 32 a4 bd 05 b9 03 3e
       0.043200795 -0.030220542 -0.08017445 0.12863548
000020 69 97 b2 3c 93 fa 27 3e 57 4e 59 3e a0 b7 1f bd
       0.021800714 0.1640418 0.2122129 -0.038993478
000030 a2 22 27 bd f4 9a af bc 14 1a d7 3d 96 3e c0 bd
       -0.040804513 -0.021436192 0.10503021 -0.09386937
000040 1d 5c 75 3d cc 4e b0 bc 91 30 27 bc 7e 66 06 be
       0.0599023 -0.021521948 -0.01020445 -0.13125035

weight f4 [20, 20]
000000 4c 88 9c 3f 5b f8 84 be 95 90 14 bf 7a 08 30 bf
       1.2229095 -0.2597073 -0.58033115 -0.68762934
000010 0c 3c 20 bf 58 df 46 bd 1d 88 11 be 5c 6f 05 3f
       -0.62591624 -0.04855284 -0.1421208 0.52123046
000020 ac b1 60 bd 08 be 2c 40 3d a3 f0 3c 06 7e 4e bf
       -0.05485694 2.6990986 0.029374713 -0.80661047
000030 5f 67 eb be 9c e9 af 3b e9 28 11 bc 6e 71 85 be
       -0.45977303 0.0053684246 -0.008859851 -0.26063102
000040 5a 21 60 3e e2 aa 65 3e 07 b7 58 bc 6b 37 80 be
       0.21887723 0.22428468 -0.013227231 -0.2504228
000050 16 af 3c bf ad 65 f7 3d bb c2 1a be dc f4 87 3d
       -0.7370466 0.1207994 -0.15113346 0.066385
000060 6d 55 16 3e 32 ec a2 be 4e 2f a2 3e 5e 3d 27 be
       0.14681025 -0.31820828 0.31676716 -0.16332003
000070 25 11 f7 3d de 53 a4 be 6c f0 94 3e 2d ec 96 3c
       0.12063817 -0.32095236 0.29089677 0.018423164
000080 24 ea 95 3e 79 83 47 be 34 5b 20 be 24 e5 b8 bd
       0.29280198 -0.19483747 -0.15659791 -0.0902808
000090 9a fc e9 be 55 f4 5d be 5d 0d 13 3f a4 07 a9 3e
       -0.45700532 -0.21675237 0.57442266 0.33013642
0000a0 6d c6 82 be f4 cd 29 be 7c df 86 3e 2a 9c 8d 3e
       -0.25542012 -0.16582471 0.2634238 0.27658206
0000b0 e5 af 9e be 9c 3a 9b 3d 9b 48 3d 3e 4f 85 0a 3d
       -0.30993572 0.07579538 0.18484728 0.03381854
0000c0 7c 1d f4 3e e6 51 9f 3e 0e ed 76 be 50 45 ab 3d
       0.47678745 0.3111717 -0.24113867 0.0836283
0000d0 32 35 a5 be b8 d1 08 bc 7d 80 20 bd 40 34 3d be
       -0.32267147 -0.008350782 -0.039185036 -0.18476963
0000e0 ac c7 0f 3f 52 47 95 3e 5d 56 05 3f ce dc b7 be
       0.5616405 0.29155976 0.52084905 -0.35910648
0000f0 66 e8 c8 be 6c 9d 2d be c6 6d d7 be 93 55 a0 be
       -0.39239806 -0.16954583 -0.42075938 -0.31315288
000100 39 e9 f8 3d c0 2e a0 be 91 dd 22 bd 49 95 d7 be
       0.12153859 -0.31285667 -0.039762083 -0.42106083
000110 fd e9 10 3e b5 fa e3 3c d9 49 13 be 7b ee 48 3e
       0.1415176 0.027829507 -0.1438364 0.19622223
000120 77 8f 77 3e 59 fa a1 3e 32 b7 ac 3d 50 fd 87 bd
       0.24175821 0.31636313 0.08433379 -0.066401124
000130 cc b9 2a be b9 df 76 be 3a 15 10 3f 64 07 5b 3e
       -0.16672438 -0.24108781 0.5628239 0.21389538
000140 b5 6d 11 3d 51 3e 7e 3e 4e f3 7e 3e 4e 18 e1 3d
       0.035505015 0.2482846 0.24897501 0.10990964
000150 da c2 ad 3d 40 21 b9 3e 1e f5 9e 3e bf 55 71 be
       0.084844306 0.3615818 0.31046385 -0.23567866
000160 2a 24 98 3d bd f8 28 bd 66 b6 4f 3d 4d f9 44 3d
       0.07428773 -0.04125284 0.050711058 0.048089314
000170 d5 40 af 3e 84 87 11 be fb aa 26 bf d9 a4 c8 3e
       0.3422915 -0.14211851 -0.65104645 0.3918827
000180 4b 0a 67 3a f2 16 70 be 2f c6 3a be 6d 7c 05 bb
       0.00088134845 -0.23446253 -0.18239664 -0.0020368353
000190 c8 ad 83 3e d2 5c 15 bf ec 52 d7 3d ce c7 0f 3e
       0.25718522 -0.5834476 0.10513863 0.14041063
0001a0 1a de b2 be a1 e1 a0 3e c2 7c 6a bd f6 32 9f be
       -0.34935075 0.3142214 -0.057247885 -0.31093568
0001b0 53 73 12 3d 02 cb d2 3d 10 51 27 3e 86 26 ef 3d
       0.035754513 0.10292627 0.16339517 0.1167727
0001c0 c6 d9 e4 3e be 3f d2 bd 00 0e 7f 3e 27 22 06 3e
       0.44697398 -0.10266064 0.24907684 0.13098966
0001d0 f4 dc 05 bf 8c d1 12 be 83 03 92 3e 8a d7 e5 bd
       -0.5229027 -0.14337748 0.28518304 -0.112227514
0001e0 dc 20 97 3c ab 39 47 be e4 c2 2d be 23 9e 0b 3e
       0.018448286 -0.19455592 -0.16968876 0.13634543
0001f0 d1 a3 c4 be b7 0e 75 be f6 5d 7b 3e c1 86 84 3e
       -0.38406232 -0.23931395 0.24547562 0.2588406
000200 15 b5 22 bc 6c ed 28 3e dd 4b 86 3d df 8f a2 3e
       -0.009930869 0.1649682 0.065574385 0.3175039
000210 e6 c9 f5 be d2 5d 7f bc 5f 99 c6 bc 9d ea e7 3e
       -0.480056 -0.015586333 -0.024243055 0.45296183
000220 48 cf 07 3d 3d 2c be 3e a0 8b ff be 21 5e 1d 3f
       0.033156663 0.37143126 -0.49911213 0.61471754
000230 df dd 2a 3e 12 4f c6 3e 63 fb a4 3e 44 0f cb 3d
       0.166862 0.387322 0.32223043 0.09915021
000240 96 60 fe 3e 52 46 94 3c 85 4e b4 bd 4f 0e f6 bd
       0.49683064 0.018099938 -0.08804039 -0.12014448
000250 1f a2 99 3e 2f dc 0a bb 61 6a b4 bd 15 20 ca 3d
       0.300065 -0.0021188369 -0.08809353 0.098694004
000260 c6 91 e2 bd 85 07 69 3e 02 ca 69 3d 18 1d 0e be
       -0.1106296 0.22756775 0.057077415 -0.13878286
000270 7b 68 2d be 19 32 11 bb 1c b7 ab 3e 63 45 9e bd
       -0.16934387 -0.0022155105 0.3353814 -0.07728078
000280 92 63 f0 be 9d c0 dd 3c 09 c9 99 be 3f 00 5c 3d
       -0.46950966 0.027069384 -0.3003619 0.053711172
000290 80 10 c7 3b 3a fd bc bd ae a9 01 3e 1e 97 11 bf
       0.006074965 -0.09227987 0.12662384 -0.5687121
0002a0 eb a0 8e bd 8c c2 2f bf 07 f3 b8 3e a4 61 a3 3e
       -0.069642864 -0.6865623 0.36122915 0.3191043
0002b0 b4 16 ef 3e da 4e 36 3e 54 c8 75 3c a2 5b 4b 3e
       0.4669701 0.17803517 0.015001375 0.19859174
0002c0 27 a8 ec 3c c1 60 90 3d ca 48 00 bf 24 fb bc be
       0.028888775 0.07049704 -0.5011107 -0.36910355
0002d0 68 c1 4d be 79 b4 1f 3b 2e 5d b6 bd 9a b9 ac 3e
       -0.2009331 0.0024369045 -0.08904491 0.33735353
0002e0 6e ef 80 be 85 64 47 3e 5f 38 46 be e2 ca 90 3e
       -0.2518267 0.19471939 -0.19357441 0.28279787
0002f0 19 3e 4c 3e 60 0c 24 3f e5 49 3a 3d e2 fc 9a 3e
       0.19945563 0.6408138 0.045480628 0.3027106
000300 d7 6a b3 be 4d 06 3b be ac a6 1b 3f a3 cc 59 3e
       -0.3504245 -0.18264122 0.60801196 0.21269469
000310 cf 2b 9b 3e ba e7 51 bd db e7 3d bd d6 16 59 be
       0.3030686 -0.051246382 -0.046363693 -0.21200117
000320 2b 71 46 3f 19 0e f9 3d 76 22 81 bd 67 8c fb bd
       0.7751643 0.12160892 -0.06305401 -0.12282639
000330 55 53 5d 3c b8 94 c4 bd dd 87 0f 3d e5 9c a3 3e
       0.013508637 -0.09598678 0.03504168 0.3195564
000340 74 d7 9d 3d 37 2e 85 3f e5 97 fc be a9 2b 2a be
       0.0770711 1.0404729 -0.49334636 -0.16618218
000350 2f 12 1c bf 30 69 e4 bd 63 91 22 be 4a b7 3b be
       -0.60965246 -0.111528754 -0.15875773 -0.18331638
000360 84 ce 5c bd bc 9f a2 3e ed 2a bd bd 5a 8e 00 3f
       -0.053907886 0.31762493 -0.09236703 0.5021721
000370 b8 e5 ee 3d 6c 6c cc 3d 9b 8c 08 be e1 95 13 3d
       0.11664909 0.09981617 -0.13334887 0.036031608
000380 6f 0a f9 bd d8 b8 6c 3d e8 3e be 3d 5d 7c fd 3c
       -0.12160193 0.05779347 0.09289342 0.03094309
000390 2e 08 08 3e 55 a5 6e bd 86 e9 c4 3e 0c af 65 be
       0.1328437 -0.05826314 0.38459414 -0.22430056
0003a0 66 38 cb 3d 7c 59 87 be fe 0e e9 3e ab dc 8c bd
       0.099228665 -0.2643546 0.4551925 -0.068780266
0003b0 52 a5 02 3e 27 b8 e8 bd 3c c4 0e 3e eb e1 ed 3e
       0.12758377 -0.11363249 0.13942045 0.46461424
0003c0 0b 17 f0 3e 19 b3 c5 be 27 ae dc 3e e0 03 ab 3e
       0.4689258 -0.38613203 0.43101618 0.33401394
0003d0 e8 1b e2 3d 61 49 3c be f6 29 56 be ec 0f 9d bd
       0.11040479 -0.18387367 -0.20914444 -0.076690525
0003e0 85 b9 e2 bd c2 f3 a2 3e 67 a0 1c 3d af 8a 43 be
       -0.11070541 0.31826597 0.03823891 -0.19095872
0003f0 65 4a 3d 3d 64 95 a9 3d 76 ba 54 be 10 22 a2 3e
       0.046213526 0.08280447 -0.20774254 0.31666613

bias f4 [20]
000000 5c 7b 99 3d 79 4a 27 bb 3c 5d 8d bc 8b b4 96 3c
       0.07494232 -0.0025526567 -0.017256372 0.018396636
000010 a5 ae 31 bd 51 41 8e bc 9d 72 88 bd 6d 80 3e bb
       -0.043379445 -0.01736513 -0.06662486 -0.0029068247
000020 4c 31 2c 3d a5 50 3d 3d 2f 09 85 bc 42 c5 8f 3c
       0.0420392 0.046219487 -0.01623973 0.017550115
000030 ba d6 36 bd b2 41 1c 3d 00 b5 ce 3c cc 60 bc 3c
       -0.044638373 0.03814859 0.025232792 0.022995375
000040 74 1e d3 3d ca 7a 1e 3d e3 55 94 3d b1 14 32 bd
       0.10308543 0.03869132 0.07242944 -0.043476764

weight f4 [20, 20]
000000 9c 91 0b 3e 0b f8 84 3e 79 ad 71 3e 84 86 8c 3d
       0.13629764 0.25970492 0.23601331 0.06861594
000010 20 15 cf 3e 51 a1 1f 3e 20 56 ad 3e 1f 3f bf be
       0.40445805 0.15588881 0.3385477 -0.37352845
000020 25 e9 58 3b 42 20 63 bc 5b 8c 30 be 16 82 27 3e
       0.003309795 -0.013862671 -0.17241041 0.16358218
000030 6a 33 ea 3e 7e a7 4b 3e e8 54 a3 3e 27 31 c1 bc
       0.4574235 0.19888112 0.31900716 -0.023583008
000040 dc 6d c3 bb c2 d8 c3 be 23 78 fb bd 0e b7 36 be
       -0.005964024 -0.3825131 -0.12278774 -0.17843267
000050 7e 08 63 be a0 b7 13 3e 68 9c be bd 78 e2 12 3e
       -0.22171208 0.14425516 -0.09307176 0.14344203
000060 0a 62 da 3d 1d 51 ef bc da f3 b8 3c d8 81 bf 3e
       0.10663231 -0.029213483 0.022577215 0.3740375
000070 73 04 88 3e 8e 18 cc be 8b c0 08 3d 7d 6a bc 3e
       0.26565894 -0.39862484 0.03338675 0.36799994
000080 c0 4d 91 be 84 bc 5c 3b 34 39 8c bd ad 56 85 3e
       -0.2837963 0.00336817 -0.06846848 0.2604269
000090 b9 5c 48 3d 9d eb b0 bd 62 39 9a 3d 45 4c 85 3e
       0.048916552 -0.0863869 0.07530476 0.26034752
0000a0 59 75 32 bf ad c3 d3 3d 19 dd 93 be 8e 0c d2 3e
       -0.6971031 0.103400566 -0.28879622 0.41025203
0000b0 19 2b c0 3c aa 08 db bd 81 b6 91 bd ed 17 cf be
       0.02345805 -0.10695012 -0.07114888 -0.4044794
0000c0 c5 db d9 3e c9 e1 75 be 82 cd 18 bf 85 f3 4f 3d
       0.42550483 -0.24011911 -0.5968858 0.050769348
0000d0 b9 fd a3 be 99 a2 21 bf 92 19 7f 3b 13 93 b4 bd
       -0.32029513 -0.6313873 0.0038925153 -0.08817115
0000e0 18 72 76 3c 6b 01 8a bd a7 35 86 bc 11 87 44 be
       0.0150418505 -0.06738552 -0.016383005 -0.19192149
0000f0 61 2e 95 3e 30 eb 03 be fc d2 23 3e 5d 9a d6 bd
       0.29136947 -0.12882686 0.15998453 -0.10478661
000100 6e 1d 35 be 02 a9 18 be 2c 01 ff 3d 1f 04 0d be
       -0.17687008 -0.14908221 0.124513954 -0.13771103
000110 6c 26 18 be b8 97 6f 3e c7 19 8a 3b 4d d2 e2 be
       -0.14858407 0.2339772 0.0042144987 -0.44301072
000120 26 01 cf 3c 5a f3 b1 3e 46 99 8f 3e 37 00 99 3d
       0.025269102 0.34755975 0.28046626 0.07470744
000130 b1 f4 41 3e 33 a0 ab be 05 f0 0d 3f ba 19 1d be
       0.18940999 -0.3352066 0.55444366 -0.15341845
000140 f8 4d 4a be 8d 37 49 3e f8 52 c6 3d b3 ea 10 3e
       -0.19756305 0.19650097 0.09683794 0.1415203
000150 ff 12 ed be 9c 8f c2 3d 64 b2 e1 bc e5 f0 93 3d
       -0.46303555 0.095000476 -0.027550884 0.07223681
000160 00 0c e2 3d ed 23 0a bf 45 31 47 be a6 d2 d1 bd
       0.11037445 -0.5396107 -0.19452389 -0.10245256
000170 90 83 17 3c 7d 8b a3 be 72 2f 05 3e 19 a6 c6 bd
       0.009247676 -0.3194236 0.1300638 -0.09699649
000180 ef e9 83 be 6c 02 03 3e c8 f4 12 be bf 88 11 be
       -0.25764415 0.12793893 -0.14351189 -0.1421232
000190 ad 0a 12 bf ba 8a 33 3e 42 df 51 3d 37 16 2a be
       -0.5704754 0.17533389 0.051238306 -0.16610037
0001a0 f6 36 c8 3e 0e 52 a6 3e 24 e2 8a 3d 64 5e 13 3e
       0.39104432 0.32484478 0.06781414 0.14391476
0001b0 ee af a8 3e c9 68 f7 be 07 73 64 be 1d a2 78 bd
       0.32946724 -0.48322132 -0.22309504 -0.06070148
0001c0 3d 6c 3f 3b e4 10 16 3e 30 96 16 3e 50 38 23 be
       0.0029208802 0.14654881 0.1470573 -0.1593945
0001d0 98 e2 c0 bd e5 8c 8d be 16 d0 3f be 16 05 26 bd
       -0.09418219 -0.27646556 -0.18731722 -0.040532194
0001e0 04 33 df 3d 63 57 e5 3d 23 1e 36 3e 5f 62 21 3e
       0.10898402 0.11198308 0.17784934 0.15760182
0001f0 10 a1 14 be c2 7e 7b bd 75 22 f1 bd ef ab 2e be
       -0.14514565 -0.061400183 -0.1177415 -0.17057775
000200 c5 e8 b3 bd f9 3e 57 3e 76 2a 51 be d2 b1 fd bd
       -0.08784632 0.21020116 -0.20426354 -0.12387432
000210 37 67 b5 bd 16 76 8f 3d 96 15 a3 3e 86 da 97 bd
       -0.08857577 0.07004945 0.31852406 -0.07414727
000220 9a d6 19 3d dc 98 fb bd fe 25 ab bd 59 ac f6 3c
       0.037558176 -0.12285015 -0.08356856 0.030111479
000230 8b 77 1e 3f 2c 85 c2 bd 7c 3e e7 3d b0 db 9a 3d
       0.6190116 -0.09498057 0.11291215 0.07561433
000240 7e 0f 95 3e c5 3b 8b 3e 67 9f 9a be 4f 76 56 be
       0.29113382 0.27194038 -0.3019974 -0.20943569
000250 33 c4 dd 3e a4 10 96 bc 6a 8f e2 bd 3f 3d 94 be
       0.4331375 -0.018318482 -0.1106251 -0.28952977
000260 eb 0d 23 3e 78 66 df be 55 1b 6a 3e 81 9d 1c be
       0.15923278 -0.43632865 0.22861989 -0.15294458
000270 e6 85 b5 bc c5 31 ba 3e 07 36 a5 3e 6a 23 9a bd
       -0.022158574 0.36366096 0.32267782 -0.07526286
000280 8f 16 70 be 2c fe 62 3d 5a c2 d0 3d 72 3e cf bc
       -0.23446105 0.05541818 0.101933196 -0.025298331
000290 3a bf c0 3e 4e af dd 3c e3 e2 e9 bd c8 c2 24 3e
       0.37645894 0.02706113 -0.11420228 0.16089928
0002a0 74 f4 8e 3e 5e cb e3 bc 61 c2 91 be 4e 10 b7 3d
       0.27920878 -0.027806934 -0.28468612 0.08938657
0002b0 7c 03 96 3e 0d 3d d1 be 31 c3 a0 be c1 85 2f 3d
       0.29299533 -0.4086689 -0.3139892 0.042852167
0002c0 20 28 af 3e 41 3b 8e 3e 65 94 4b be f3 91 4c bd
       0.342103 0.27779582 -0.19880827 -0.049943876
0002d0 95 72 e1 3e c7 a7 55 be 44 7b 18 3e 75 1d 81 3e
       0.44032732 -0.20864783 0.14890772 0.25217786
0002e0 fd b8 c7 be e1 1d 8f bd 23 db 17 3f 06 61 9f be
       -0.39008322 -0.06988121 0.5931875 -0.3112871
0002f0 46 be 36 bf fb 95 c3 3b 40 72 c8 3e 92 32 fb bd
       -0.71384084 0.005968807 0.39149666 -0.12265505
000300 07 71 df 3e 7a 43 66 3e f4 93 b4 3c 6a 04 d2 bd
       0.4364092 0.22486678 0.022043206 -0.10254748
000310 80 7a 7c 3d e7 34 a9 be b7 33 05 3f c2 98 89 3d
       0.061640263 -0.33048174 0.52032036 0.06718589
000320 e0 5b f2 3e fc 88 fa be 33 46 d3 3e 15 bb 0c be
       0.4733572 -0.48932636 0.41264495 -0.13743241
000330 4f 25 2a 3c cd d1 bd 3c f6 37 5f 3d dd 96 22 be
       0.010384872 0.02317133 0.054496728 -0.15877862
000340 e2 5c c0 bc b7 21 bf 3d 3b a5 15 3d 0e a3 6f 3e
       -0.02348179 0.093326025 0.03653453 0.23402044
000350 1b 4d 15 3e 04 64 cb 3e 90 fa a2 3e be 11 04 be
       0.14580195 0.39724743 0.3183179 -0.12897393
000360 a3 21 9b 3e 23 a6 67 3e 68 7b db 3e 5e cb 5c 3e
       0.302991 0.2262197 0.4286759 0.21561953
000370 be 36 cd 3d 96 31 5f 3f d5 45 24 3d 3d af 4b 3e
       0.10020207 0.8718504 0.04010566 0.19891067
000380 f0 19 c9 bd 32 4f fa 3e e3 c6 b8 3e d5 be c8 bc
       -0.098194 0.48888546 0.3608924 -0.024505058
000390 f6 37 4d be 3d e9 bf 3d 15 f7 93 3e 7a b9 c3 3e
       -0.20040879 0.093706585 0.28899446 0.38227445
0003a0 ff bc ab bd 8a 16 52 be 74 ba fa bd 11 f3 ad 3d
       -0.083856575 -0.2051641 -0.12242594 0.08493627
0003b0 b7 8c ae be 80 f5 42 3e f2 ed 4c be 8f 42 0d 3d
       -0.34091732 0.19038963 -0.20012644 0.034487303
0003c0 33 0f 2f bd be c8 d8 bd 15 8c fb be 16 66 ce bd
       -0.042739104 -0.105851635 -0.49130312 -0.10078065
0003d0 11 37 d5 3e 42 72 26 be 85 f8 b6 3e de 2f 65 3d
       0.41643575 -0.16254523 0.3573648 0.055953853
0003e0 0e 24 08 3d f6 6f a3 be 59 9f 84 bd f7 db b2 bd
       0.03323751 -0.31921357 -0.06475706 -0.08733361
0003f0 9a bd 4e 3e 45 67 4b be fa da 7a 3d 87 c1 60 be
       0.20189515 -0.19863613 0.06124399 -0.21948825

bias f4 [20]
000000 af cf c5 bb 23 c5 d7 b8 7e e3 90 3d 3f d0 d8 bc
       -0.0060367207 -0.000102887185 0.07074641 -0.026466487
000010 4d 83 9c bd eb 4e f6 39 90 22 e3 3c 5b 5f 9f bb
       -0.07642231 0.00046979575 0.027726442 -0.004863662
000020 23 31 3c 3d 28 fb 7b bd d9 f4 81 3d 95 e0 d5 bc
       0.045945298 -0.06151882 0.06345529 -0.026108066
000030 ca 2d ae bd fa 05 35 3c 6d f2 56 3c 2e b8 e6 bc
       -0.08504827 0.011048788 0.013119322 -0.028163996
000040 9c 4a 2b be 9a eb e3 3d 61 31 56 3c f4 7b 1b bb
       -0.1672768 0.11128922 0.013073296 -0.0023725005

weight f4 [20, 20]
000000 21 d7 8b 3e f5 8c 8c 3e a2 b4 f1 3d 64 71 ad 3e
       0.27312568 0.27451292 0.11802031 0.33875573
000010 99 63 c9 3d 3c f1 7d 3e de b2 07 3e 53 f7 d5 be
       0.0983345 0.24799055 0.13251826 -0.41790256
000020 d8 1f c8 3d f3 3c fb bd c5 b2 2c 3e f6 a1 3a bd
       0.09771699 -0.122674845 0.1686507 -0.045564614
000030 b6 04 8b be f1 3d 22 3d 69 e5 be bd af 3a 21 be
       -0.27152032 0.039609853 -0.093211 -0.15745042
000040 07 55 e8 3e ae 2f 01 3e 55 c2 a9 bc 6b 8b 2d bd
       0.4537737 0.12615845 -0.020722548 -0.042369287
000050 58 16 a9 bd 0b 2b 93 3e cf c5 40 be e9 c4 f9 3d
       -0.08256215 0.28743777 -0.18825458 0.12195761
000060 62 19 09 3d c7 b5 b0 3e 71 85 08 3e d4 60 cb bd
       0.033471473 0.34513685 0.13332154 -0.09930578
000070 95 26 e3 bd 8f 6f b4 bd ad b7 42 3d 6e 07 1c be
       -0.11091343 -0.088103406 0.047538448 -0.15237209
000080 04 64 9c be ee ec 20 3e a9 b4 23 be 44 e4 6b 3e
       -0.30545056 0.15715382 -0.15986885 0.23036295
000090 b5 55 ae bd bc ce 7b bd 31 15 71 3e c6 8a 39 be
       -0.08512441 -0.061476454 0.2354324 -0.18119344
0000a0 95 49 cd 3e 65 94 1c 3e f9 57 54 3d 0a 12 c9 bd
       0.400952 0.15290983 0.05184171 -0.09817894
0000b0 8e cf 32 be e3 a6 06 3c ff 15 7c 3e 76 9f 69 3e
       -0.17461988 0.0082185 0.24617766 0.22814736
0000c0 b1 73 36 be a3 fc ec 3c ce 06 90 3c bb bd 75 3d
       -0.1781757 0.02892906 0.01758137 0.059995394
0000d0 39 8c e7 3e 38 72 ae 3d ee 58 d3 bc 50 e3 ff 3d
       0.4522417 0.08517879 -0.02579924 0.12494528
0000e0 17 2c ee 3c df b8 bd bd 7c 79 c4 bd 27 cf 00 be
       0.029073758 -0.09263777 -0.09593484 -0.12579022
0000f0 da 2b 28 be 15 c2 f5 be 1b e2 1a 3e 05 fd 47 3e
       -0.16422978 -0.47999635 0.15125315 0.19530113
000100 0d 8d ec be 2b bd 87 3e 66 de 68 3e 8e 66 25 3f
       -0.46201363 0.2651151 0.22741088 0.6460961
000110 09 69 81 bd d9 00 5c 3f ad 68 da 3e f0 0e 14 3e
       -0.06318862 0.85938793 0.42657986 0.14458823
000120 07 f6 06 3e 9a 5c c9 bc c2 ff ad 3e 8b 9d 07 be
       0.1317979 -0.024580289 0.3398419 -0.13243692
000130 a7 48 16 bd 08 d9 43 3e e8 04 bf 3d 62 1b ca be
       -0.03669038 0.1912576 0.09327108 -0.39474016
000140 c7 62 93 bd d7 ea b2 be 7e 4a 40 3d 22 6b 2f 3f
       -0.07196575 -0.34944794 0.04694604 0.68522847
000150 49 8b d2 be 52 91 aa 3e a6 ec 5a 3e 2e 44 88 3e
       -0.4112189 0.33313996 0.21379337 0.26614517
000160 ba 10 91 be a5 62 f3 3e a7 f2 b5 3e 88 e7 82 3d
       -0.28333074 0.47536197 0.35536692 0.06391817
000170 bb 4c 4e be 17 b2 b6 be 32 ae 83 be 9b 85 fc bd
       -0.20146458 -0.35682747 -0.25718838 -0.12330171
000180 eb 8a 7f 3d 4a 95 15 3e 99 88 65 be 78 34 6e be
       0.062388342 0.1460773 -0.22415389 -0.23262203
000190 3b 35 8b be c4 51 37 3e ee 43 3c be f3 09 ce bd
       -0.2718905 0.17902285 -0.18385288 -0.100604914
0001a0 f4 b5 a6 be bf 78 13 be 45 e6 b7 3d 38 ee d6 bd
       -0.32560694 -0.1440153 0.08979467 -0.10494655
0001b0 2c 96 a8 3d a8 26 45 be 49 a3 18 be 97 dd b1 3d
       0.08231768 -0.19253027 -0.14906038 0.08684843
0001c0 57 52 92 3c 7a 53 af 3e e3 51 ea 3e 7a 34 94 3e
       0.017861528 0.34243375 0.457656 0.28946286
0001d0 6f 5b cb 3e d1 b9 a3 be 4b 21 90 3e a4 f3 8a 3e
       0.39718196 -0.31977704 0.281504 0.27139008
0001e0 0f d9 bf be bb 90 9f be eb 04 95 be a5 1c ff bd
       -0.3747029 -0.31165108 -0.29105315 -0.124566354
0001f0 71 4c cc 3d 04 bc 6d bd e1 e3 88 3e c9 34 04 3c
       0.099755175 -0.058040634 0.26736358 0.008069226
000200 b3 14 14 be 30 03 73 3e 0f 3e a8 bd 25 d7 c7 3d
       -0.14461021 0.23731685 -0.08214962 0.097578324
000210 27 f7 c7 be 92 7f 95 bd 3a 0d 8d be 5c 9c ba bd
       -0.3905575 -0.07299723 -0.27549154 -0.091118544
000220 ac 89 80 be 83 a1 22 3e a7 88 77 bd d3 cd b8 bd
       -0.25105035 0.15881924 -0.060433056 -0.09023633
000230 4d 88 41 3e 3e 17 83 be 3c 73 bb be 07 2c c3 be
       0.18899651 -0.2560367 -0.36611354 -0.38119528
000240 67 bd b2 bd d7 4e 2f 3e db 0f 7b 3e 3c b7 38 be
       -0.08727532 0.17119919 0.24517767 -0.18038648
000250 39 b7 db be b8 7d 3c 3f 67 c4 c8 3e 69 6a e9 3d
       -0.42913225 0.7362933 0.39212343 0.11397249
000260 60 4b 16 3f 9c 96 34 bd c5 28 84 be 64 2b 2c 3d
       0.58708763 -0.044088945 -0.25812355 0.042033568
000270 f8 31 c5 3e 44 52 f0 3c b6 4c 04 be 8d 54 3f bf
       0.38514686 0.029336102 -0.12919888 -0.7473839
000280 98 31 d0 3e 87 71 93 be a2 ae c4 3e 2d eb db be
       0.40662837 -0.28797552 0.38414484 -0.42952862
000290 73 fc f7 3c fa 0c c5 3d 52 93 07 bd bb 45 87 ba
       0.030271744 0.09621616 -0.03309948 -0.0010320464
0002a0 1f 93 13 bd 6b 87 47 be 9a 7e fe 3b e8 fc 8e 3b
       -0.036028977 -0.19485252 0.007766557 0.004363645
0002b0 47 66 a4 be 6d e5 e9 3c 04 2a d4 bd d3 83 c4 3e
       -0.3210928 0.028551782 -0.10359576 0.38381824
0002c0 da bc 26 be dc 0c 82 3e 1d e8 d9 be 12 4b b8 be
       -0.16282979 0.25400436 -0.425599 -0.35994774
0002d0 32 da 68 3e e4 44 b5 be ea 53 6b be f3 2b 97 3e
       0.22739485 -0.35404122 -0.2298123 0.29525718
0002e0 4c 47 7f be e9 f7 24 bd 44 e1 76 3b 2d fa 55 3e
       -0.24929541 -0.040275488 0.003767089 0.20896216
0002f0 15 f3 ef 3d db 5f 11 be e6 e7 85 3e 70 42 25 bf
       0.11716286 -0.14196722 0.26153487 -0.645545
000300 78 4d dd 3d 25 ea 6b 3e cb e6 d9 3e 0b f6 4b 3e
       0.108057916 0.23038538 0.42558894 0.19918077
000310 6f 90 8a be 15 47 2f bd 3f 43 7b be 4f 29 6d be
       -0.2706332 -0.0427924 -0.24537371 -0.23160289
000320 00 78 89 3e c0 09 c3 be a1 06 0c 3e f9 be d2 3e
       0.26849365 -0.38093376 0.13674404 0.41161326
000330 0c 91 77 bd a3 ba 45 bd 91 cd 49 3e bc d3 20 be
       -0.06044106 -0.048273694 0.19707324 -0.1570577
000340 ba 1a ad bd df ce 43 3e e1 41 24 be 02 00 b2 be
       -0.08452363 0.19121884 -0.16040756 -0.3476563
000350 22 d0 d1 bc dd f6 04 bf c9 42 14 3e d7 48 73 be
       -0.02561194 -0.51939183 0.14478602 -0.23758255
000360 7e 86 e1 bc f3 a4 68 be 01 aa d2 3e 00 76 b4 bd
       -0.027529951 -0.22719173 0.41145328 -0.08811569
000370 ef 28 95 bd 03 a4 07 3e 9e ec 84 be 53 9f dd be
       -0.07283198 0.1324616 -0.25961775 -0.43285617
000380 a9 29 9e be 36 54 d2 3d 5f a0 c5 3e 44 88 ee be
       -0.3089116 0.10269968 0.38598916 -0.46588337
000390 55 7f b8 3e 81 89 c6 3d 20 9e f2 3e ad 33 e8 bd
       0.36034647 0.096941955 0.47386265 -0.113379814
0003a0 03 0d 06 3d a1 3c d2 bc 96 5e 39 3d ce 75 4a bd
       0.032727253 -0.025663676 0.04525622 -0.049428754
0003b0 5e 43 9e 3e 88 31 ff bd 8a b8 be 3e 83 0e 6c bd
       0.30910772 -0.12460619 0.37250167 -0.057631027
0003c0 df 20 87 be 7a bd aa 3e 09 f3 82 be 14 8c da be
       -0.26392266 0.33347684 -0.25576046 -0.42684996
0003d0 fe e4 8a bd 72 fd 12 bc 7b 4b 46 bd af 7e c1 bd
       -0.06781958 -0.008971559 -0.048411828 -0.09447991
0003e0 92 eb 2e 3e f7 c0 21 be 20 58 4c be c3 07 f2 bd
       0.1708205 -0.15796266 -0.19955492 -0.11817887
0003f0 7b 17 04 3e b7 c7 97 3e 09 cc f9 bd 0b 7d 2a 3f
       0.12899582 0.29644558 -0.1219712 0.6659705

bias f4 [20]
000000 da 03 b0 bc 42 b5 ca 3c 7c 56 bd bd 5c fa 54 3d
       -0.021486212 0.024744634 -0.09245011 0.051996574
000010 63 cd 67 bd 38 df 8a bc d0 3a b5 3d 05 8c 32 bd
       -0.056592356 -0.016952142 0.08849108 -0.043590564
000020 ae ce 07 3b d8 54 df 3c 50 34 c4 3b 38 c1 3b 3d
       0.0020722556 0.027262136 0.0059876814 0.045838565
000030 24 63 c7 ba 7d 37 c7 bd ff 88 54 3d ae a5 91 bc
       -0.0015212041 -0.097273804 0.051888462 -0.017779198
000040 1c 57 8f 3c 29 6b 34 bd 05 cf 22 bd 3f e0 0c bd
       0.017497592 -0.04404751 -0.03974821 -0.034393545

weight f4 [20, 20]
000000 78 d6 d4 3e d1 bb 7f be b5 e8 67 be 9c 2f b2 be
       0.41569877 -0.2497399 -0.22647364 -0.34801948
000010 95 b3 9a bd 30 49 96 3c 16 d5 02 be c4 3b 12 be
       -0.07553784 0.018345445 -0.12776598 -0.14280611
000020 30 42 cf bc ee 17 f9 be 3c 72 10 3e 0a 65 7d be
       -0.025300115 -0.4865107 0.14106077 -0.24745575
000030 c6 2a 69 3e aa 46 8c be 71 5d f8 3c 4c 2d 6c 3c
       0.22770223 -0.27397662 0.030317994 0.0144150965
000040 7c d3 f4 3d b9 f2 28 3d bb 09 bd bd b8 09 b2 bd
       0.119544 0.041247103 -0.092303716 -0.0869326
000050 7c 17 5d be ec ab 81 3d cb 19 bb bc 04 be 8d be
       -0.2159099 0.063316196 -0.022839447 -0.27684033
000060 33 79 c6 be bb e3 ef 3d 6e ad 91 3d 01 66 de bd
       -0.38764343 0.11713358 0.07113157 -0.108592995
000070 b8 57 9c bd 85 5e 92 3d 24 b1 ba 3d e9 3c 69 3c
       -0.076339185 0.071469344 0.09115818 0.0142357135
000080 34 47 61 bd ad b3 a9 3e ea 0c c7 3e 82 11 00 3d
       -0.054999545 0.33144894 0.3887704 0.031266697
000090 40 9b 03 3e a1 4e 06 bf e2 81 78 3e ff c4 91 be
       0.12852192 -0.5246373 0.24268296 -0.2847061
0000a0 c5 04 eb bd 59 44 8b bd 6b f9 33 3d 24 91 3e bd
       -0.11475519 -0.06800146 0.043939035 -0.046525136
0000b0 7b b8 1a 3e 7a 87 42 bd 46 2c 8c bd d2 a4 cc bd
       0.15109436 -0.04749248 -0.06844382 -0.099923745
0000c0 95 66 bd be 6c 79 42 3e 10 a5 bb 3e a0 33 40 bd
       -0.36992326 0.18991631 0.3664937 -0.046924233
0000d0 3a 93 4c 3b aa 4d 3c 3d fd 7f ce 3e 75 e6 68 3e
       0.0031215684 0.045972504 0.40332022 0.22744162
0000e0 65 74 c4 3e 71 d3 b7 3e 7f 25 3c be e8 13 09 3e
       0.38370052 0.35903504 -0.18373679 0.133865
0000f0 02 d1 56 3c 91 96 01 3e 01 d3 0c bd cc 5d 84 3e
       0.013111355 0.12655093 -0.034380917 0.2585281
000100 fb 79 cb 3d ae 72 b6 bc 57 a4 98 bd 5f a7 f3 be
       0.09935375 -0.02227148 -0.0745322 -0.47588632
000110 46 48 97 3d 38 ae cd 3c 2f 48 32 bd 32 7b aa 3d
       0.07386832 0.025107488 -0.04352587 0.08324279
000120 26 4e b7 3e 11 13 2d 3d 66 da c0 bd 34 e2 df be
       0.3580181 0.04225451 -0.09416656 -0.43727267
000130 f7 49 88 be 51 64 9b 3e fe 5a 70 3e f5 80 00 be
       -0.2661893 0.30349973 0.23472211 -0.12549193
000140 bf ca ba 3d bc d5 b6 3e 88 fb de bd 8b 14 cb bd
       0.09120702 0.3570994 -0.108878195 -0.09916028
000150 78 56 c7 be c7 f1 88 3e 71 06 ae be d0 8f 45 be
       -0.38933158 0.2674696 -0.3398929 -0.19293141
000160 40 82 67 be b5 bf 83 3e b4 6e 98 3e 92 7f c9 3e
       -0.2260828 0.25732198 0.2977196 0.3935514
000170 52 a0 fd bd ea a0 6c be 3c 4f 03 3e a0 73 da 3e
       -0.12384094 -0.23108259 0.12823194 0.4266634
000180 29 4b 8c 3d de 11 63 3e 49 37 90 3e 39 57 65 3e
       0.06850273 0.22174785 0.2816718 0.22396554
000190 cd ac 38 3e fe 70 b0 bd 4a 95 b1 3e c2 8e 6b 3e
       0.18034668 -0.086153015 0.3468421 0.23003677
0001a0 ed 58 91 be 58 19 f2 bc 78 53 78 bd 33 ce 76 3e
       -0.28388157 -0.0295531 -0.060626477 0.24102096
0001b0 75 d6 dc be fc 19 08 be 72 67 37 be 86 06 c2 bb
       -0.43132368 -0.13291162 -0.17910555 -0.005921188
0001c0 07 9e b3 be 46 e5 8f 3a eb 8f 6b 3d df e6 10 bc
       -0.35081503 0.0010978363 0.057510298 -0.008844106
0001d0 db 62 b0 bc 57 39 0c 3f 95 4d fa 3c 13 45 81 3e
       -0.021531513 0.54774994 0.030554572 0.25248012
0001e0 a9 75 cd bd 45 cf ce 3e ba c7 4a 3e 94 93 7c be
       -0.100322075 0.4039251 0.19802752 -0.24665672
0001f0 55 53 49 3e a8 88 c1 be 79 c3 f9 3d b0 25 c0 3d
       0.19660695 -0.37799573 0.121954866 0.09382188
000200 6f bd d2 bd 8e eb e5 3d 80 c8 86 3d 77 67 ce bd
       -0.10290038 0.11226569 0.06581211 -0.10078328
000210 d0 e8 41 3e aa a7 b8 bd ed 19 49 3e 25 99 93 be
       0.18936467 -0.090163544 0.19638796 -0.28827778
000220 a2 24 a1 3d c7 bc a0 3d af cf 26 bd fc 61 d9 bd
       0.07868315 0.078485064 -0.040725406 -0.10614392
000230 94 6d 0c be 59 5c 4c be ee ae 24 3e e3 d3 73 be
       -0.13713676 -0.19957103 0.16082355 -0.23811297
000240 8d 66 fa be d3 2d 0c 3e ae 7a c8 3e c8 5f 61 3e
       -0.48906365 0.13689356 0.39156097 0.22009194
000250 12 2c 1d bd d0 07 06 be f5 22 ec be fe 03 35 3e
       -0.038372107 -0.13088918 -0.4612042 0.17677304
000260 d9 85 f9 3d b3 5d 4e 3e f3 63 8b be bb 9f 22 bf
       0.121837325 0.20152931 -0.27224693 -0.6352498
000270 e4 26 6d be fd 0e b0 3e e7 04 e1 3d 98 85 96 be
       -0.23159367 0.34386435 0.10987263 -0.293988
000280 be 78 cd 3d ee 75 78 3e 0c 74 46 3d 76 fc 76 3e
       0.10032795 0.24263737 0.048450515 0.24119744
000290 fb eb 04 bf 19 89 02 3e fa 6f 94 3d 5c 1f 44 3d
       -0.5192258 0.12747611 0.0724792 0.04788147
0002a0 7b aa b2 3d a8 06 fd 3d d0 4d de 3c c1 b5 c3 be
       0.08723923 0.12354785 0.027136713 -0.38224605
0002b0 03 fa fd bc ec 7f d3 3e 0c 62 93 bd 29 93 b8 bd
       -0.031003004 0.41308534 -0.07196435 -0.090124436
0002c0 7a cb 47 bc 06 3b 35 3e db 0f ca 3c 0c 4c 49 3d
       -0.012194509 0.17698297 0.024665764 0.04914479
0002d0 6a b3 1b bd ae e1 f1 3d 9e f4 85 3e d2 54 ed 3d
       -0.0380129 0.11810623 0.2616319 0.11588444
0002e0 6e be ef bd 90 79 d3 bc 9c 74 b6 3e c3 9b a0 bd
       -0.117062435 -0.025814801 0.3563584 -0.07842209
0002f0 3a 99 64 3e 45 a5 bd bd bd 0f fc bd 57 73 a0 bd
       0.22324076 -0.09260038 -0.12307689 -0.07834499
000300 a6 e5 2f be 0e 31 1e 3e 55 68 c1 3d 63 8f f2 3e
       -0.17177448 0.154484 0.09443728 0.4737502
000310 3a d6 19 3d 7e b4 4a 3e 6e 02 80 bc 69 70 20 be
       0.037557818 0.19795415 -0.015626159 -0.15667881
000320 e0 8a 63 be 1e cc 62 bd 54 1d a2 3d a6 40 bc bd
       -0.22220945 -0.055370443 0.0791575 -0.09192018
000330 5d e2 55 3e f9 92 0a 3e e4 47 d9 bd 74 0f 8d bd
       0.20887132 0.13532628 -0.10609415 -0.06887713
000340 ec 61 10 be de f5 d7 3d 03 48 1c be fe da 50 3e
       -0.14099854 0.10544942 -0.15261845 0.20396039
000350 71 f7 9f 3e 2f 1c a5 bd 7d 6e 2a be a9 5c 11 be
       0.3124347 -0.08062016 -0.1664371 -0.14195503
000360 b9 32 91 bd f1 9b fd be 5a ed 6b be 1f 80 b4 3e
       -0.07089753 -0.49533036 -0.23039761 0.35254
000370 50 12 3b be 04 f9 48 3e c8 34 37 3e a8 74 be be
       -0.18268704 0.19626242 0.17891228 -0.37198377
000380 3b 0b 1a 3d 4d 0e 2f 3e 95 60 c5 bd 7b 11 f2 3d
       0.037608366 0.17095299 -0.09637562 0.118197404
000390 3b 2e a0 3e 35 78 13 bf 16 b6 14 3e b4 bb bc 3e
       0.3128527 -0.57605296 0.14522585 0.36861956
0003a0 c4 c7 33 be 14 aa aa be 0f 75 35 be 17 d1 3a 3e
       -0.17556673 -0.33332884 -0.17720436 0.18243824
0003b0 ea e9 6d 3e c6 42 fa 3c 7b 3d 57 bd da 52 30 bd
       0.23233762 0.030549418 -0.052548867 -0.043047763
0003c0 0c ad bf 3e 1b 9b 8a 3b 91 36 bb bd 73 25 de bd
       0.37436712 0.004229916 -0.09141267 -0.108469866
0003d0 13 d6 0a 3e 28 d3 24 be dc da 2b bd 48 e8 55 be
       0.13558225 -0.16096175 -0.041956767 -0.2088939
0003e0 66 51 d7 b8 d0 06 91 bc bd af cc bd 47 c3 3c be
       -0.000102671605 -0.017703444 -0.09994457 -0.18433867
0003f0 00 ca b0 3c f3 79 b3 3e d5 35 94 bd eb 65 5b be
       0.021580696 0.35053977 -0.0723683 -0.21425597

bias f4 [20]
000000 61 f0 4a 3b 72 86 f9 bc 57 37 aa 3a 07 9e 00 3c
       0.003096603 -0.030459616 0.0012986463 0.007850177
000010 54 3a f8 3c b9 b8 c8 bd cf d6 9f 3c 44 8d 0b 3c
       0.03030125 -0.09800858 0.019511608 0.008517567
000020 ce 33 4b b8 e2 a5 12 ba de 7a 30 bd 64 81 15 bd
       -4.844722e-05 -0.00055941765 -0.043085925 -0.03650035
000030 f9 6c a4 3c 4c 2c d1 bc d7 f2 6d 3c a6 17 c3 ba
       0.020071493 -0.025533818 0.01452323 -0.0014884367
000040 77 79 38 bd 5e 9e 94 3d 2d c4 c4 3c a7 07 09 3d
       -0.045037713 0.07256769 0.024019325 0.033454563

weight f4 [1, 20]
000000 d8 7b 32 3d 87 dd b2 bc ce ea d7 3e 9c 27 91 3e
       0.043575138 -0.021834148 0.4217133 0.28350532
000010 d5 4a 8a 3e e9 0e f2 be 7a e4 4e ba f8 45 ea 3e
       0.27010217 -0.47277 -0.0007892322 0.45756507
000020 82 2b 49 be ed 12 ae 3c 28 5d 24 bb 3f c2 58 3b
       -0.19645503 0.021249259 -0.002507994 0.0033074764
000030 d6 77 36 3e 0f eb f1 3b 0b d0 d7 3d a8 de 28 be
       0.17819151 0.0073827575 0.10537728 -0.16491187
000040 f2 93 01 be e3 b6 59 3a 0b 4e c9 be 24 f9 11 3c
       -0.12654093 0.00083051453 -0.39317355 0.008909497
