pendulum/models/pendulum_pinn_hidden_6_20_t_0_0.2_10_lr_0.005_epochs_10000.pt (torch, 17282 bytes, 13 tensors)

weight f4 [20, 1]
-0.23664501 0.256138 0.11030101 -0.147429 0.112795725 0.6875588 -0.1681114 -1.003107
-1.3263916 -0.8977705 -0.0709433 0.38871258 -0.12969816 -0.37147877 0.7197992 -0.83423096
-0.29962274 0.11377759 0.2296303 0.14556187
00000000: 1253 72be 8524 833e 7fe5 e13d a1f7 16be
00000010: 7201 e73d db03 303f 6525 2cbe cf65 80bf
00000020: 33c7 a9bf 4ad4 65bf b94a 91bd 5605 c73e
00000030: 98cf 04be 7732 bebe c344 383f 2990 55bf
00000040: 2768 99be 3a04 e93d 3524 6b3e 2c0e 153e

bias f4 [20]
0.32076612 -1.4734106 -0.03883713 0.06800026 0.045138273 -0.047009706 -0.14366437 0.14984912
-0.108352445 -0.08501001 0.0004913077 0.057375904 0.038382847 0.06864281 -0.20730866 -0.11689864
-0.15562059 0.030370217 0.1788239 -0.06805494
00000000: 753b a43e b898 bcbf af13 1fbd b843 8b3d
00000010: e9e2 383d 408d 40bd c11c 13be 0c72 193e
00000020: e3e7 ddbd ba19 aebd 1acb 003a ff02 6b3d
00000030: 5537 1d3d 9a94 8c3d b948 54be 8e68 efbd
00000040: 015b 1fbe f6ca f83c 9d1d 373e 6360 8bbd

weight f4 [20, 20]
0.4686526 -0.7945146 -0.30255035 0.2028258 -0.078324094 0.08442992 -0.12292071 -0.1738493
-0.16609113 -0.029182188 -0.092279784 -0.07720974 0.09978549 0.4937921 -0.06578916 -0.052945122
-0.10897858 -0.025063086 0.43807238 -0.33346328 0.2162576 -0.5245342 -0.3232831 0.45770466
-0.211289 -0.7786348 -0.21901786 1.2693098 0.3189066 0.75553733 -0.08330438 -0.41520178
-0.026801413 1.018734 -0.69769543 0.65074223 0.39721397 -0.3546451 -0.21256426 -0.23421103
-0.20692079 -0.19131152 -0.13472001 0.12736544 -0.2584052 -0.12028181 0.2830858 -0.2539956
0.45828527 0.14595135 -0.07306328 -0.046127073 0.13581051 0.4887918 -0.094439894 0.28793052
0.22912367 -0.41977033 -0.48975798 -0.3106894 0.19943783 0.46661124 -0.120193414 0.08825264
-0.3813748 -0.1320361 0.0985219 -0.021392418 -0.11541457 0.3783106 0.48040637 0.19156155
0.0041151694 0.01986942 0.2289956 -0.057833232 0.007944688 -0.3229372 0.24605243 0.15206195
-0.33767894 0.11187535 -0.0074703638 -0.48590198 0.18468238 -0.30592966 -0.12517427 0.12757431
0.2563523 -0.24401464 0.27695903 0.22966745 -0.37035248 0.052595243 -0.009213447 0.12534167
-0.10653543 -0.2127764 0.08929122 0.14618865 -0.12578195 -0.17611317 0.30562058 -0.1544899
0.02861964 -0.3472601 0.021771554 0.20292176 -0.13493803 0.024500133 0.047352936 -0.07587639
0.34499425 -0.12721843 0.17511183 0.20006864 -0.12853898 0.16046722 0.09603054 0.15331118
-0.1497969 0.21747549 -0.02111118 -0.10216952 0.0721669 0.59441704 0.09020888 0.19427244
0.023247853 -0.03280283 -0.21933796 0.13290702 -0.082289144 0.055113263 0.5264205 0.016294293
0.20569564 0.29382217 0.17899102 -0.2598801 0.43048885 -0.17515549 -0.037299328 0.6985758
-0.19831872 0.15921246 0.4504746 -0.38295534 -0.04027907 0.031032665 0.045041196 -0.28813127
0.10621236 0.123169556 0.14072038 0.00010697992 -0.18271823 -0.41664207 0.24355724 -0.0376067
-0.09067019 0.050317455 -0.17903635 0.12632468 0.17167823 -0.045913085 -0.5020395 -0.34747744
0.08806143 0.023092577 0.08375091 0.10353179 0.28541157 -0.31870988 0.24593967 -0.45029098
0.12539402 -0.1410236 0.33339643 0.11572779 0.24648276 -0.9926464 -0.63643664 0.5175352
-0.63090086 -0.18425517 -0.080284394 -0.3837581 -0.29057714 -0.006522631 0.33217707 0.13084379
0.17505004 -0.02398209 0.24545833 -0.4917035 -0.19907185 -0.27278584 0.12140271 -0.22134039
0.21490768 0.29238406 -0.034960084 -0.37783584 0.30940998 0.5019153 0.15131308 -0.046138186
0.07146453 0.13654675 -0.4912713 -0.2224813 -0.09393426 0.17919119 -0.069434576 0.14643805
-0.00017206889 0.58425784 -0.17775857 0.17286183 0.098138 -0.024560867 0.3612559 -0.113895744
-0.19348945 0.15010142 0.16867244 0.0469076 -0.15617485 -0.034203015 -0.03285972 -0.025596943
-0.3753574 -0.3719671 0.1019671 0.37015978 -0.15655792 -0.1430322 -0.28042695 0.37663925
-0.28333798 0.14982432 0.45598164 -0.070147485 -0.07186751 -0.35816145 -0.16211483 -0.15234561
0.014810878 0.39516124 -0.28373286 0.16345489 -0.37926275 0.0049751904 -0.020047253 0.39681977
00000000: 3cf3 ef3e 4f65 4bbf e1e7 9abe 91b1 4f3e
00000010: 6268 a0bd 98e9 ac3d dabd fbbd 8d05 32be
00000020: cb13 2abe 7c0f efbc 2ffd bcbd 2420 9ebd
00000030: 565c cc3d 51d2 fc3e 78bc 86bd fcdc 58bd
00000040: 2930 dfbd 1a51 cdbc 064b e03e b3bb aabe
00000050: a272 5d3e e047 06bf 5d85 a5be 4458 ea3e
00000060: 255c 58be 9c54 47bf 3846 60be be78 a23f
00000070: ba47 a33e e56a 413f 7d9b aabd 5495 d4be
00000080: a38e dbbc e065 823f 2b9c 32bf 0b97 263f
00000090: a15f cb3e 0b94 b5be 72aa 59be 04d5 6fbe
000000a0: 0be3 53be 2be7 43be 0bf4 09be 166c 023e
000000b0: b04d 84be 4f56 f6bd 9ff0 903e b60b 82be
000000c0: 5ea4 ea3e 4574 153e 33a2 95bd beef 3cbd
000000d0: e911 0b3e eb42 fa3e b469 c1bd a16b 933e
000000e0: 659f 6a3e 23ec d6be 8fc1 fabe ae12 9fbe
000000f0: 6e39 4c3e abe7 ee3e f727 f6bd cdbd b43d
00000100: 8f43 c3be 7934 07be dac5 c93d 273f afbc
00000110: 795e ecbd edb1 c13e d3f7 f53e b628 443e
00000120: 8bd8 863b 32c5 a23c d37d 6a3e 8ae2 6cbd
00000130: 702a 023c 0658 a5be 2bf5 7b3e 21b6 1b3e
00000140: 41e4 acbe e71e e53d f4c9 f4bb 25c8 f8be
00000150: 611d 3d3e d0a2 9cbe af2d 00be d7a2 023e
00000160: 9c40 833e f9de 79be 93cd 8d3e f22d 6b3e
00000170: d79e bdbe 1c6e 573d fff3 16bc 9159 003e
00000180: 3f2f dabd 0ee2 59be 51de b63d 7ab2 153e
00000190: fccc 00be 0357 34be 4d7a 9c3e 9a32 1ebe
000001a0: bc73 ea3c 13cc b1be 425a b23c b9ca 4f3e
000001b0: 322d 0abe 81b4 c83c 27f5 413d 1565 9bbd
000001c0: 16a3 b03e 8c45 02be 8450 333e cbde 4c3e
000001d0: b99f 03be 8551 243e a9ab c43d 9bfd 1c3e
000001e0: 5c64 19be e5b1 5e3e 5af1 acbc 413e d1bd
000001f0: 3dcc 933d b72b 183f 6fbf b83d 5bef 463e
00000200: 4872 be3c 435c 06bd 219a 60be c718 083e
00000210: 3687 a8bd 72be 613d 7ec3 063f 9c7b 853c
00000220: e1a1 523e dc6f 963e 6c49 373e 010f 85be
00000230: 0969 dc3e f65b 33be 2ec7 18bd ddd5 323f
00000240: 1014 4bbe 9708 233e 9ba4 e63e b912 c4be
00000250: abfb 24bd 3738 fe3c 1e7d 383d f185 93be
00000260: de85 d93d 5240 fc3d 0119 103e 685a e038
00000270: 7d1a 3bbe 1c52 d5be 1267 793e 7c09 1abd
00000280: 4bb1 b9bd ad19 4e3d 4e55 37be 425b 013e
00000290: 6bcc 2f3e 5c0f 3cbd a985 00bf 90e8 b1be
000002a0: 8d59 b43d a52c bd3c 9985 ab3d 7a08 d43d
000002b0: 7721 923e f12d a3be 9cd7 7b3e 8a8c e6be
000002c0: 4a67 003e 7e68 10be f0b2 aa3e b102 ed3d
000002d0: fa65 7c3e 131e 7ebf 83ed 22bf 307d 043f
000002e0: b882 21bf 63ad 3cbe 256c a4bd f17b c4be
000002f0: 87c6 94be cbbb d5bb 1d13 aa3e eafb 053e
00000300: 5140 333e 1776 c4bc 6e59 7b3e 90c0 fbbe
00000310: 7ed9 4bbe 96aa 8bbe fca1 f83d 0ea7 62be
00000320: c210 5c3e 5db3 953e 4e32 0fbd b373 c1be
00000330: fc6a 9e3e 857d 003f d1f1 1a3e 65fb 3cbd
00000340: ff5b 923d e9d2 0b3e e987 fbbe 23d2 63be
00000350: 9b60 c0bd e57d 373e b733 8ebd dbf3 153e
00000360: 646d 34b9 ec91 153f 5806 36be b102 313e
00000370: 93fc c83d df33 c9bc 89f6 b83e 2c42 e9bd
00000380: 1922 46be 30b4 193e 78b8 2c3e 2f22 403d
00000390: 4dec 1fbe 7618 0cbd ea97 06bd aeb0 d1bc
000003a0: d82e c0be 7972 bebe 20d4 d03d 9585 bd3e
000003b0: b850 20be 0877 12be 1f94 8fbe dcd6 c03e
000003c0: ad11 91be 8c6b 193e 6d76 e93e 7ca9 8fbd
000003d0: 462f 93bd f060 b7be 6e01 26be 7d00 1cbe
000003e0: 53a9 723c 9352 ca3e 6f45 91be b860 273e
000003f0: ba2e c2be ec06 a33b 233a a4bc f62b cb3e

bias f4 [20]
0.19435686 0.07466188 -0.1443783 -0.19753249 0.042712286 -0.033695858 -0.07895996 0.12840466
0.023718014 0.16197097 0.21091425 -0.039428618 -0.039033677 -0.01813615 0.1048355 -0.09394937
0.05770346 -0.02369536 -0.007166819 -0.125145
00000000: 7c05 473e 54e8 983d e8d7 13be f545 4abe
00000010: 14f3 2e3d ab04 0abd c2b5 a1bd 837c 033e
00000020: 484c c23c b8db 253e e8f9 573e e77f 21bd
00000030: c7e1 1fbd 4392 94bc ffb3 d63d 8768 c0bd
00000040: 775a 6c3d c61c c2bc a3d7 eabb 0326 00be

weight f4 [20, 20]
1.135464 -0.2720986 -0.5949367 -0.6882631 -0.5829485 -0.03572939 -0.105961695 0.49656874
-0.034867074 2.4703012 0.06144626 -0.78174263 -0.39794144 0.017445754 0.005183285 -0.27991495
0.19264007 0.19582883 0.007662067 -0.21462347 -0.73845005 0.122245185 -0.15055488 0.062713556
0.13962844 -0.32006803 0.31354666 -0.16225736 0.11964805 -0.3174616 0.28049806 0.017383868
0.29893565 -0.19427505 -0.15659745 -0.089828975 -0.4547904 -0.21431178 0.57298976 0.32694998
-0.2593745 -0.1675076 0.26513973 0.28150746 -0.30444545 0.07393616 0.18657258 0.030625802
0.4756861 0.306972 -0.23823243 0.08195326 -0.32165298 -0.010744929 -0.041587926 -0.18284246
0.5619478 0.29069224 0.5215258 -0.35870185 -0.39099577 -0.16540857 -0.42274237 -0.31536558
0.11886933 -0.31125885 -0.042037606 -0.41916302 0.14244728 0.029571922 -0.13787365 0.19576705
0.23930283 0.31736705 0.086252876 -0.0679206 -0.16685802 -0.24335665 0.5651739 0.21197382
0.039180122 0.2564142 0.26654664 0.113705136 0.07187791 0.3648193 0.30219626 -0.22601321
0.052606758 -0.036720455 0.034389187 0.04112622 0.33230665 -0.1580228 -0.6667568 0.40904927
0.010319364 -0.21992064 -0.19391888 -0.0065570823 0.25835267 -0.574925 0.105495 0.13924952
-0.35439682 0.31414354 -0.06608832 -0.30871278 0.03418405 0.10480714 0.16441074 0.11539447
0.44471118 -0.10385017 0.24861413 0.13180959 -0.5167791 -0.13727982 0.2819721 -0.11397846
0.016573403 -0.19284111 -0.1692913 0.1391002 -0.3860516 -0.2386595 0.24205819 0.25889868
-0.012040402 0.15594375 0.06446237 0.31431785 -0.48128495 -0.017807294 -0.023869129 0.45413437
0.036671985 0.37469596 -0.5008029 0.6116207 0.16104908 0.38312697 0.31950855 0.09197359
0.5086351 0.017916976 -0.08268415 -0.1251668 0.30403107 -0.010830499 -0.080118656 0.10359995
-0.10080208 0.23201789 0.058864746 -0.14350499 -0.17471826 -0.009622046 0.3381673 -0.073377505
-0.47238 0.01979198 -0.31167725 0.03356261 0.049468406 -0.07403816 0.15127768 -0.5995591
-0.05359471 -0.67429876 0.40014753 0.33892804 0.51887226 0.18914364 0.024358833 0.1827147
0.0059419353 0.040277183 -0.4866587 -0.35151613 -0.19418755 -0.006901221 -0.09830981 0.3304019
-0.24632184 0.19647591 -0.18313566 0.2808585 0.21082436 0.6589564 0.05292727 0.3120943
-0.346389 -0.17460267 0.61630094 0.2027907 0.29104105 -0.065331385 -0.035117704 -0.20610045
0.7945045 0.10939044 -0.086681314 -0.13481759 0.012289389 -0.09112694 0.050639067 0.3213908
0.10469613 1.0989879 -0.49099892 -0.15111242 -0.5986103 -0.097457856 -0.13523531 -0.21060058
-0.074100025 0.29964843 -0.06982579 0.5087445 0.12142394 0.09771964 -0.14085247 0.02879355
-0.12728928 0.05709732 0.09191977 0.034896094 0.13685893 -0.050362885 0.38521144 -0.22339517
0.09344589 -0.25849238 0.46483272 -0.0760038 0.12736216 -0.11568622 0.14113647 0.46188182
0.47239193 -0.3840023 0.42754832 0.33126608 0.11727961 -0.17921352 -0.20886332 -0.08027659
-0.10788798 0.32319388 0.04455493 -0.18944857 0.047470625 0.08431828 -0.20492557 0.31309435
00000000: e256 913f 8250 8bbe c64d 18bf 0332 30bf
00000010: 1d3c 15bf fb58 12bd 7202 d9bd 423e fe3e
00000020: c7d0 0ebd 6a19 1e40 13af 7b3d 4920 48bf
00000030: fbbe cbbe 66ea 8e3c 8cd8 a93b 0351 8fbe
00000040: 7043 453e 5a87 483e 1412 fb3b 41c6 5bbe
00000050: 100b 3dbf af5b fa3d 0f2b 1abe f76f 803d
00000060: c2fa 0e3e f5df a3be 3089 a03e cb26 26be
00000070: 090a f53d 548a a2be 719d 8f3e 9d68 8e3c
00000080: 180e 993e 0af0 46be 155b 20be 41f8 b7bd
00000090: 4ada e8be 8c74 5bbe 75af 123f fd65 a73e
000000a0: bccc 84be 1d87 2bbe 65c0 873e bf21 903e
000000b0: 46e0 9bbe d76b 973d e20c 3f3e f6e2 fa3c
000000c0: 218d f33e 6f2b 9d3e 34f3 73be 1cd7 a73d
000000d0: b3af a4be 800b 30bc 1a58 2abd 0e3b 3bbe
000000e0: d0db 0f3f 9dd5 943e b782 053f c5a7 b7be
000000f0: 9930 c8be dd60 29be b071 d8be 9977 a1be
00000100: c371 f33d 525d 9fbe a02f 2cbd 899c d6be
00000110: b3dd 113e d140 f23c c02e 0dbe 2877 483e
00000120: cd0b 753e ef7d a23e 59a5 b03d f519 8bbd
00000130: d4dc 2abe 7c32 79be 3daf 103f aa0f 593e
00000140: 567b 203d b948 833e cd78 883e 3dde e83d
00000150: ba34 933d 98c9 ba3e 78b9 9a3e 0270 67be
00000160: 2f7a 573d 3068 16bd addb 0c3d f873 283d
00000170: 1924 aa3e bbd0 21be 93b0 2abf e86e d13e
00000180: 8d12 293c e032 61be ac92 46be cbdc d6bb
00000190: cd46 843e 492e 13bf c30d d83d 6d97 0e3e
000001a0: 8073 b5be 6cd7 a03e 5059 87bd 9a0f 9ebe
000001b0: 9304 0c3d 20a5 d63d 4a5b 283e f053 ec3d
000001c0: 2fb1 e33e 66af d4bd b494 7e3e 18f9 063e
000001d0: a34b 04bf 1593 0cbe a65e 903e 8a6d e9bd
000001e0: f2c4 873c 2478 45be b35a 2dbe 4870 0e3e
000001f0: 8ea8 c5be 2863 74be 1ade 773e 5e8e 843e
00000200: 1b45 45bc b8af 1f3e d904 843d 45ee a03e
00000210: fb6a f6be 9ae0 91bc 3189 c3bc 4d84 e83e
00000220: 5d35 163d 26d8 bf3e 9e34 00bf 2d93 1c3f
00000230: 0dea 243e 3829 c43e a096 a33e a65c bc3d
00000240: e935 023f 9fc6 923c 4f56 a9bd ba2b 00be
00000250: f6a9 9b3e 6872 31bc 4015 a4bd 362c d43d
00000260: 5271 cebd 1996 6d3e 291c 713d f9f2 12be
00000270: 58e9 32be c9a5 1dbc 4424 ad3e f246 96bd
00000280: cbdb f1be ca22 a23c 2994 9fbe f378 093d
00000290: 629f 4a3d 52a1 97bd 89e8 1a3e b57c 19bf
000002a0: 2086 5bbd d89e 2cbf 23e0 cc3e fa87 ad3e
000002b0: d0d4 043f dfae 413e 2d8c c73c 9019 3b3e
000002c0: 91b4 c23b b0f9 243d 542b f9be ecf9 b3be
000002d0: 1ad9 46be a323 e2bb a756 c9bd 702a a93e
000002e0: cb3b 7cbe fb30 493e ea87 3bbe afcc 8f3e
000002f0: 57e2 573e 5eb1 283f 44ca 583d d3ca 9f3e
00000300: e659 b1be 0bcb 32be e6c5 1d3f 5ea8 4f3e
00000310: 5503 953e 76cc 85bd 95d7 0fbd ff0b 53be
00000320: a664 4b3f 1808 e03d f985 b1bd 9f0d 0abe
00000330: 6f59 493c c3a0 babd e96a 4f3d 568d a43e
00000340: ed6a d63d a3ab 8c3f 3664 fbbe 37bd 1abe
00000350: 863e 19bf fc97 c7bd 207b 0abe aea7 57be
00000360: c1c1 97bd 856b 993e d300 8fbd 143d 023f
00000370: 1dad f83d 3c21 c83d a13b 10be 73e0 eb3c
00000380: 1f58 02be e1de 693d 6f40 bc3d 35ef 0e3d
00000390: bf24 0c3e 5049 4ebd 6f3a c53e b4c1 64be
000003a0: 8f60 bf3d 1d59 84be 8efe ed3e e1a7 9bbd
000003b0: 3a6b 023e e6ec ecbd 1486 103e c67b ec3e
000003c0: 5bdd f13e f39b c4be 9de7 da3e b59b a93e
000003d0: 4b30 f03d c083 37be 44e0 55be 0e68 a4bd
000003e0: 60f4 dcbd ab79 a53e 3b7f 363d cefe 41be
000003f0: 8f70 423d 10af ac3d 02d8 51be e74d a03e

bias f4 [20]
0.09000592 -0.0024888974 -0.017745128 0.019791871 -0.04537428 -0.017273748 -0.06748803 0.0036065695
0.053859927 0.050813656 0.0033767691 0.021941703 -0.038356252 0.035903443 0.02389956 0.024545146
0.09904866 0.037558362 0.07308852 -0.05043546
00000000: 0655 b83d c51c 23bb 3b5e 91bc 9022 a23c
00000010: 62da 39bd ad81 8dbc 2a37 8abd 325c 6c3b
00000020: 3a9c 5c3d fb21 503d c94c 5d3b 16bf b33c
00000030: 721b 1dbd 7d0f 133d 03c9 c33c e712 c93c
00000040: 06da ca3d ccd6 193d 6faf 953d 6a95 4ebd

weight f4 [20, 20]
0.13494165 0.25528654 0.24078332 0.06659484 0.403414 0.15167175 0.34041065 -0.37640563
0.0028712957 -0.012697557 -0.17239596 0.15980841 0.45642364 0.20141155 0.31723392 -0.024479913
-0.0058259214 -0.38661504 -0.117908396 -0.17861903 -0.2216902 0.12902513 -0.089255504 0.13720217
0.10945454 -0.036065277 0.0368036 0.3609153 0.2645432 -0.3991112 0.034803566 0.36217576
-0.2718658 0.016794406 -0.06152754 0.253914 0.05670365 -0.09255438 0.08959046 0.26505214
-0.7019039 0.08949837 -0.2920088 0.40333673 0.027022425 -0.11448732 -0.067690976 -0.41243675
0.43442672 -0.24150914 -0.6014825 0.04130095 -0.31154293 -0.6223078 0.005912821 -0.094025046
0.020978231 -0.076677084 -0.004084505 -0.20374894 0.29708955 -0.136775 0.16543327 -0.10114169
-0.18119033 -0.14465585 0.12550701 -0.14377837 -0.15542461 0.2389585 0.008145518 -0.43546146
0.027568659 0.35353568 0.28015748 0.07596083 0.186822 -0.32642215 0.5623502 -0.1519273
-0.19580533 0.18733904 0.10804534 0.14724742 -0.46782956 0.09495763 -0.014141527 0.062744915
0.09846632 -0.5313412 -0.18799761 -0.09644361 0.011112566 -0.31546548 0.12951449 -0.09459205
-0.26230976 0.1324849 -0.13330846 -0.1169929 -0.5589666 0.17648223 0.05021645 -0.16542676
0.39090255 0.32579434 0.06739014 0.14256434 0.3393312 -0.48642462 -0.22749129 -0.058856383
0.0012145885 0.14454047 0.1455943 -0.1585492 -0.09463625 -0.27608284 -0.18878195 -0.040675603
0.11643057 0.111497566 0.1812943 0.15076083 -0.1396074 -0.07038766 -0.109018065 -0.18125123
-0.08511272 0.21055743 -0.20319161 -0.13559014 -0.07890049 0.07046684 0.32419056 -0.080100924
0.040607154 -0.13247302 -0.081946835 0.03623176 0.6421234 -0.10854668 0.1294495 0.0661383
0.29751423 0.2626919 -0.27763745 -0.22687873 0.4043393 0.0027946362 -0.089553475 -0.30007583
0.17663483 -0.41969022 0.24253255 -0.16581178 -0.013457039 0.35746807 0.33586535 -0.070964165
-0.2384324 0.058731724 0.099706374 -0.021767309 0.37448582 0.030864434 -0.113919675 0.16367264
0.2831832 -0.03216441 -0.28659493 0.09224878 0.29287732 -0.41249976 -0.31531927 0.044158004
0.3390512 0.27944994 -0.20305729 -0.0532745 0.43450427 -0.19800268 0.14079742 0.25127685
-0.38543874 -0.0703985 0.58338124 -0.30721167 -0.7023366 -0.0029853075 0.37981015 -0.12323532
0.4334299 0.21306515 0.02494336 -0.101789795 0.06319022 -0.33322814 0.51250917 0.06931722
0.47246975 -0.47967348 0.41467974 -0.13473216 0.009195146 0.025008738 0.05145041 -0.15938412
-0.01514363 0.08949831 0.03143842 0.23691143 0.14303726 0.39632204 0.3150595 -0.12679519
0.30043823 0.22858824 0.4243908 0.21104085 0.1002985 0.8707967 0.04037731 0.19697271
-0.10013542 0.48442695 0.36065722 -0.030071152 -0.20230368 0.097343236 0.29100958 0.3744428
-0.077121295 -0.20319103 -0.122428104 0.08057883 -0.33491093 0.1915292 -0.19822271 0.028639454
-0.04431835 -0.10840246 -0.4884762 -0.103814125 0.42104778 -0.16609599 0.3578626 0.061563715
0.026787907 -0.31628186 -0.06349559 -0.09189668 0.20333256 -0.19543518 0.0606843 -0.22229806
00000000: 252e 0a3e ebb4 823e e78f 763e e062 883d
00000010: 488c ce3e d74f 1b3e 4e4a ae3e 3db8 c0be
00000020: 592c 3c3b 6a09 50bc 9188 30be d1a4 233e
00000030: 5cb0 e93e d43e 4e3e 7c6c a23e 198a c8bc
00000040: 5fe7 bebb 68f2 c5be f579 f1bd e8e7 36be
00000050: c102 63be 2a1f 043e 97cb b6bd ba7e 0c3e
00000060: b429 e03d 2fb9 13bd 5fbf 163d e4c9 b83e
00000070: 3572 873e 4e58 ccbe 2f8e 0e3d 1a6f b93e
00000080: fe31 8bbe 6c94 893c 4d04 7cbd 0401 823e
00000090: 1642 683d 278d bdbd 347b b73d eab4 873e
000000a0: f9af 33bf ec4a b73d 2d82 95be 2782 ce3e
000000b0: 225e dd3c 5478 eabd 91a1 8abd e92a d3be
000000c0: 2e6d de3e 2c4e 77be c2fa 19bf 2f2b 293d
000000d0: 8e82 9fbe 904f 1fbf 56c0 c13b 3490 c0bd
000000e0: 8ada ab3c e008 9dbd 50d7 85bb 90a3 50be
000000f0: 1f1c 983e bf0e 0cbe 5767 293e 6023 cfbd
00000100: f589 39be aa20 14be e984 003e a33a 13be
00000110: a127 1fbe 89b1 743e c774 053c cef4 debe
00000120: abd7 e13c a102 b53e cd70 8f3e 5a91 9b3d
00000130: 444e 3f3e ce20 a7be 2ff6 0f3f d592 1bbe
00000140: 3181 48be ced5 3f3e e046 dd3d 07c8 163e
00000150: 5b87 efbe 2579 c23d ddb1 67bc 6880 803d
00000160: b6a8 c93d fa05 08bf 7282 40be 3a84 c5bd
00000170: 7b11 363c b184 a1be 729f 043e 7ab9 c1bd
00000180: 774d 86be 1faa 073e 0382 08be f999 efbd
00000190: 6f18 0fbf c2b7 343e c4af 4d3d a265 29be
000001a0: 6124 c83e 84ce a63e d703 8a3d 63fc 113e
000001b0: d2bc ad3e a60c f9be 7af3 68be 6413 71bd
000001c0: d432 9f3a 6b02 143e ac16 153e b95a 22be
000001d0: a6d0 c1bd bb5a 8dbe 0e50 41be 769b 26bd
000001e0: 2773 ee3d d658 e43d 37a5 393e 0c61 1a3e
000001f0: 3ef5 0ebe 6827 90bd dd44 dfbd ec99 39be
00000200: 944f aebd 5e9c 573e 7611 50be 24d8 0abe
00000210: 9596 a1bd eb50 903d 4efc a53e f40b a4bd
00000220: b053 263d 02a7 07be bed3 a7bd c167 143d
00000230: 3362 243f b94d debd 698e 043e 8473 873d
00000240: c953 983e 8d7f 863e 7f26 8ebe e652 68be
00000250: 9005 cf3e 3726 373b d067 b7bd 8aa3 99be
00000260: c3df 343e a3e1 d6be 745a 783e 90ca 29be
00000270: ea7a 5cbc 0e06 b73e 8bf6 ab3e a955 91bd
00000280: a027 74be ad90 703d db32 cc3d 5b51 b2bc
00000290: 9bbc bf3e 69d7 fc3c b84e e9bd cd99 273e
000002a0: 63fd 903e d4be 03bd 92bc 92be eeec bc3d
000002b0: 04f4 953e 2b33 d3be 8771 a1be 06df 343d
000002c0: 1e98 ad3e 1014 8f3e 40ee 4fbe 5d36 5abd
000002d0: 5877 de3e 37c1 4abe 332d 103e 5ca7 803e
000002e0: 3a58 c5be 172d 90bd 7958 153f d94a 9dbe
000002f0: 55cc 33bf 26a5 43bb 7a76 c23e cd62 fcbd
00000300: 86ea dd3e c02d 5a3e 0456 cc3c 2b77 d0bd
00000310: e069 813d e19c aabe cd33 033f 30f6 8d3d
00000320: 8ee7 f13e c397 f5be e750 d43e 3af7 09be
00000330: 3da7 163c 20df cc3c aabd 523d 9735 23be
00000340: fd1c 78bc e44a b73d 93c5 003d e998 723e
00000350: 5c78 123e b9ea ca3e 7b4f a13e 99d6 01be
00000360: 0ad3 993e 0913 6a3e c049 d93e 181b 583e
00000370: 4d69 cd3d 88ec 5e3f ae62 253d 37b3 493e
00000380: cd13 cdbd cf06 f83e 10a8 b83e c757 f6bc
00000390: b228 4fbe e45b c73d 35ff 943e f7b6 bf3e
000003a0: c5f1 9dbd 4f11 50be 96bb fabd 8306 a53d
000003b0: 7279 abbe 3b20 443e e5fa 4abe 4a9d ea3c
000003c0: 2887 35bd 1c02 debd 8d19 fabe 809c d4bd
000003d0: 9393 d73e 1115 2abe c439 b73e 3c2a 7c3d
000003e0: 5072 db3c b2ef a1be fa09 82bd 5434 bcbd
000003f0: 6936 503e 2920 48be 1a90 783d 1aa2 63be

bias f4 [20]
-0.0054907966 -0.007200223 0.06653925 -0.023156896 -0.07416107 0.000554749 0.022909228 -0.017885547
0.048123837 -0.06451361 0.06307643 -0.025119321 -0.08459781 0.009339128 0.014082855 -0.028609643
-0.17957842 0.11222533 0.011963162 -0.0019124707
00000000: 24ec b3bb d9ef ebbb bb45 883d 88b3 bdbc
00000010: c2e1 97bd 936c 113a 22ac bb3c b684 92bc
00000020: 801d 453d b61f 84bd 372e 813d 09c7 cdbc
00000030: 9e41 adbd 2403 193c c6bb 663c c55e eabc
00000040: 68e3 37be 65d6 e53d 2301 443c deab faba

weight f4 [20, 20]
0.2667847 0.27981952 0.11382667 0.33724254 0.100034386 0.27769414 0.12514211 -0.42983407
0.1120181 -0.10910404 0.1708345 -0.041032854 -0.277467 0.041368663 -0.12007122 -0.1524266
0.45134833 0.12869523 -0.025785733 -0.06062509 -0.078696534 0.28585222 -0.18961494 0.124229416
0.031477064 0.3431184 0.13438562 -0.07913903 -0.112241 -0.08715909 0.049673848 -0.15414473
-0.30094796 0.15456037 -0.16037951 0.22684988 -0.082127705 -0.05798806 0.23784603 -0.18265854
0.4034653 0.15083306 0.051798735 -0.09525828 -0.1770648 0.010664081 0.24438925 0.21592256
-0.17742294 0.028417392 0.020112485 0.05748323 0.45528948 0.08194661 -0.026235886 0.12364354
0.025683092 -0.10987089 -0.09369733 -0.12246109 -0.16486411 -0.49105263 0.14785956 0.19772586
-0.45987546 0.26324448 0.23701648 0.6310779 -0.06490381 0.86257184 0.4169527 0.1459942
0.12992272 -0.027672641 0.3435867 -0.12512729 -0.025815202 0.19317073 0.0924487 -0.39890134
-0.075357676 -0.34109315 0.048457492 0.6833883 -0.4080423 0.33402213 0.21582344 0.24913155
-0.28269953 0.46127176 0.35713124 0.06757524 -0.20517156 -0.35283566 -0.25650525 -0.113501586
0.06734467 0.14999363 -0.22733305 -0.22897626 -0.26358894 0.16664279 -0.21878503 -0.09414164
-0.33307678 -0.17923157 0.09187948 -0.050084423 0.04318972 -0.18717605 -0.1408121 0.07992843
0.027461572 0.3357055 0.51800925 0.27384102 0.4230165 -0.32999986 0.28814718 0.2521791
-0.37998503 -0.30323386 -0.278638 -0.13107957 0.10549418 -0.041530453 0.26763323 7.1312345e-05
-0.13356313 0.22938995 -0.08887075 0.103705406 -0.40141544 -0.0664895 -0.2853308 -0.08263213
-0.258599 0.18310682 -0.06611889 -0.08123491 0.188035 -0.25817674 -0.36360148 -0.37958527
-0.0858422 0.17099413 0.24069494 -0.17129257 -0.42829105 0.7304664 0.3935551 0.11473744
0.58672327 -0.044515572 -0.26349506 0.041606717 0.3853826 0.026981264 -0.13059177 -0.7509125
0.4029846 -0.29146126 0.37957615 -0.42768353 0.029051056 0.08572392 -0.028940435 0.0060951402
-0.044193935 -0.19063039 0.0093724895 0.0022828472 -0.32573405 0.027981546 -0.09788872 0.38075927
-0.16174822 0.2611043 -0.42398262 -0.36579907 0.22601579 -0.35006404 -0.23050854 0.28843707
-0.24502847 -0.041011743 0.0041365167 0.20995486 0.11637197 -0.14344497 0.2565435 -0.6364988
0.10688588 0.2347464 0.43091825 0.20338257 -0.26408112 -0.038688768 -0.25081772 -0.23346744
0.27137187 -0.38935083 0.13453346 0.41791272 -0.06621989 -0.050662056 0.21193297 -0.14681943
-0.08911907 0.19360751 -0.15852544 -0.34487036 -0.02597585 -0.5307534 0.14308129 -0.24449976
-0.02282918 -0.21886028 0.4160377 -0.0901956 -0.06803429 0.12841715 -0.26112628 -0.43075162
-0.31095386 0.09965386 0.3965913 -0.44836542 0.35785937 0.0983207 0.47363737 -0.12018384
0.037119366 -0.028151477 0.0522945 -0.054005418 0.3178926 -0.12198686 0.38064 -0.05972615
-0.26494455 0.3357695 -0.25648728 -0.43056762 -0.06648667 -0.009227064 -0.04605805 -0.09809971
0.17118084 -0.15848953 -0.20408387 -0.12065516 0.12844133 0.3011314 -0.116738416 0.67074704
00000000: 0198 883e 8144 8f3e f51d e93d 0eab ac3e
00000010: d4de cc3d ed2d 8e3e 4125 003e 3613 dcbe
00000020: bf69 e53d f071 dfbd 3def 2e3e 1112 28bd
00000030: 2810 8ebe 3072 293d e6e7 f5bd b815 1cbe
00000040: 2117 e73e afc8 033e 9a3c d3bc 0452 78bd
00000050: a62b a1bd 395b 923e 6b2a 42be fe6b fe3d
00000060: 18ee 003d 37ad af3e 629c 093e a513 a2bd
00000070: 9cde e5bd 7780 b2bd ce76 4b3d 1ed8 1dbe
00000080: da15 9abe 1345 1e3e 873a 24be 564b 683e
00000090: 9232 a8bd e384 6dbd e98d 733e d70a 3bbe
000000a0: 0193 ce3e fb73 1a3e e92a 543d c616 c3bd
000000b0: 7a50 35be 66b8 2e3c 2d41 7a3e ce1a 5d3e
000000c0: 5cae 35be 97cb e83c f0c2 a43c 8973 6b3d
000000d0: b41b e93e a0d3 a73d a4ec d6bc d338 fd3d
000000e0: 5965 d23c fd03 e1bd 63e4 bfbd e1cc fabd
000000f0: 23d2 28be 406b fbbe 7f68 173e a678 4a3e
00000100: cc74 ebbe fbc7 863e 73b4 723e 528e 213f
00000110: 4aec 84bd 82d1 5c3f d37a d53e 817f 153e
00000120: 760a 053e bcb1 e2bc 99ea af3e 5e21 00be
00000130: 677a d3bc 8cce 453e be55 bd3d cc3c ccbe
00000140: 2055 9abd c3a3 aebe 5d7b 463d 89f2 2e3f
00000150: ecea d0be f304 ab3e d200 5d3e 571c 7f3e
00000160: febd 90be d02b ec3e e8d9 b63e e364 8a3d
00000170: 7e18 52be e0a6 b4be a854 83be 8573 e8bd
00000180: 01ec 893d ee97 193e ffc9 68be c178 6abe
00000190: 21f5 86be 68a4 2a3e 2f09 60be 55cd c0bd
000001a0: 0a89 aabe 7b88 37be 4f2b bc3d 5325 4dbd
000001b0: b4e7 303d 14ab 3fbe 0c31 10be 84b1 a33d
000001c0: 17f7 e03c 97e1 ab3e 419c 043f e434 8c3e
000001d0: 9e95 d83e bef5 a8be 0788 933e 9e1d 813e
000001e0: 668d c2be 7841 9bbe a4a9 8ebe b939 06be
000001f0: 550d d83d d61b 2abd 3907 893e 868d 9538
00000200: c6c4 08be 33e5 6a3e de01 b6bd 8063 d43d
00000210: 5386 cdbe a62b 88bd e116 92be 093b a9bd
00000220: 1767 84be 5b80 3b3e 5769 87bd 7d5e a6bd
00000230: 3f8c 403e be2f 84be f929 babe 0059 c2be
00000240: 09ce afbd 1619 2f3e bc78 763e 5267 2fbe
00000250: f748 dbbe d9ff 3a3f 0e80 c93e 77fb ea3d
00000260: 7f33 163f f655 36bd d3e8 86be ce6b 2a3d
00000270: de50 c53e d007 dd3c d9b9 05be cd3b 40bf
00000280: ff53 ce3e 693a 95be ce57 c23e 56f9 dabe
00000290: 7bfc ed3c 0690 af3d 7e14 edbc beb9 c73b
000002a0: b304 35bd 9d34 43be 128f 193c d29b 153b
000002b0: 9dc6 a6be 8e39 e53c e279 c8bd e1f2 c23e
000002c0: 53a1 25be 76af 853e 4014 d9be 044a bbbe
000002d0: af70 673e 983b b3be 6e0a 6cbe 06ae 933e
000002e0: bee8 7abe eefb 27bd 9e8b 873b 68fe 563e
000002f0: 6d54 ee3d 3de3 12be ab59 833e 96f1 22bf
00000300: fce6 da3d 5c61 703e 51a1 dc3e 8543 503e
00000310: a435 87be 1d78 1ebd 2e6b 80be 1712 6fbe
00000320: 41f1 8a3e fe58 c7be 24c3 093e a8f8 d53e
00000330: 4b9e 87bd 0483 4fbd f504 593e d557 16be
00000340: 0f84 b6bd 0c41 463e 7e54 22be d992 b0be
00000350: 4ecb d4bc 74df 07bf e783 123e 255e 7abe
00000360: 4304 bbbc e91c 60be e502 d53e 79b8 b8bd
00000370: 9055 8bbd c97f 033e 58b2 85be 7a8b dcbe
00000380: 5835 9fbe 5317 cc3d 040e cb3e 2790 e5be
00000390: 5839 b73e 5d5c c93d 9980 f23e f222 f6bd
000003a0: 7a0a 183d ed9d e6bc c232 563d c934 5dbd
000003b0: d2c2 a23e 3fd4 f9bd 3fe3 c23e 68a3 74bd
000003c0: d0a6 87be fbe9 ab3e 4d52 83be 5c73 dcbe
000003d0: 2a2a 88bd 1d2d 17bc 5ea7 3cbd 80e8 c8bd
000003e0: 084a 2f3e 144b 22be 5dfb 50be 0d1a f7bd
000003f0: 2086 033e e52d 9a3e 8d14 efbd 14b6 2b3f

bias f4 [20]
-0.016891938 0.020971354 -0.098014906 0.053759597 -0.053695478 -0.023976648 0.09551578 -0.043026175
0.005267928 0.028451126 0.0063552293 0.03853667 -0.0014400043 -0.09685464 0.051500868 -0.022754136
0.016268186 -0.046522953 -0.049976587 -0.032751083
00000000: f660 8abc 1ecc ab3c 0abc c8bd 0633 5c3d
00000010: caef 5bbd ad6a c4bc c79d c33d 373c 30bd
00000020: 959e ac3b 5612 e93c 873f d03b a1d8 1d3d
00000030: 87be bcba ba5b c6bd 93f2 523d e266 babc
00000040: dc44 853c da8e 3ebd 40b4 4cbd 0026 06bd

weight f4 [20, 20]
0.41448817 -0.23500355 -0.22633149 -0.3460441 -0.075433075 0.011962254 -0.12544075 -0.13913286
-0.024460075 -0.4865423 0.14168333 -0.24802549 0.2280087 -0.27623743 0.030437741 0.013853714
0.118752345 0.034769144 -0.07816197 -0.087852165 -0.16151817 0.09474742 -0.027178194 -0.27937418
-0.39279535 0.118710496 0.069534115 -0.11203627 -0.07563993 0.070406 0.09039475 0.015560963
-0.054471176 0.33551672 0.38585636 0.029798964 0.12778187 -0.51698464 0.20991665 -0.2878118
-0.12043447 -0.07720105 0.047295243 -0.045141954 0.15279528 -0.04616647 -0.06953137 -0.09739954
-0.37632647 0.19431129 0.37407357 -0.04280529 0.0019257959 0.04333956 0.41411874 0.23184244
0.38581795 0.35808054 -0.1759898 0.14185098 0.01585583 0.14542222 -0.03593362 0.25970626
0.09740682 -0.023164172 -0.07035682 -0.46989635 0.07661109 0.022278773 -0.046082586 0.08381308
0.36104694 0.039068352 -0.095917046 -0.44026524 -0.26820302 0.2997799 0.23091157 -0.12989832
0.058411133 0.33290944 -0.10231603 -0.095429346 -0.38319126 0.26702255 -0.34125274 -0.18764001
-0.23002169 0.26148042 0.30231202 0.39567453 -0.12703851 -0.23736759 0.13584128 0.431578
0.07094993 0.21615125 0.29878113 0.2309978 0.19926615 -0.05433832 0.3418838 0.22802897
-0.284352 -0.028739894 -0.063820906 0.23690554 -0.43147278 -0.13445882 -0.18000318 -0.004752125
-0.35091966 0.0053678565 0.055596665 -0.008188859 -0.021789756 0.557871 0.01916974 0.25072876
-0.1480859 0.35712677 0.19984007 -0.24175699 0.20036674 -0.38426578 0.12490597 0.10124027
-0.10382622 0.11363082 0.06725634 -0.1023961 0.18494196 -0.0984316 0.1990587 -0.2848676
0.08258344 0.06534695 -0.038720116 -0.099752106 -0.13810277 -0.1960947 0.16033377 -0.24042037
-0.4936701 0.13809961 0.3912116 0.21778168 -0.037608884 -0.13391834 -0.46330455 0.18053526
0.12851655 0.20267817 -0.27304912 -0.64062 -0.23823726 0.34355995 0.109715976 -0.29460898
0.104099095 0.23394458 0.046844665 0.24127327 -0.5171537 0.12631693 0.07171583 0.046392705
0.08493486 0.124599315 0.028378231 -0.3803682 -0.032850146 0.41588593 -0.07266534 -0.08797599
-0.009789543 0.18493973 0.009276095 0.050193742 -0.040578954 0.115583934 0.26319042 0.119546086
-0.11439821 -0.02801092 0.35675555 -0.07532227 0.2218161 -0.0904184 -0.12065847 -0.0769419
-0.17455344 0.15082495 0.09694458 0.47637057 0.039837286 0.19109592 -0.011393945 -0.15426274
-0.23139313 -0.06120831 0.07393081 -0.1006935 0.1961656 0.13814817 -0.10101794 -0.07832617
-0.12812546 0.0926409 -0.16502757 0.19314727 0.32335135 -0.06854869 -0.17746042 -0.15295132
-0.08190049 -0.4980503 -0.22300544 0.34369618 -0.19238323 0.19085605 0.17421429 -0.37320203
0.034681622 0.16852103 -0.09056449 0.119782135 0.31776562 -0.5808173 0.1393575 0.3668275
-0.17041047 -0.3343207 -0.18193538 0.17630954 0.22943193 0.02304059 -0.053451758 -0.049791496
0.3927069 0.05008699 -0.09185898 -0.10659774 0.13539933 -0.16579404 -0.039650854 -0.20339401
0.0009220479 -0.01791605 -0.1000547 -0.18187562 0.02265766 0.34485215 -0.07186174 -0.21474758
00000000: cb37 d43e c5a4 70be 71c3 67be b12c b1be
00000010: a87c 9abd 54fd 433c 8a73 00be d878 0ebe
00000020: 7f60 c8bc 131c f9be 6f15 113e 65fa 7dbe
00000030: 1d7b 693e fe6e 8dbe 9258 f93c b0fa 623c
00000040: 6e34 f33d 176a 0e3d 6213 a0bd d6eb b3bd
00000050: 0565 25be ef0a c23d cea4 debc 220a 8fbe
00000060: 791c c9be 7d1e f33d e767 8e3d 4673 e5bd
00000070: 1ce9 9abd 0531 903d e220 b93d 69f3 7e3c
00000080: 2b1d 5fbd d9c8 ab3e f78e c53e f51c f43c
00000090: 40d9 023e 1b59 04bf 64f4 563e 115c 93be
000000a0: 59a6 f6bd 961b 9ebd a8b8 413d c5e6 38bd
000000b0: 5e76 1c3e 0d19 3dbd 7766 8ebd 6979 c7bd
000000c0: ddad c0be 8af9 463e 9286 bf3e 9a54 2fbd
000000d0: fd6a fc3a d384 313d 5f07 d43e 1b68 6d3e
000000e0: ee89 c53e 5556 b73e ac36 34be 6241 113e
000000f0: 16e4 813c 90e9 143e 222f 13bd 38f8 843e
00000100: 3a7d c73d cac2 bdbc 3d17 90bd 4196 f0be
00000110: 46e6 9c3d f981 b63c 18c1 3cbd 31a6 ab3d
00000120: 25db b83e 2306 203d 2870 c4bd 726a e1be
00000130: e851 89be c07c 993e 1574 6c3e 1104 05be
00000140: 8340 6f3d 1b73 aa3e 118b d1bd 7670 c3bd
00000150: a531 c4be 2eb7 883e aeb8 aebe b424 40be
00000160: ce8a 6bbe c3e0 853e a4c8 9a3e da95 ca3e
00000170: 6216 02be 7d10 73be fa19 0b3e cbf7 dc3e
00000180: 324e 913d c156 5d3e d7f9 983e b08a 6c3e
00000190: 6d0c 4c3e dc91 5ebd 650b af3e 6d80 693e
000001a0: 9696 91be ed6f ebbc 89b4 82bd 5e97 723e
000001b0: 00ea dcbe 93af 09be c152 38be b7b7 9bbb
000001c0: beab b3be d8e4 af3b 54b9 633d 902a 06bc
000001d0: 6e80 b2bc a2d0 0e3f dc09 9d3c 855f 803e
000001e0: d5a3 17be 52d9 b63e e0a2 4c3e 258f 77be
000001f0: f02c 4d3e 7cbe c4be b4ce ff3d 0f57 cf3d
00000200: d7a2 d4bd 46b7 e83d b1bd 893d 0cb5 d1bd
00000210: 6d61 3d3e 8296 c9bd 0bd6 4b3e 2bda 91be
00000220: 8221 a93d 9fd4 853d fc98 1ebd d54a ccbd
00000230: d06a 0dbe 0dcd 48be 892e 243e c230 76be
00000240: 54c2 fcbe fc69 0d3e e34c c83e 2902 5f3e
00000250: c60b 1abd e421 09be 4136 edbe 3cde 383e
00000260: d899 033e de8a 4f3e 18cd 8bbe acff 23bf
00000270: 78f4 73be 17e7 af3e c5b2 e03d fdd6 96be
00000280: e831 d53d 2b8f 6f3e 31e0 3f3d 5710 773e
00000290: 2f64 04bf 3a59 013e c0df 923d 4706 3e3d
000002a0: 54f2 ad3d ed2d ff3d 7779 e83c 9fbf c2be
000002b0: e08d 06bd 00ef d43e 91d1 94bd c12c b4bd
000002c0: 5264 20bc d760 3d3e c3fa 173c f497 4d3d
000002d0: 1e36 26bd 45b7 ec3d e5c0 863e 94d4 f43d
000002e0: 9c49 eabd 2877 e5bc aaa8 b63e 9042 9abd
000002f0: c223 633e 482d b9bd ca1b f7bd b793 9dbd
00000300: 23be 32be db71 1a3e e18a c63d d8e6 f33e
00000310: 6c2c 233d a6ae 433e abad 3abc 0df7 1dbe
00000320: 52f2 6cbe 91b5 7abd 0969 973d 6538 cebd
00000330: a3df 483e b776 0d3e 7ee2 cebd 7969 a0bd
00000340: 5233 03be 83ba bd3d fdfc 28be 66c8 453e
00000350: 4f8e a53e 4163 8cbd 2fb8 35be 459f 1cbe
00000360: 72bb a7bd 7300 ffbe 8a5b 64be f2f8 af3e
00000370: 1c00 45be c56f 433e 3b65 323e 5614 bfbe
00000380: 510e 0e3d c790 2c3e e079 b9bd 5650 f53d
00000390: 2db2 a23e 71b0 14bf bcb3 0e3e d0d0 bb3e
000003a0: 1580 2ebe 152c abbe 454d 3abe 7d8a 343e
000003b0: 34f0 6a3e 9fbf bc3c 3bf0 5abd 2bf2 4bbd
000003c0: e110 c93e 0428 4d3d 9020 bcbd ea4f dabd
000003d0: 1fa6 0a3e eac5 29be ef68 22bd 8546 50be
000003e0: 96b5 713a aec4 92bc 7be9 ccbd 9a3d 3abe
000003f0: 8f9c b93c 7690 b03e 3f2c 93bd cae6 5bbe

bias f4 [20]
0.0034067607 -0.025876421 -0.0012716115 0.008932363 0.02187942 -0.091068916 0.020207448 0.00729496
0.0012718635 -0.0036389108 -0.034842916 -0.029857418 0.019341575 -0.020575754 0.012516744 0.0024152426
-0.042875987 0.07457305 0.021821314 0.031023605
00000000: f643 5f3b cafa d3bc 34ac a6ba 0c59 123c
00000010: 783c b33c 5782 babd 178a a53c 8f0a ef3b
00000020: a8b4 a63a cb7a 6ebb 72b7 0ebd 8b97 f4bc
00000030: 3972 9e3c 7c8e a8bc 0813 4d3c 0c49 1e3b
00000040: bb9e 2fbd c1b9 983d 9dc2 b23c 3725 fe3c

weight f4 [1, 20]
0.04149838 -0.01758498 0.4225012 0.28299913 0.2698103 -0.47264388 0.0023478884 0.45766404
-0.1934473 0.008761081 -0.0023336436 0.0048048175 0.17560352 -0.0061723166 0.10600996 -0.16192387
-0.12761126 0.00017505133 -0.3958707 0.0060214144
00000000: 35fa 293d 600e 90bc 1452 d83e 43e5 903e
00000010: 9324 8a3e 61fe f1be 08df 193b f152 ea3e
00000020: 0d17 46be a38a 0f3c 0bf0 18bb bb71 9d3b
00000030: 69d1 333e 2541 cabb c01b d93d 5fcf 25be
00000040: 87ac 02be fc8d 3739 90af cabe 494f c53b
