pendulum/models/pendulum_pinn_hidden_6_20_t_0_10_n_80_lr_0.005_epochs_10000.pt (torch, 17300 bytes, 13 tensors)

weight f4 [20, 1]
000000 91 56 79 be 1e 0b 6b 3e a0 cc ca 3d b8 11 0d be
       -0.24349429 0.2295346 0.0990231 -0.1377629
000010 de f0 d2 3d 10 a2 2b 3f db fd 3f be a2 97 7e bf
       0.10299848 0.6704416 -0.18749182 -0.99450123
000020 be 2c b0 bf 67 d7 6b bf 11 c4 56 bd 99 ed c5 3e
       -1.3763654 -0.9212555 -0.052433077 0.38657835
000030 8f 70 26 be 4d d5 cb be 85 a7 43 3f b2 82 61 bf
       -0.16253875 -0.39811173 0.7642749 -0.8809005
000040 01 89 98 be e9 a5 bb 3d 2a 47 55 3e be 7e fd 3d
       -0.29792026 0.09162504 0.20827928 0.1237769

bias f4 [20]
000000 3a e5 a0 3e 08 c4 a8 bf 9b 2e 24 bd 57 05 d9 3d
       0.31424886 -1.3184824 -0.04008351 0.105967216
000010 ab 05 4e 3d c7 03 4e bd fa 58 19 be 36 52 09 3e
       0.050298374 -0.05029657 -0.14975348 0.13410267
000020 31 9b ef bd bb af c4 bd f5 32 d3 39 54 53 7a 3d
       -0.11699522 -0.096038304 0.00040283022 0.061114624
000030 38 d5 68 3d 1f bf 88 3d d5 43 50 be 49 e7 04 be
       0.056843966 0.066770785 -0.20338376 -0.12978853
000040 95 4a 23 be d5 2b 13 3d 32 c8 2a 3e a9 1e 97 bd
       -0.1594642 0.035930473 0.16677931 -0.07378895

weight f4 [20, 20]
000000 9d e0 fb 3e 24 05 43 bf c4 88 a0 be 57 61 77 3e
       0.49194804 -0.7617972 -0.31354344 0.24158226
000010 c9 22 bf bd e3 04 42 3d b5 d6 be bd 3a d4 13 be
       -0.093328066 0.04736794 -0.09318296 -0.14436427
000020 4e b2 0b be 65 da 49 bb 51 3c e8 bd 9d 2f d0 bd
       -0.13642237 -0.003080034 -0.113396294 -0.101653315
000030 30 a2 04 3e 33 12 05 3f 21 38 c5 bd d9 20 d3 bc
       0.12952495 0.51980895 -0.09629846 -0.025772499
000040 14 3c a3 bd 52 0d 20 bd 44 7e cd 3e a9 3f b6 be
       -0.07970443 -0.039075203 0.40135396 -0.35595444
000050 47 23 69 3e 67 b2 04 bf 67 b2 b2 be 53 c4 a8 3e
       0.22767363 -0.5183472 -0.34901735 0.32962283
000060 d3 08 5b be 86 d4 40 bf ae 04 5b be f7 96 85 3f
       -0.21390085 -0.75324285 -0.21388504 1.0436696
000070 ad 2a a1 3e 8f 8f 3f 3f 73 a1 e8 bd 70 56 d3 be
       0.31477872 0.7482843 -0.11358919 -0.41276884
000080 ef 39 aa bb 2f f4 82 3f 82 70 4b bf 7b dc 26 3f
       -0.0051948945 1.0230769 -0.7946855 0.65180176
000090 d9 4e ce 3e 18 8f b1 be 92 27 61 be 45 eb 80 be
       0.4029453 -0.34679484 -0.21987751 -0.25179496
0000a0 62 a3 51 be cd ca 43 be 41 c9 0d be f1 1e 05 3e
       -0.20472482 -0.19120331 -0.13846304 0.13000084
0000b0 da bf 85 be 10 46 f1 bd 22 37 91 3e e7 2d 81 be
       -0.26122934 -0.117809415 0.28362375 -0.25230333
0000c0 ba 09 eb 3e 50 d1 18 3e 24 1e 2d bd 2c 6a 2a bd
       0.45905858 0.14923596 -0.042265072 -0.04160516
0000d0 b1 e1 09 3e 83 8d fc 3e 17 09 c2 bd aa b5 92 3e
       0.13465 0.49326715 -0.0947439 0.28654224
0000e0 11 4f 6c 3e 0c bf e1 be 45 37 fb be 49 b2 a0 be
       0.23077036 -0.4409107 -0.49065605 -0.3138602
0000f0 28 01 5c 3e af 93 e5 3e 64 c1 20 be 46 db c3 3d
       0.21484816 0.44839236 -0.15698773 0.095633075
000100 8e 5c cf be 13 8d 0e be a4 48 e0 3d 59 c9 6a bc
       -0.405003 -0.13921003 0.10951355 -0.014330232
000110 83 ef e9 bd cd 57 c5 3e 29 a5 05 3f 56 48 39 3e
       -0.11422636 0.3854355 0.5220514 0.18094
000120 30 26 4e 3c 30 b9 fd 3c f7 ae 5f 3e 3b bb 53 bd
       0.012582347 0.030972093 0.21844088 -0.05169223
000130 b8 38 87 3c de 88 ba be 86 72 73 3e 66 97 07 3e
       0.016506538 -0.36432546 0.23774156 0.13241348
000140 40 38 ac be 09 9c e8 3d a9 27 5d 3d 18 5e 02 bf
       -0.33636665 0.11357886 0.0539929 -0.50924826
000150 f0 a3 46 3e 8e bc a3 be 7d a9 fe bd de f8 14 3e
       0.19398475 -0.31979793 -0.12434671 0.1454806
000160 e2 0b 8a 3e 2e 1c 6b be c7 49 84 3e 8a 82 5f 3e
       0.2696219 -0.22959968 0.25837538 0.2182714
000170 08 d5 c7 be 8d cc 8e 3d 79 2c 0a bd fc 4d 0f 3e
       -0.39029717 0.06972609 -0.03373382 0.13994592
000180 7f 0a cc bd 3a 1e 49 be 18 0f b3 3d ee c7 34 3e
       -0.099629395 -0.19640437 0.08743113 0.17654392
000190 0d 40 c5 bd 5b 49 32 be 92 6b bb 3e ba f3 26 be
       -0.09631357 -0.17410795 0.36605507 -0.16303912
0001a0 03 94 0b 3d b0 cc ba be 63 86 17 3d ea 45 62 3e
       0.0340767 -0.3648429 0.036993396 0.22096983
0001b0 95 fe e7 bd 34 16 22 3d eb 06 89 bd 24 52 d1 bd
       -0.113278545 0.039571956 -0.066907726 -0.10220745
0001c0 d6 c5 b0 3e 10 f7 c9 bd e0 32 22 3e d8 0d 5c 3e
       0.34525937 -0.098615766 0.1583972 0.21489656
0001d0 79 0d d9 bd a2 55 1b 3e 0f 57 a5 3d 56 0e 24 3e
       -0.10598273 0.15169385 0.08073246 0.16021094
0001e0 90 e2 1e be 85 99 6b 3e 1e 26 fe bc 85 b7 d5 bd
       -0.15516114 0.23007782 -0.031024035 -0.10435394
0001f0 c0 db 60 3d 48 15 19 3f 96 be c8 3d 61 d4 43 3e
       0.05489707 0.597981 0.098019764 0.19123985
000200 5b 42 f7 3c 33 6d cd bc ef a0 35 be 91 68 01 3e
       0.030183008 -0.025076484 -0.17737173 0.12637545
000210 dc e5 c0 bd 2d 61 6b 3d 51 63 07 3f 5f 36 d8 3c
       -0.09418842 0.05746572 0.5288592 0.026393114
000220 5d 6f 60 3e 63 0d 86 3e c4 9f 2d 3e c0 c9 86 be
       0.21917482 0.26182088 0.16955477 -0.26325798
000230 d7 36 e4 3e cd fb 42 be 88 04 70 bd 62 e5 39 3f
       0.4457309 -0.19041367 -0.05859807 0.72615635
000240 60 16 66 be b6 e6 07 3e 94 e0 f2 3e 8e 36 bd be
       -0.22469473 0.13271603 0.47436965 -0.36955684
000250 8e 97 2f bd af 30 17 3d 80 18 76 3d 09 70 9e be
       -0.042869143 0.036911663 0.06008196 -0.3094485
000260 7d 27 09 3e 85 31 11 3e d0 52 00 3e 1d ef 34 3b
       0.1339397 0.14179046 0.1253159 0.0027608343
000270 c5 55 26 be 39 6a dc be 19 2c 61 3e 54 d4 6e bd
       -0.16243656 -0.4304979 0.21989478 -0.05830796
000280 c8 05 b3 bd 7a 28 3f 3d f6 06 3c be 69 ed 00 3e
       -0.08741337 0.04666946 -0.1836203 0.12590565
000290 fc 2c 2d 3e 62 c1 67 bd 6d 75 fe be 4b 5e af be
       0.16911691 -0.05658091 -0.49698964 -0.34251627
0002a0 50 12 be 3d 1b b2 29 3d 0c 98 cb 3d f2 d8 ab 3d
       0.092808366 0.04142962 0.0994111 0.083909884
0002b0 81 3e 95 3e 93 c8 9f be 7f 89 75 3e c3 9c d7 be
       0.2914925 -0.31207713 0.23978232 -0.42111787
0002c0 1b 1d 06 3e 6c ce 0f be 02 4c a8 3e 0c 93 e9 3d
       0.1309704 -0.14043587 0.3287049 0.11405
0002d0 7b 4c 5d 3e 53 14 85 bf a7 41 2a bf 0c 00 12 3f
       0.21611206 -1.0396827 -0.6650643 0.5703132
0002e0 c0 79 23 bf 1b 09 36 be e9 e6 a9 bd 81 25 c8 be
       -0.6385765 -0.17776911 -0.08295996 -0.39091113
0002f0 f9 01 9a be 7c 62 a4 bc b5 77 6c 3e ab 6f 0d 3e
       -0.3007963 -0.020066492 0.2309254 0.13812129
000300 a7 8b 24 3e c0 71 0e bd ce 60 81 3e f9 04 01 bf
       0.16068898 -0.03477645 0.2526917 -0.5039821
000310 e4 8c 53 be 72 02 94 be 3d 7e f0 3d 83 7f 72 be
       -0.20659214 -0.28908116 0.11742828 -0.23681454
000320 8b f1 74 3e fc fd b0 3e d7 36 12 bc 5d 16 c3 be
       0.23920266 0.34568775 -0.008924208 -0.38103
000330 69 4a a7 3e 1f 93 f6 3e f1 d6 2b 3e d2 32 0d bd
       0.32673958 0.4815912 0.16781212 -0.034472294
000340 32 5f 88 3d ba 57 10 3e f9 d6 00 bf e2 98 85 be
       0.06658782 0.14095965 -0.5032802 -0.26093203
000350 85 8f c0 bd 2d f6 5d 3e c5 41 b4 bd c9 a1 1b 3e
       -0.09402374 0.2167594 -0.08801607 0.15198435
000360 ad c5 1d 3d e0 a1 0b 3f 03 b1 4b be 19 db 43 3e
       0.038518596 0.54543877 -0.19891743 0.19126548
000370 23 cb bb 3d a9 35 c8 bc 60 48 ae 3e f7 e9 f3 bd
       0.09169605 -0.02443965 0.34039593 -0.1190986
000380 b4 77 4c be 65 71 23 3e 97 55 2c 3e ff 9e 21 3d
       -0.19967538 0.15961225 0.16829525 0.03945827
000390 c0 a9 20 be b1 0e 1c bd 4e b8 9c bc a5 18 a2 bc
       -0.15689754 -0.03809995 -0.019130852 -0.019787142
0003a0 69 7d c1 be f3 4c c2 be f7 e0 e4 3d 75 1e bc 3e
       -0.37790993 -0.37949333 0.11175721 0.36741987
0003b0 da 9d 23 be 90 4d 36 be 4e 90 8e be 87 5e be 3e
       -0.15978184 -0.17803025 -0.2784447 0.37181494
0003c0 49 fd 8d be e0 8c 08 3e ca 01 de 3e 1f ad 86 bd
       -0.27732304 0.1333499 0.4336074 -0.06575989
0003d0 ce 8f c3 bd f5 c5 b2 be ee 2d 1e be bd f5 1e be
       -0.09548913 -0.34916654 -0.15447208 -0.15523429
0003e0 db ef ca 3c 93 4e cb 3e ba e8 61 be 3b 9c 27 3e
       0.024772575 0.39708385 -0.22061434 0.16368191
0003f0 1c ec bc be 24 f3 af 3b 57 a5 79 bc ba ca cc 3e
       -0.36898887 0.005369561 -0.015237174 0.39998418

bias f4 [20]
000000 00 b3 34 3e d8 d8 7e 3d ec da 19 be 8f 38 4f be
       0.17646408 0.062218517 -0.15024918 -0.20236419
000010 e4 d4 2f 3d 77 b9 19 bd bf 20 c6 bd 23 00 08 3e
       0.042927638 -0.03753039 -0.096742146 0.13281302
000020 ea de c0 3c 5e 97 32 3e 68 23 64 3e e6 df 47 bd
       0.023543794 0.17440554 0.22279131 -0.04879751
000030 d6 22 28 bd 9c 39 c8 bc 28 31 e6 3d 36 4e d0 bd
       -0.041048847 -0.024441533 0.112398446 -0.101711676
000040 45 59 82 3d 7a 08 c2 bb 16 e0 26 3c f9 67 fe bd
       0.06364683 -0.0059214206 0.010185262 -0.12422175

weight f4 [20, 20]
000000 78 2e 7f 3f bb 14 8f be 12 f1 19 bf 83 71 2e bf
       0.9968028 -0.27945504 -0.6013347 -0.68141955
000010 7f 4d 10 bf a8 cb 0d bd 9f e8 c3 bd 2e a3 f7 3e
       -0.5636825 -0.03461805 -0.09565853 0.48366684
000020 f4 d9 dd bc 90 eb 22 40 fc b6 8f 3d 49 72 46 bf
       -0.027081467 2.5456276 0.070173234 -0.77518135
000030 40 22 9e be 44 76 9b 3c d6 c0 3e 3c 0a c7 93 be
       -0.30885506 0.018977292 0.011642655 -0.28862792
000040 9d dd 36 3e 10 b9 3d 3e 95 52 cb 3c c7 fb 38 be
       0.17857976 0.18527627 0.024819652 -0.18064795
000050 f8 e9 42 bf d9 fd da 3d 35 72 1d be c1 56 ab 3d
       -0.7613826 0.10692949 -0.15375598 0.08366156
000060 1c a8 e6 3d 27 a3 c2 be 1b 14 99 3e 31 fc 35 be
       0.11262533 -0.380151 0.29898152 -0.17771985
000070 20 a4 fb 3d 7d c3 86 be 3c 7d 7f 3e d1 3e a1 3c
       0.12287164 -0.2632102 0.24950117 0.019683274
000080 b0 be b5 3e 88 30 3f be 00 2c 1a be 52 cc be bd
       0.35497046 -0.18670857 -0.15055847 -0.09316315
000090 1d f5 e6 be 2a 1f 48 be 6f 06 14 3f eb cd 9d 3e
       -0.45108882 -0.19543138 0.57822317 0.30821165
0000a0 68 00 93 be 8a ed 87 be df 56 78 3e ec e3 86 3e
       -0.28711247 -0.26548415 0.24251889 0.26345766
0000b0 da 06 70 be a8 33 a2 3d 3d cb 55 3e 81 16 77 3b
       -0.23440114 0.07920009 0.2087831 0.0037702622
0000c0 b8 a5 00 3f 2c ab 90 3e 3d 4b 83 be ee c9 83 3d
       0.50252867 0.28255594 -0.2564334 0.064349994
0000d0 a4 26 98 be da f8 14 39 c1 88 c3 bc f3 f5 59 be
       -0.2971698 0.00014207084 -0.02386892 -0.21285228
0000e0 64 52 06 3f d4 7e 75 3e 4c b6 10 3f 80 75 ae be
       0.5246947 0.23974162 0.5652816 -0.3407402
0000f0 9a 6c cb be ab ce 71 be 5e c5 d7 be c7 b2 a1 be
       -0.39731294 -0.23613994 -0.42142767 -0.3158171
000100 06 e7 05 3e 65 d8 b3 be e8 f9 ef bc 4d 09 d9 be
       0.1307641 -0.35126033 -0.02929397 -0.42389908
000110 5f 59 12 3e 19 47 d3 3c 59 a6 05 be 74 b5 52 3e
       0.14291905 0.025790738 -0.13051738 0.20577031
000120 48 e8 77 3e f9 88 a2 3e 8c 16 a4 3d 97 17 87 bd
       0.24209702 0.31745127 0.08012113 -0.06596296
000130 47 22 51 be bf 13 89 be 6e 9c 1d 3f 74 05 6b 3e
       -0.20423232 -0.26772878 0.6156682 0.22951299
000140 20 be 27 3d 62 c8 90 3e 96 0a ae 3e e7 54 ee 3d
       0.0409528 0.2827788 0.3399245 0.116372876
000150 4b 9b 87 3d 69 b5 c7 3e 34 0e 95 3e 56 e9 5c be
       0.06621417 0.39005592 0.291124 -0.21573386
000160 11 86 ef bd 02 e8 06 bd af 61 e0 3c 60 3a 12 3d
       -0.11695493 -0.032936104 0.02739033 0.035700202
000170 d7 5b a4 3e e9 17 7e be ab 97 3e bf 32 92 f3 3e
       0.32101318 -0.24813809 -0.74450177 0.47572476
000180 fb 8f 0d 3d b0 9b 2f be f8 49 83 be 7b d3 02 bc
       0.03456114 -0.17149234 -0.2564237 -0.007984991
000190 7b 7e 82 3e 7a 99 0e bf 3c af d5 3d 61 af 11 3e
       0.25487122 -0.55702937 0.10433814 0.14227058
0001a0 7c 3d b9 be 48 fe 98 3e dd 27 9d bd b8 be 9c be
       -0.3617972 0.298815 -0.07673619 -0.30614257
0001b0 2b ce 0a 3d 56 48 d5 3d d0 9f 28 3e dd 45 ea 3d
       0.033888023 0.104141876 0.16467214 0.114391066
0001c0 03 39 e3 3e e1 59 dc bd 86 f5 7b 3e c2 5b 06 3e
       0.44379434 -0.107593305 0.24605379 0.1312094
0001d0 6f 02 08 bf 65 0f 0d be 6c 82 8f 3e 4e cd b8 bd
       -0.53128713 -0.13775404 0.28029191 -0.09023534
0001e0 4b 58 26 3c 3e 5e 4b be 71 4b 32 be b9 7e 12 3e
       0.010152887 -0.1986017 -0.17411591 0.14306153
0001f0 38 5b cc be 13 16 7c be 37 e7 84 3e 67 db 85 3e
       -0.39913344 -0.24617796 0.25957653 0.26143953
000200 0e d0 30 bc 2d 35 14 3e 79 25 84 3d b1 86 9d 3e
       -0.010791792 0.1447341 0.0645246 0.30766824
000210 6d 19 01 bf 34 73 9d bc a1 4c a3 bc 52 87 e7 3e
       -0.5042942 -0.019219972 -0.019934 0.4522043
000220 ed f7 07 3d 37 6c bf 3e c6 d7 fe be 13 b4 22 3f
       0.033195425 0.3738725 -0.49773997 0.6355602
000230 e2 74 0d 3e cc 3c c3 3e 52 10 a7 3e 98 72 b9 3d
       0.13814119 0.38132322 0.3262964 0.0905506
000240 04 53 0a 3f 79 41 df 3b c1 88 b0 bd 00 6a 0c be
       0.5403292 0.006813225 -0.08619834 -0.13712311
000250 94 a3 9b 3e d3 e3 97 bd 6e a0 b6 bd 9e fa e9 3d
       0.30398238 -0.07416501 -0.08917318 0.114247546
000260 2a 7c 55 bd ee 8d 6e 3e 06 3f 50 3d 5b 36 10 be
       -0.052120365 0.2329633 0.050841354 -0.14083235
000270 50 98 35 be 25 c1 2d bc c5 cf aa 3e 92 f0 a6 bd
       -0.17733884 -0.010605131 0.3336164 -0.08151354
000280 13 91 01 bf 1f 44 1c 3c fd 2f 9c be 15 59 40 3d
       -0.5061199 0.009537726 -0.30505362 0.046959955
000290 1e 8e 0b 3e 77 89 a2 bd c6 a6 50 3e 29 7e 20 bf
       0.13628432 -0.079363756 0.20376119 -0.62692505
0002a0 b0 70 48 bd 7f 63 3d bf f4 d4 f0 3e 9e ee bc 3e
       -0.048935592 -0.73979944 0.4703747 0.369008
0002b0 6f c9 18 3f 95 36 46 3e 67 cb 4c 3c 8a 71 3b 3e
       0.59682363 0.19356759 0.012499667 0.1830503
0002c0 fd 48 b2 bc 88 87 8d 3a c1 11 f8 be 95 8e 9f be
       -0.02176332 0.0010797838 -0.48451045 -0.3116347
0002d0 1c f3 3b be 13 17 ee 3c e7 36 85 bd 17 46 b4 3e
       -0.18354458 0.029063737 -0.065046124 0.35209724
0002e0 b0 8b 92 be 1b 59 5e 3e 51 23 81 be ea 3c 9f 3e
       -0.28622198 0.21713679 -0.25222257 0.3110116
0002f0 86 aa 2e 3e b2 f3 25 3f 50 92 13 3c 4d 84 89 3e
       0.17057237 0.64824975 0.009007052 0.2685875
000300 55 82 c9 be 82 f9 61 be 42 d5 15 3f 55 2e 72 3e
       -0.39357248 -0.22067836 0.5852853 0.23650487
000310 67 ed b0 3e cd 56 76 bb f9 d8 a4 bd bd ea 7c be
       0.34556124 -0.0037588358 -0.08049197 -0.2469892
000320 d3 84 52 3f 55 80 d5 3d 7f 2f d5 bd a9 9c 19 be
       0.82233924 0.10424868 -0.1040945 -0.15001167
000330 38 6f 24 be 91 a7 c5 bd 3d 44 15 3c 6c cd b4 3e
       -0.16058052 -0.096511014 0.009110508 0.35312974
000340 9e 7c da 3d b4 e5 b0 3f c9 4a 14 bf 84 b2 23 be
       0.106683 1.38201 -0.57926613 -0.15986067
000350 c5 e1 20 bf 94 06 c1 bd 91 e9 df bd 46 c4 65 be
       -0.62844497 -0.09425083 -0.10933221 -0.22438154
000360 42 d3 62 bd 3f ed ab 3e 42 06 7e bd d8 83 ed 3e
       -0.055377252 0.33579442 -0.062017687 0.4638965
000370 c2 ca 02 3e 00 4b bf 3d 7c 78 18 be b9 ae 0d 3d
       0.12772658 0.09340477 -0.14889711 0.034590457
000380 d4 d9 15 be 91 00 6b 3d 87 6c a6 3d fc 8c 2b 3d
       -0.14633876 0.057373587 0.08126169 0.0418825
000390 55 cb 0d 3e f4 5e 73 bd 2f 01 d0 3e 69 98 5d be
       0.13847096 -0.059416726 0.40625903 -0.21640171
0003a0 27 b4 8d 3d 54 74 80 be d1 35 f8 3e f9 97 a1 bd
       0.06919127 -0.2508875 0.4847856 -0.078903146
0003b0 62 7e 0b 3e d0 98 eb bd 0e e7 10 3e c2 e3 e3 3e
       0.1362243 -0.11503756 0.1415064 0.44509703
0003c0 af 7b f9 3e 20 ab c2 be c3 44 d1 3e 29 7c 9c 3e
       0.48727176 -0.38021183 0.40872774 0.30563477
0003d0 81 fa cd 3d 49 6a 29 be 74 7d 5d be 83 44 96 bd
       0.100575455 -0.16544451 -0.21629888 -0.07337286
0003e0 94 53 c9 bd 1e 4c b6 3e 16 c6 7a 3d 04 7e 48 be
       -0.098303944 0.35604948 0.061224066 -0.19579321
0003f0 f7 f6 28 3d 9c 6d b7 3d 6a 0b 40 be 4a e9 97 3e
       0.04125115 0.08956453 -0.18754354 0.29670173

bias f4 [20]
000000 88 6e c1 3d 0f 40 1a bb 66 bd 8d ba 44 74 70 3c
       0.0944491 -0.0023536717 -0.0010813891 0.014676157
000010 de 96 61 bd 68 64 94 bc 9e 53 8c bd 4c 3a 93 3b
       -0.05507552 -0.018114284 -0.06851886 0.0044930335
000020 28 96 43 3d f8 3a ed 3c d7 f2 b4 3c 1f e2 c2 3c
       0.047750622 0.028958783 0.022088451 0.023789464
000030 a7 9a 43 bc 1c 60 16 3d 31 be e4 3c 2a 00 9c 3c
       -0.011938727 0.03671275 0.027922722 0.019043047
000040 0b 8e be 3d 87 4a 0d 3d 7c db 9c 3d e1 1b d2 bd
       0.09304436 0.034494903 0.07659051 -0.10259224

weight f4 [20, 20]
000000 8f a5 0a 3e 55 34 86 3e dd ed 89 3e 62 f7 9e 3d
       0.13539718 0.262118 0.26939288 0.07762028
000010 c3 ef d1 3e 0c cc 11 3e bc 5f aa 3e 0d 04 a9 be
       0.41003236 0.14237994 0.33276165 -0.33010903
000020 16 6f 18 3b 5c 26 51 bc 35 42 28 be f2 a2 e9 3d
       0.0023259572 -0.012765493 -0.16431506 0.114080325
000030 0a 66 d6 3e 14 03 38 3e ca ee 98 3e 8c 79 c1 bc
       0.41874725 0.17969924 0.29869682 -0.023617528
000040 90 b4 75 bc 91 f5 c4 be c8 32 f8 bd 64 e9 55 be
       -0.014996663 -0.38468602 -0.12119061 -0.20889813
000050 f1 b9 7e be e2 e2 fb 3d 79 69 c8 bd 49 5f f3 3d
       -0.24875619 0.12299134 -0.09785742 0.118834086
000060 7e ce f1 3d 46 8f 6d bd 2d b6 99 3d 64 7d 98 3e
       0.118069634 -0.057997964 0.075054504 0.29783165
000070 89 58 88 3e 35 b3 cb be 6e b2 c2 3c 03 4f af 3e
       0.26630047 -0.39785162 0.023766723 0.3423997
000080 d5 4b 5d be 48 83 15 3d ac 65 13 bd cf ec 69 3e
       -0.21610959 0.036502153 -0.035985634 0.22844242
000090 32 f5 7f 3d 27 0d 05 be e1 8f dc 3d bc 56 8c 3e
       0.062489696 -0.12993298 0.1076963 0.27409923
0000a0 59 d6 31 bf c1 dc ea 3c a9 65 75 be 8d 30 c3 3e
       -0.69467694 0.028669717 -0.23964562 0.3812298
0000b0 38 75 24 3d e8 67 11 be 7e ae 24 bd 11 7f da be
       0.04015085 -0.14199793 -0.04020547 -0.4267507
0000c0 af 0d c8 3e a8 14 56 be e3 3b 1b bf 6c c3 eb 3a
       0.3907294 -0.20906317 -0.60638255 0.0017987317
0000d0 62 f2 8b be e0 a2 13 bf 63 71 bf 3c 2b 5f f1 bd
       -0.2733336 -0.576704 0.023369497 -0.1178573
0000e0 3c 0d 1c 3d 93 5c c2 bd 63 2d 1d 3d ff cf 66 be
       0.03809856 -0.094903134 0.038373362 -0.22540282
0000f0 c4 e2 98 3e ef 35 05 be f3 0d 35 3e ac 36 af bd
       0.29860508 -0.13008855 0.17681102 -0.0855535
000100 9d ae 40 be 47 46 0f be bf 7a 05 3e 44 f7 05 be
       -0.1881661 -0.13991652 0.13035105 -0.13082606
000110 1b 8f 29 be ca 99 70 3e f0 01 a3 3b 10 2a cd be
       -0.16558497 0.23496166 0.004974596 -0.40071154
000120 98 98 5d 3c 1a 8f ab 3e e8 b2 87 3e c7 8b b0 3d
       0.013525151 0.33507615 0.26503682 0.086204104
000130 9a 47 32 3e 83 8f 9a be 9f 4f 0f 3f 18 0a 07 be
       0.17410126 -0.30187616 0.5598087 -0.13187444
000140 eb 09 23 be 6c 3e 3c 3e d6 97 e7 3d 7b 1a 8d 3e
       -0.15921752 0.18383187 0.11308257 0.27559265
000150 30 83 fe be cc 8f 1b 3e c2 b6 de bb 73 0a 94 3d
       -0.49709463 0.15191573 -0.006796689 0.072285555
000160 5b 49 56 3d 4d a2 03 bf f4 34 2a be 2d 01 13 bc
       0.05231605 -0.51419526 -0.16621763 -0.008972448
000170 8e 71 d6 bd 00 f7 c6 be 98 39 4b 3d 03 94 e2 bc
       -0.104708776 -0.3886032 0.049615473 -0.027658468
000180 04 bd d5 be 87 3c 42 3e b5 cb 00 be bc c4 b7 bd
       -0.4174577 0.18968402 -0.12577708 -0.08973071
000190 6a d5 2e bf 44 f8 50 3e 06 91 00 3d 69 80 17 be
       -0.68294394 0.20407206 0.031388305 -0.14795078
0001a0 f8 be c0 3e 50 5d af 3e 94 cc 41 3d 2c 8b 39 3e
       0.37645698 0.3425088 0.04731424 0.18119496
0001b0 83 7d d1 3e c0 b2 07 bf 39 8b 9a be 1e a6 18 bd
       0.4091607 -0.53007126 -0.30184343 -0.037267797
0001c0 44 2e fa bc 59 88 e9 3d 18 d7 f0 3d 3f a5 11 be
       -0.03053964 0.114029594 0.11759776 -0.14223193
0001d0 87 e7 dd bd d8 94 8b be 20 87 68 be 2a 8f 88 bd
       -0.10835176 -0.27261996 -0.22707796 -0.066679314
0001e0 6c 88 b1 3d 5c 4d 1a 3e 91 5c 49 3e bb 60 2d 3e
       0.086685985 0.15068573 0.19664218 0.16931431
0001f0 0a 34 15 be 0a bd 76 bd 77 ec d9 bd c4 b8 4e be
       -0.14570633 -0.060238875 -0.10640805 -0.2018767
000200 3e 23 74 bd fa 28 53 3e 9f 41 57 be b9 31 05 be
       -0.059603922 0.206211 -0.21021126 -0.13007249
000210 f1 f0 a4 bd e3 a5 ca 3c 63 58 a4 3e 40 e8 9e bd
       -0.080537684 0.024737304 0.32098684 -0.07759142
000220 f3 d3 b5 3c 45 46 09 be db e0 00 be fa 04 0f 3d
       0.022195792 -0.13405712 -0.12585776 0.034916855
000230 07 fc 1e 3f 0e 51 09 be fc a5 37 3e 05 be 7d 3d
       0.62103313 -0.13409826 0.17934412 0.061948795
000240 74 e8 a1 3e bb fc 84 3e 2c 10 6b be 4a d5 83 be
       0.3162266 0.25974068 -0.22955388 -0.25748664
000250 10 0f af 3e b5 72 81 3d 1e f9 36 bd 91 10 a2 be
       0.3419118 0.06320707 -0.04467117 -0.31653264
000260 a8 1f 52 3e 7a e5 cb be 43 03 8b 3e e3 f8 3a be
       0.20519888 -0.39823514 0.27150926 -0.18259005
000270 91 61 d6 bb 04 3f bf 3e 13 91 b7 3e 19 42 7a bd
       -0.0065423925 0.37352765 0.3585287 -0.061098192
000280 e8 19 45 be 5a 39 6b 3d 54 f1 13 3e 00 a4 80 bc
       -0.19248164 0.05742774 0.14447528 -0.015703201
000290 04 00 c2 3e 4b 02 16 3d 08 d6 a6 bd be 28 28 3e
       0.37890637 0.03662328 -0.08146292 0.16421792
0002a0 e8 55 87 3e 61 cf 41 bd 82 3b 90 be 2b 60 a6 3d
       0.2643273 -0.047316913 -0.281704 0.08123811
0002b0 f9 bd a2 3e 61 24 d8 be 4c be 9a be 03 c0 db 3c
       0.31785563 -0.42215255 -0.3022331 0.026824957
0002c0 6e 12 a8 3e a6 67 86 3e b9 76 63 be f2 fd 55 bd
       0.3282656 0.26250952 -0.22213258 -0.052244134
0002d0 32 75 d4 3e 95 a8 57 be 89 c2 c3 3d 4a 2b 74 3e
       0.41495663 -0.21060403 0.09558589 0.23844638
0002e0 0b 0d bf be fd 2d b5 bd 36 a4 16 3f ab c1 ad be
       -0.37314638 -0.08846662 0.58844316 -0.3393682
0002f0 24 a2 40 bf 83 e9 f6 b9 3c 82 bb 3e 4e b7 fb bd
       -0.75247407 -0.00047094756 0.36622798 -0.12290822
000300 c7 fc e1 3e a8 48 67 3e cd bf ed 3c 72 26 c2 bd
       0.44138166 0.2258631 0.029022122 -0.09479989
000310 49 88 9e 3d 2c f0 b1 be c3 5e 16 3f 48 5f cd 3d
       0.07740838 -0.3475355 0.58738345 0.10027939
000320 b0 ad 05 3f a0 78 8f be 50 92 c9 3e e6 91 c1 bd
       0.5221815 -0.28021717 0.3936944 -0.09451656
000330 9f 68 e0 bc 1b 19 84 3d b8 52 c7 bd ef 5c 9b 3d
       -0.027393637 0.06450101 -0.09732574 0.07586085
000340 a3 dc 01 3e 2c f4 14 bd ec b6 15 bd 5b 65 90 3e
       0.12681822 -0.036365673 -0.0365514 0.28202328
000350 07 9a 49 3d 5e 61 a6 3e 50 ee 6f 3e 0f 50 a1 bd
       0.049219158 0.3249616 0.23430753 -0.07876598
000360 a9 47 87 3e 85 4e 8f 3e 43 6e 1f 3e cf 0e 0f 3e
       0.2642186 0.27989593 0.15569405 0.13970493
000370 97 62 b5 3d 2f d5 63 3f 44 dd be 3d 61 c6 6a 3e
       0.08856695 0.8899717 0.09319547 0.22927238
000380 33 99 b8 bd db 70 f9 3e 64 23 c6 3e f4 1f d1 bd
       -0.090135954 0.48718914 0.38698876 -0.10211173
000390 90 75 51 be 2e 32 db 3d 99 cb 97 3e 30 04 a8 3e
       -0.20455003 0.107029304 0.2964752 0.32815695
0003a0 1f 0e ed bc 9f f9 63 be 76 7d bc bd 2e f9 26 3d
       -0.028937398 -0.22263192 -0.09203617 0.04076498
0003b0 1e ef a2 be 10 46 45 3e 0c fa 4e be bb 03 30 3c
       -0.31823057 0.19265008 -0.20212573 0.010743077
0003c0 0f f8 2b bd 42 d2 f0 bd 33 3c d6 be 8c 71 ea bd
       -0.041984614 -0.117588535 -0.41842803 -0.114474386
0003d0 78 66 fe 3e a6 a3 33 be 82 23 c7 3e 2e 76 88 3c
       0.49687552 -0.17542896 0.38894278 0.016657915
0003e0 4e af 29 3a c6 17 94 be ac a4 40 bd aa f7 0e be
       0.0006472961 -0.28924388 -0.047032043 -0.13961664
0003f0 f8 2f 60 3e 9e e7 3b be 74 2b 91 3d 78 b8 84 be
       0.21893299 -0.18350074 0.07088366 -0.25921988

bias f4 [20]
000000 c2 15 86 3b 85 91 08 bd 34 2a 77 3d 84 04 a3 bc
       0.004091949 -0.033341903 0.060342982 -0.019899614
000010 a3 fe 63 bd 5c 4b de 3b ac 48 90 3c f8 dd 76 bc
       -0.055662762 0.006783886 0.017612778 -0.01506757
000020 84 94 02 3d 4a ed 92 bd 64 5f 9b 3d 4e 79 f0 bc
       0.031879917 -0.071741655 0.07586554 -0.029354718
000030 a2 92 aa bd e6 f4 55 3b 1a a2 06 3d 40 ef 94 bc
       -0.08328749 0.0032647192 0.032869436 -0.01818049
000040 15 75 38 be 40 e7 f2 3d e6 31 90 3c 50 37 c0 3a
       -0.18013413 0.11860514 0.017601918 0.0014664922

weight f4 [20, 20]
000000 2a a6 84 3e 72 2b 9f 3e 11 5a 08 3e a8 5d ac 3e
       0.25908023 0.31087834 0.13315608 0.33665204
000010 f8 ea d4 3d 2e e5 a8 3e 33 13 bb 3d 46 7d b6 be
       0.10396379 0.3298735 0.09134521 -0.3564245
000020 cd 0b f9 3d a2 1a cf bd 02 65 24 3e 16 59 29 bd
       0.12160454 -0.10112502 0.16054156 -0.041344725
000030 1e 20 88 be a6 e7 24 3d 79 6a fe bd 03 36 39 be
       -0.26587003 0.04025998 -0.12422652 -0.1808701
000040 0b 4c fa 3e c3 4e 09 3e 27 82 03 bd 3a 79 d5 bd
       0.4888614 0.13408951 -0.032106545 -0.10423513
000050 a6 9e 93 bd ee ee 89 3e 99 0e 5b be 97 69 07 3e
       -0.07207994 0.269401 -0.21392287 0.13223873
000060 63 56 ba 3c e5 b0 ab 3e 20 9a ff 3d a7 b6 85 bd
       0.02274627 0.33533397 0.12480569 -0.06528979
000070 1b 79 0d be 95 dd 95 bd d4 9d 62 3d 9e a5 1b be
       -0.1381573 -0.07317654 0.055326298 -0.15199897
000080 00 b5 93 be ae 6a 0e 3e c6 85 25 be 1e d3 4d 3e
       -0.2884903 0.13907883 -0.16164312 0.20100066
000090 88 d2 21 bd 8e 79 4e bd cd 2a 77 3e d3 28 5e be
       -0.03950742 -0.050408892 0.24137421 -0.2169526
0000a0 03 5e d0 3e 7a 44 16 3e 7e 23 4b 3d 8a 0c d0 bd
       0.40696725 0.14674559 0.049594395 -0.10158642
0000b0 29 03 2c be 55 42 c9 b9 e9 c9 8c 3e c6 01 4f 3e
       -0.1679808 -0.0003838713 0.27497795 0.2021552
0000c0 a3 f0 35 be c4 d9 66 3b d8 8d 5e 3c 90 ef 89 3d
       -0.17767577 0.0035225013 0.013583623 0.06735146
0000d0 69 7c dd 3e fd bb b5 3d e6 b9 9e bc 22 91 0e 3e
       0.4325898 0.088737465 -0.019375753 0.13922551
0000e0 e0 bb ca 3c ee 90 53 be de 45 d0 bd 80 b9 f0 bd
       0.024747789 -0.20660755 -0.10169576 -0.11754131
0000f0 7d 16 14 be 82 7c 13 bf 7a 53 37 3e 61 d7 86 3e
       -0.14461704 -0.5761186 0.17902938 0.26336196
000100 e7 b1 f4 be fc 73 8f 3e 3e bc 8e 3e 41 89 2c 3f
       -0.4779198 0.28018177 0.27877992 0.6739693
000110 40 7e a8 bc d4 ef 4b 3f be 23 b5 3e e1 b0 f3 3d
       -0.020568013 0.79662824 0.35378832 0.11898971
000120 00 c7 1a 3e e9 46 1f be ab 33 92 3e a7 48 20 be
       0.15114975 -0.15554394 0.28555045 -0.15652715
000130 5d 5a 68 bc f4 84 66 3e c3 32 fc 3d d4 cc c0 be
       -0.014181701 0.22511655 0.123143695 -0.3765627
000140 1d 32 20 be 3e 91 20 be fb 6a e7 3d 8d 3c 10 3f
       -0.15644117 -0.15680405 0.11299702 0.56342393
000150 49 4d a4 be d2 0a d4 3e 07 59 05 3e 18 45 cd 3d
       -0.32090214 0.41414505 0.13022242 0.10022944
000160 79 3e 35 be e2 a7 1f 3e 97 ba 4f 3e 85 97 ef 3d
       -0.17699613 0.15591386 0.20286022 0.11698822
000170 cc 18 90 be e2 a7 3c be 66 7f 4d be 91 8a 15 3d
       -0.2814392 -0.18423417 -0.2006813 0.0365091
000180 8f 61 f6 bc 39 49 a1 3e 8a 66 8f be 6a 56 f6 bd
       -0.030075816 0.31501177 -0.2800792 -0.12028201
000190 c3 d2 8a be 8a 82 05 3e 0b 0e 6a be 2e 9d bc bd
       -0.27113923 0.13038078 -0.2285692 -0.09209667
0001a0 f2 a6 a5 be 8e 93 96 be df ca d6 3d 16 95 42 bd
       -0.32353932 -0.2940945 0.10487913 -0.04750546
0001b0 40 7a 68 3d f9 4c 35 be eb 3f e4 bd b6 60 d3 3d
       0.05675721 -0.17705144 -0.11145004 0.103211805
0001c0 f4 96 1e 3c 86 e7 a6 3e 02 00 00 3f e7 f4 93 3e
       0.009679545 0.32598513 0.5000001 0.28897783
0001d0 a7 a4 d3 3e 5a 8d a3 be dc 99 8a 3e 61 96 85 3e
       0.41336557 -0.3194378 0.2707051 0.26091293
0001e0 c2 c0 c9 be b3 74 8d be 3e 2a 85 be e7 70 15 be
       -0.39404875 -0.27628097 -0.2600879 -0.1459385
0001f0 b7 54 e2 3d 33 e8 b0 bd 79 65 6b 3e 60 f1 d2 3c
       0.11051314 -0.086380385 0.22987927 0.025749862
000200 06 77 0b be 94 1d 5b 3e ff fc d7 bd 3f 72 e5 3d
       -0.13619623 0.21398002 -0.10546302 0.11203431
000210 c8 24 cb be b9 56 49 bd c4 3f 86 be 7a 04 a9 bd
       -0.396765 -0.04915497 -0.26220524 -0.08252807
000220 e3 2b 69 be c0 7b a9 3e 10 b7 9b bd b9 3d 8d bd
       -0.22770648 0.33102226 -0.07603276 -0.06896538
000230 06 c1 3f 3e 4f 2c 9b be 0f f3 ad be 76 bd ab be
       0.18725976 -0.30307242 -0.33974501 -0.33542985
000240 25 33 c0 bd 21 49 26 3e 8b ca 70 3e 46 98 f7 bd
       -0.09384755 0.16238834 0.23514764 -0.12089591
000250 76 95 e1 be e8 54 3c 3f 8e f3 de 3e 14 d7 c9 3d
       -0.44059342 0.73567057 0.43545192 0.09855476
000260 c0 35 16 3f 21 47 85 bd ce 02 57 be 47 e2 dc 3c
       0.58675766 -0.065077074 -0.20997164 0.026963366
000270 56 35 bf 3e f0 38 1c 3c 26 d1 e2 bd 17 eb 42 bf
       0.3734538 0.009535059 -0.11075048 -0.7613997
000280 89 2a cb 3e 04 63 9c be d4 c1 b6 3e 12 21 d6 be
       0.3968089 -0.30544293 0.35694754 -0.41822106
000290 8a 8a c4 3c 89 3e 83 3d 57 37 36 bd 69 99 b1 3c
       0.023991842 0.06408412 -0.04448637 0.021679597
0002a0 a5 16 87 bd d0 31 1c be 68 7a 99 3c 15 91 b5 bb
       -0.06596116 -0.15253377 0.018735126 -0.0055409768
0002b0 bf d6 ad be 70 76 07 3d e1 55 a4 bd d1 34 bf 3e
       -0.339529 0.033071935 -0.080241926 0.37344983
0002c0 0f 47 25 be 92 ca 96 3e 18 0d d3 be 4c d4 c9 be
       -0.16140388 0.29451424 -0.41220927 -0.39419782
0002d0 d7 bb 4e 3e 0e fc b6 be 7a c4 80 be 4f 96 8a 3e
       0.20188843 -0.35739177 -0.251499 0.270678
0002e0 c3 3f 5f be 60 25 7b bd e9 17 0f bd 0e a8 7a 3e
       -0.21801667 -0.06131494 -0.034934912 0.2447817
0002f0 36 9b cc 3d 3d de 13 be 7f 0a 88 3e c9 73 1a bf
       0.09990542 -0.14440246 0.26570508 -0.60332924
000300 37 fb c1 3d e8 87 67 3e fb 18 f2 3e 42 c8 49 3e
       0.094717436 0.22610438 0.47284684 0.19705299
000310 57 c8 65 be d4 60 b6 bb ef 1d 91 be 3a 5d 83 be
       -0.22439705 -0.005565742 -0.2834315 -0.25657064
000320 87 05 8f 3e 08 3c c0 be 24 2f 12 3e d2 30 d1 3e
       0.27933905 -0.375458 0.14275795 0.4085756
000330 29 67 da bd 31 e1 29 bd c1 0c 73 3e e0 28 31 be
       -0.106642075 -0.041474525 0.23735334 -0.17300749
000340 83 86 b7 bd c6 9e 3f 3e ae dc 27 be 75 9d c1 be
       -0.08961203 0.18712911 -0.16392776 -0.37815443
000350 69 70 a6 bc fc 35 0a bf 91 c0 e6 3d 61 8b 80 be
       -0.020317273 -0.53988624 0.11267198 -0.25106338
000360 8d 19 96 bc c0 c2 40 be 98 66 dc 3e 6a c1 99 bd
       -0.01832273 -0.18824291 0.43047023 -0.07507594
000370 fd 67 95 bd 90 2f 1d 3e a9 0a 78 be ab ad e7 be
       -0.07295225 0.15350175 -0.24222817 -0.45249686
000380 3a b9 99 be 97 44 ea 3d b8 30 d7 3e aa 04 ed be
       -0.3002413 0.11438864 0.42029357 -0.4629262
000390 76 3b bb 3e d2 29 9b 3d 0c ae e7 3e f6 79 db bd
       0.36568803 0.07576336 0.45249975 -0.107166216
0003a0 1a 7d 18 3d 28 10 f0 bc fa 8c bf 3c 26 5f 01 bd
       0.03722868 -0.029304579 0.023382653 -0.03158488
0003b0 9a d3 a6 3e 34 85 c0 bd 7f e4 be 3e 39 3c 1e bd
       0.32583314 -0.094004065 0.37283704 -0.03863165
0003c0 88 2b 85 be 02 61 b6 3e c9 9c 80 be cd ff e8 be
       -0.26009774 0.35620886 -0.25119618 -0.4550766
0003d0 2b 5d ce bd 09 a5 00 bb 6b ad ea bc ee 40 f5 bd
       -0.10076364 -0.0019629619 -0.028647145 -0.11975275
0003e0 46 64 3a 3e bb ac 2a be 7a 5d 76 be 0f 5f 19 be
       0.18202314 -0.16667454 -0.24059096 -0.14977668
0003f0 f4 68 0c 3e 3b 27 a5 3e 3d 1e f9 bd 1b 99 35 3f
       0.13711911 0.32256493 -0.121639706 0.70936745

bias f4 [20]
000000 21 44 c0 bc 6d d0 21 3c d8 a2 67 bd bb 95 f7 3c
       -0.023469986 0.009876353 -0.056551784 0.030222764
000010 0e 52 32 3d a0 0b cc bb 74 cc be 3d ec d3 1f bd
       0.043535285 -0.0062269717 0.0931634 -0.039020464
000020 10 e1 70 3c cf c4 2a 3d 35 47 85 bb 76 99 d0 3c
       0.014702097 0.041691598 -0.0040673264 0.0254638
000030 77 dd 7c bc ab 4a a3 bd e2 00 4c 3d 95 e9 29 bd
       -0.015433661 -0.07973226 0.04980553 -0.041482527
000040 8b e3 11 3c ca bb da bc 68 6c 84 bd e8 aa ac bc
       0.008904348 -0.026700873 -0.06465989 -0.021077588

weight f4 [20, 20]
000000 c5 ee d3 3e c8 55 7b be d0 1d 66 be 87 f3 a1 be
       0.41393104 -0.24544442 -0.2247231 -0.3163111
000010 63 d6 b3 bd c0 c0 59 bc 63 20 06 be 9a 97 01 be
       -0.087811254 -0.013290584 -0.13098292 -0.12655488
000020 68 2a f5 bc 04 5c f7 be af 09 1d 3e d6 23 71 be
       -0.029927447 -0.4831239 0.15335725 -0.23548827
000030 59 74 65 3e 63 86 98 be 81 74 35 3d be 7b c1 3c
       0.22407664 -0.2979003 0.04430056 0.023618575
000040 bd 5f 01 3e 02 6a 0d 3c 16 9c c3 bd 38 9b 98 bd
       0.12634178 0.008631231 -0.095512554 -0.074514806
000050 6b f6 22 be 91 43 09 3e 3c 60 d1 bc 27 12 a9 be
       -0.15914313 0.13404681 -0.025558583 -0.33021662
000060 cb a0 c6 be ff 0a 12 3e 11 fb 98 3d e8 0b ef bd
       -0.3879455 0.14262007 0.07469762 -0.11672193
000070 58 85 65 bd 7e 2f 4e 3d 15 24 97 3d 2d eb 39 3a
       -0.05603537 0.05033826 0.07379929 0.0007092234
000080 af 19 25 bd c2 d7 ae 3e 5f f6 bc 3e 8e 3b 15 3a
       -0.040307697 0.34148985 0.36906716 0.0005692773
000090 d2 f1 d8 3d ed cb f8 be 62 0d 7e 3e 9e f8 9d be
       0.105929986 -0.48593083 0.24809793 -0.30853742
0000a0 dc b2 05 be 24 ac 81 bd fe 7a 3f 3d 12 51 4f bd
       -0.1305651 -0.06331661 0.046748154 -0.050614424
0000b0 5e c7 20 3e bb c8 32 bd 72 d9 96 bd 6b 3c e5 bd
       0.15701053 -0.043648463 -0.07365693 -0.111931644
0000c0 7a 5b ce be e8 87 45 3e ea dd c8 3e 7f cf c7 bc
       -0.40304166 0.19290125 0.39231807 -0.024390934
0000d0 a5 24 1c 3c f5 20 3e 3d cc b4 db 3e 73 9a 87 3e
       0.009530221 0.04641815 0.42911375 0.26485023
0000e0 2e 08 c3 3e f3 f7 b3 3e f5 12 35 be 38 82 1e 3e
       0.38092178 0.35150108 -0.17683013 0.15479362
0000f0 91 b7 49 3c 05 e5 41 3e b1 1e 0e bd 60 19 8f 3e
       0.012311832 0.1893502 -0.03469724 0.27949047
000100 aa 1c a2 3d c0 41 07 bd 4d 76 95 bd 58 5e f3 be
       0.079156235 -0.03302169 -0.07297955 -0.47532916
000110 98 73 96 3d 0b 09 68 3c 78 35 2b bd c1 8e d2 3d
       0.073462665 0.014162312 -0.04179904 0.102811344
000120 23 e8 b7 3e 0e 50 ca 3b 04 26 af bd 02 3b dd be
       0.35919294 0.006174094 -0.08552173 -0.43209082
000130 37 b6 8c be 81 4b 97 3e 48 c0 61 3e 6b 21 f8 bd
       -0.2748277 0.29549792 0.22046006 -0.12115749
000140 7a f9 41 3d 17 2b a6 3e 5b ab ec bd 26 a4 bf bd
       0.04735706 0.3245475 -0.11556121 -0.09357481
000150 f8 58 bc be ba 8d 83 3e 78 82 ac be 63 4a 3b be
       -0.36786628 0.25694066 -0.3369329 -0.18290095
000160 cb af 6e be c2 27 84 3e 5a ac 9e 3e 65 18 c5 3e
       -0.23309247 0.25811583 0.3099087 0.38495174
000170 c9 d5 f7 bd 6d 83 6b be 19 8b 08 3e d8 2e e5 3e
       -0.12101323 -0.22999354 0.13334312 0.447623
000180 42 92 88 3d 95 93 3a 3e 33 c2 95 3e 9f 41 71 3e
       0.066685215 0.1822036 0.29249725 0.23560189
000190 67 da 33 3e 98 24 78 3c 15 db b6 3e 23 c8 4b 3e
       0.17563783 0.015145443 0.3571402 0.19900565
0001a0 f9 bc 91 be f1 b7 7d bb 5f 79 8c bd a1 62 52 3e
       -0.28464487 -0.0038714374 -0.06859087 0.20545436
0001b0 ce 7e de be ce 28 17 be 11 86 40 be 41 2e 92 bb
       -0.4345612 -0.1476166 -0.18801142 -0.0044610803
0001c0 a2 97 b0 be 0b 14 03 3d e7 6f 5a 3d 1f 12 4a bc
       -0.34490687 0.032001536 0.053329375 -0.012333422
0001d0 c2 45 17 bd ef 3a 1e 3f 7e 80 21 3d b0 d0 77 3e
       -0.03693176 0.61808676 0.03942918 0.24200702
0001e0 1d 3c f4 bd f8 cd ae 3e 8a 2e 5f 3e ae 51 6b be
       -0.11925528 0.34141517 0.21795097 -0.22980377
0001f0 5e 41 4a 3e 9b 9d cb be 20 e2 c3 3d 9a 39 cd 3d
       0.19751498 -0.3976868 0.09564614 0.10020752
000200 50 8e fb bd 2d c4 fe 3d 47 18 b6 3d 6a 4f bd bd
       -0.12283003 0.12439761 0.08891349 -0.09243663
000210 d6 bf 29 3e 5b 90 b5 bd 72 dd 5d 3e 49 e2 85 be
       0.16577086 -0.08865424 0.21666506 -0.26149204
000220 6b 3f b3 3d a8 b6 d1 3d 50 ff e2 bc 46 f1 8e bd
       0.087523304 0.10239917 -0.027709633 -0.06979613
000230 14 08 27 be e1 96 50 be 86 fd 18 3e 04 d7 76 be
       -0.16311675 -0.20370056 0.14940462 -0.2410546
000240 5e 29 fc be e9 24 00 3e c4 31 ce 3e 3a 32 57 3e
       -0.4925031 0.1251408 0.40272343 0.21015254
000250 10 09 0d bd 5b e9 2e be 91 03 ef be 00 5c 74 3e
       -0.03443247 -0.17081206 -0.46682408 0.2386322
000260 49 ab 13 3e b6 e7 2b 3e ad 9b 90 be f2 86 25 bf
       0.14420809 0.1678761 -0.2824377 -0.64659035
000270 4a 9c 6c be 0a d4 a5 3e 97 73 00 3e 5c a4 8b be
       -0.23106495 0.32388335 0.12544094 -0.27273834
000280 22 00 13 3e 2d c2 59 3e a2 ee 8d 3d 16 e1 8d 3e
       0.1435552 0.21265478 0.06930281 0.2771079
000290 7e 17 e0 be 5c db ad 3d 8a 0b a5 3d a2 fb ca 3d
       -0.43767923 0.08489105 0.080588415 0.099112764
0002a0 b1 0c 49 3d 22 11 1b 3e 67 7b 7c 3d 01 0a b7 be
       0.04908437 0.15143254 0.061641123 -0.3574982
0002b0 76 82 a5 bd bc 19 bb 3e ad 01 3f bd e4 4c 40 bd
       -0.08081524 0.3654307 -0.046632458 -0.04694833
0002c0 4c c4 11 3d d8 12 49 3e fa d1 d5 3c 3c 8e aa 3d
       0.035587594 0.19636095 0.026101101 0.0832791
0002d0 b7 cf 77 bd 5c 98 db 3d c6 22 83 3e 36 eb 06 3e
       -0.060500827 0.107224196 0.25612468 0.13175663
0002e0 a1 96 0a be 59 55 f6 bc 4f 2c b8 3e 1c eb ac bd
       -0.13534023 -0.030069994 0.35971305 -0.08443281
0002f0 69 b3 6f 3e c8 ee c2 bd 1b d6 03 be f7 ad ac bd
       0.23408283 -0.095182 -0.12874644 -0.08431619
000300 88 ac 2b be 68 3d 1c 3e 99 c7 bc 3d 16 3e f2 3e
       -0.16765034 0.152578 0.09217758 0.47312993
000310 b6 71 e8 3c 73 43 23 3e 56 0b a7 bc 21 dc 20 be
       0.028374534 0.15943699 -0.020391148 -0.15708973
000320 59 38 53 be af 41 c5 bd 2a 1b a4 3d 29 e5 8f bd
       -0.20626964 -0.09631669 0.08012994 -0.07026131
000330 9e 5e 49 3e 0c a3 e9 3d 23 6a e1 bd ff d7 83 bd
       0.19665 0.11408052 -0.11006572 -0.06437682
000340 54 27 07 be cf 0e c0 3d da ae 1e be 20 77 48 3e
       -0.13198596 0.093778245 -0.15496388 0.19576693
000350 63 e6 a0 3e 7a 2b 73 bd 4a 34 38 be 46 65 00 be
       0.3142577 -0.059367634 -0.17988697 -0.12538633
000360 c9 8f a7 bd ac c5 07 bf 3c ea 60 be 05 0f b6 3e
       -0.08181722 -0.53036 -0.21964353 0.35558334
000370 bb 38 5a be e2 4a 04 3e ab d3 1d 3e 3e 10 b9 be
       -0.21310703 0.1291919 0.15412776 -0.36145204
000380 9d 05 8a 3d 8e 42 1e 3e 45 11 8c bd 20 73 29 3e
       0.06739352 0.15455076 -0.068392314 0.16547823
000390 8e 8a 9e 3e 5e d8 10 bf 4e 69 14 3e 14 c9 c1 3e
       0.30965084 -0.5658015 0.14493296 0.37848723
0003a0 3e 2f 3d be 16 31 c7 be aa 74 31 be 93 07 35 3e
       -0.18475053 -0.38904637 -0.1732966 0.1767867
0003b0 7e 61 85 3e 61 c2 e4 3b 11 09 8b bd 24 42 6b bd
       0.26050943 0.0069811796 -0.06788839 -0.057436123
0003c0 ae ea d0 3e c9 c6 cf 3d 0e 2b b3 bd 29 37 a7 bd
       0.40804046 0.10145337 -0.087484464 -0.08164818
0003d0 e9 c6 0b 3e 20 15 3f be 98 15 3a bd b8 a1 45 be
       0.13650097 -0.18660402 -0.04543075 -0.19299972
0003e0 4d be 07 bc a6 65 02 bc 56 1f ae bd 21 73 23 be
       -0.008285117 -0.007958805 -0.085020706 -0.15961887
0003f0 39 53 68 3c 70 c9 a0 3e 25 3f 65 bd 77 77 48 be
       0.014179998 0.31403685 -0.055968422 -0.19576822

bias f4 [20]
000000 a8 fd 30 bc b2 40 8b bc d1 a6 51 bb 01 40 a6 bb
       -0.010802664 -0.016998623 -0.00319903 -0.005073548
000010 e0 9c 82 3c 0d 76 7b bd 07 68 af bb 09 5e 74 3c
       0.015943944 -0.06139188 -0.005352977 0.014914998
000020 f5 44 30 3b 4b a1 35 bc 9b 54 66 bd 6d 88 ba 3a
       0.002689657 -0.0110858185 -0.05623303 0.0014231332
000030 c2 8e 22 bb d0 10 0c 3c 53 51 81 3b 4f 37 af 3b
       -0.0024804329 0.00854893 0.003946462 0.0053471695
000040 90 0b a6 bc 4d 5d b6 3d f3 4c 03 3d 18 51 94 3b
       -0.020269185 0.089045145 0.032055806 0.0045262687

weight f4 [1, 20]
000000 3a e2 10 3d b3 75 5d bc e4 01 dc 3e bd 4f 97 3e
       0.035371996 -0.013516831 0.42970192 0.29553023
000010 2e b7 8d 3e ac 19 f9 be 1b c8 a4 3a 50 5f e3 3e
       0.27678818 -0.486524 0.0012571843 0.44408655
000020 c7 31 8d bc c7 0b 4a 3c d9 40 f8 3a 21 c3 ae 3b
       -0.01723565 0.0123319095 0.0018940225 0.00533332
000030 f6 d9 08 3e a6 b7 88 3b 2b ad e1 3d 07 27 36 be
       0.13364395 0.004172283 0.11019357 -0.17788325
000040 09 f0 0e be c5 a5 88 3b e8 32 e3 be d4 23 62 3c
       -0.13958754 0.004170152 -0.44374776 0.013802487
