pendulum/models/pendulum_pinn_hidden_6_20_t_0_0.3_10_lr_0.005_epochs_10000.pt (torch, 17282 bytes, 13 tensors)

weight f4 [20, 1]
0	0xbe92004d	-0.28515854
1	0x3e414227	0.18872891
2	0x3dfab486	0.12241463
3	0xbe416f01	-0.18890001
4	0x3df57ffd	0.119873025
5	0x3f1bc4fb	0.60847443
6	0xbe832262	-0.2561217
7	0xbf77f7b0	-0.96862316
8	0xbf8dda37	-1.1082219
9	0xbf245eec	-0.6420734
10	0xbdc5de9c	-0.096616
11	0x3ee621d0	0.44947672
12	0xbe457ed5	-0.19286664
13	0xbe5fd895	-0.21859963
14	0x3f7ef74c	0.99596095
15	0xbf3f8467	-0.74811405
16	0xbe9b8a81	-0.30379108
17	0x3da7f489	0.08200938
18	0x3e969ed2	0.29418045
19	0x3e1141af	0.14185213

bias f4 [20]
0	0x3ea904a7	0.33011362
1	0xbf7004cd	-0.93757325
2	0xbdb8768f	-0.09006988
3	0x3de501d8	0.11181992
4	0x3cb99a6f	0.022656647
5	0xbdb622e2	-0.08893372
6	0xbe206de9	-0.15666927
7	0x3e2d9d79	0.16954602
8	0xbd7b24e2	-0.06131447
9	0xbcf1177f	-0.02943015
10	0x3d0d3af6	0.034480058
11	0x3d7e1c40	0.06203866
12	0x3dcf01dc	0.101077765
13	0x3dd22c9b	0.10262414
14	0xbe85fd2a	-0.2616971
15	0xbdf59d92	-0.11992945
16	0xbe04deaf	-0.12975572
17	0xbbce9605	-0.006304505
18	0x3e38bdb0	0.1804111
19	0xbde9b17f	-0.11410808

weight f4 [20, 20]
0	0x3ed81a3c	0.42207515
1	0xbf2d98df	-0.6781139
2	0xbe9601cd	-0.2929825
3	0x3e2e919f	0.17047738
4	0x3b67a892	0.0035348278
5	0x3da254ab	0.079263054
6	0xbe5c6873	-0.21524219
7	0xbd95f232	-0.07321586
8	0xbd4a6812	-0.049415655
9	0x3cbcb00b	0.023033163
10	0xbdbbd03a	-0.091705754
11	0xbd02f697	-0.031973448
12	0x3d78a290	0.060701907
13	0x3f011134	0.50416875
14	0xbe03f22f	-0.12885354
15	0xbc85e4e2	-0.016344491
16	0xbe2aadaa	-0.1666781
17	0x3c95b7b4	0.018276073
18	0x3f0149b2	0.50503075
19	0xbeaad38d	-0.33364525
20	0x3e98c637	0.29838726
21	0xbf151193	-0.5822994
22	0xbead9416	-0.33902043
23	0x3ed359d1	0.41279462
24	0xbe21b1aa	-0.1579043
25	0xbf294300	-0.6611786
26	0xbe70cdba	-0.23515978
27	0x3f60a268	0.8774781
28	0x3e8eab96	0.27865285
29	0x3f34e75c	0.70665526
30	0xbc23b49b	-0.00999179
31	0xbebc1c4e	-0.36740345
32	0xbc180425	-0.009278332
33	0x3f3bbf93	0.73339194
34	0xbf8d303d	-1.1030346
35	0x3f1a5496	0.6028532
36	0x3ebedb72	0.37276798
37	0xbe622ef9	-0.22088231
38	0xbe45571c	-0.19271511
39	0xbe78e3b1	-0.24305607
40	0xbe5331f6	-0.20624527
41	0xbe48c8c7	-0.1960784
42	0xbe0ab9cb	-0.13547437
43	0x3de31949	0.11088807
44	0xbe78e263	-0.2430511
45	0xbde423f3	-0.11139669
46	0x3e943fa8	0.28954816
47	0xbe7a6a6b	-0.24454658
48	0x3ed897c4	0.42303288
49	0x3db88c30	0.09011114
50	0xbd5f6144	-0.05453612
51	0xbce4555a	-0.02787273
52	0x3e01923a	0.12653437
53	0x3ef55578	0.4791677
54	0xbdb75a1f	-0.08952736
55	0x3e873f90	0.26415682
56	0x3e7053f8	0.23469532
57	0xbec21393	-0.3790556
58	0xbefdf0b4	-0.49597704
59	0xbe9b22a2	-0.3029986
60	0x3e532355	0.20618947
61	0x3ef3d9ef	0.47627208
62	0x3d53874c	0.0516427
63	0xbc2768e6	-0.010217881
64	0xbe974b76	-0.2954976
65	0xbdd697cf	-0.10478174
66	0x3d9f6d06	0.077844664
67	0xbd9de390	-0.0770942
68	0xbe278318	-0.16358602
69	0x3eaffa9e	0.34370893
70	0x3eaded78	0.33970237
71	0x3e5d85e2	0.21633103
72	0xbce24d98	-0.02762489
73	0xbb97444a	-0.004616295
74	0x3e99cca2	0.30038935
75	0xbdb3220a	-0.08746727
76	0xbcbe60bd	-0.023239488
77	0xbdf3b7e9	-0.119003125
78	0x3e8bd999	0.2731445
79	0x3e88b109	0.26697567
80	0xbea7f64a	-0.3280509
81	0x3d9d3991	0.076769955
82	0xbe6b4404	-0.22975165
83	0xbec3fbae	-0.38277954
84	0x3dd47b8e	0.10375129
85	0xbe6e4365	-0.23267896
86	0xbe03c32d	-0.12867422
87	0x3d5e279f	0.054237004
88	0x3e4cd9c5	0.20004947
89	0xbea684b3	-0.32523116
90	0x3ebbe814	0.367005
91	0x3e80642a	0.2507642
92	0xbeb623e4	-0.35574257
93	0x3cfe06a4	0.031009026
94	0x3d7af332	0.061267085
95	0x3d8e84b4	0.06958905
96	0xbdf83ee2	-0.12121369
97	0xbe9d1e40	-0.3068714
98	0x3dd6e54a	0.10492952
99	0xbce6ea14	-0.028187789
100	0xbc48bacc	-0.012251567
101	0xbe8b9acb	-0.27266535
102	0x3e8e8dbf	0.2784252
103	0xbdd76c0b	-0.105186544
104	0x3d535ef5	0.05160423
105	0xbed4c9f9	-0.41560343
106	0x3cdb9510	0.026804477
107	0x3e9fc918	0.3120811
108	0xbd804a07	-0.062641196
109	0x3da9a92d	0.08284221
110	0xbdf889a4	-0.12135628
111	0xbded4b55	-0.11586634
112	0x3ebd71a4	0.37000763
113	0xbdac6b1c	-0.08418867
114	0x3d52eb31	0.051493827
115	0x3e77912e	0.24176475
116	0xbde8d4f3	-0.11368742
117	0x3e44a4f3	0.19203548
118	0x3dbaae6c	0.091152996
119	0x3dc9b756	0.09849422
120	0xbe4ee10b	-0.20203035
121	0x3e81b101	0.25330356
122	0x3da08b7b	0.07839104
123	0xbe23571f	-0.15951203
124	0x3d7be33b	0.061496
125	0x3f1e1690	0.6175318
126	0x3e0055ef	0.12532781
127	0x3e10cd22	0.14140752
128	0xbc59c39d	-0.013291267
129	0xbda0a9cf	-0.078448884
130	0xbe968170	-0.29395628
131	0x3e051f2b	0.13000171
132	0xbdb976b8	-0.09055847
133	0x3d376db4	0.044782355
134	0x3f15b1ab	0.58474225
135	0xbb299496	-0.0025875918
136	0x3e64eb3d	0.22355361
137	0x3e94de79	0.29075983
138	0x3e1a3239	0.15058221
139	0xbe415ca7	-0.18883
140	0x3ef9347b	0.48672852
141	0xbe558e74	-0.20855123
142	0xbd987b22	-0.07445361
143	0x3f46ca78	0.7765269
144	0xbe4a7139	-0.19769754
145	0x3c9f0ad8	0.01941435
146	0x3ef58015	0.4794928
147	0xbe594423	-0.21217398
148	0x3dc263dd	0.09491704
149	0x3e36d726	0.1785551
150	0x3d304adf	0.043040153
151	0xbec0108f	-0.37512633
152	0x3e33d415	0.17561372
153	0x3e69cf46	0.22832975
154	0xbd291acc	-0.04128532
155	0x3ddec21e	0.10876869
156	0xbe01624c	-0.12635154
157	0xbec7e5dd	-0.3904256
158	0x3e4e2eab	0.2013499
159	0xbd86e3ed	-0.06586442
160	0xbdc4cc6b	-0.09609302
161	0x3d50c482	0.050968654
162	0xbe2de3b7	-0.16981398
163	0x3e092b00	0.1339531
164	0x3e216501	0.15761186
165	0xbd754ab4	-0.059885696
166	0xbf00d16a	-0.5031954
167	0xbebc3c50	-0.36764765
168	0x3da86e44	0.082241565
169	0x3db6a2f8	0.089178026
170	0x3dcaa04e	0.09893857
171	0x3d6aafcb	0.057296555
172	0x3e92b912	0.28656822
173	0xbe9eefee	-0.31042427
174	0x3e79c461	0.24391319
175	0xbed81fd9	-0.42211798
176	0x3e03dabb	0.12876408
177	0xbe4453c2	-0.19172576
178	0x3eaab49d	0.33340922
179	0x3dfe2e09	0.12411124
180	0x3e6e786a	0.23288122
181	0xbf808d85	-1.0043188
182	0xbf25c803	-0.6475832
183	0x3f05026f	0.5195684
184	0xbf1aa34b	-0.60405415
185	0xbe7c63e5	-0.24647482
186	0xbde9f340	-0.114233494
187	0xbeb061e2	-0.3444968
188	0xbe8f5d5b	-0.28000912
189	0x3d0cb06e	0.034347944
190	0x3eadae8d	0.33922234
191	0x3dab0a58	0.08351582
192	0x3e3cc0bc	0.18432897
193	0x3e09bdc8	0.13451302
194	0x3e41be3a	0.18920222
195	0xbef23c12	-0.47311455
196	0xbe38d8fb	-0.18051521
197	0xbe82ffd8	-0.25585818
198	0x3e014c94	0.12626868
199	0xbe862df5	-0.26206937
200	0x3e246d5f	0.16057347
201	0x3e824797	0.25445244
202	0xbe92ed9a	-0.286969
203	0xbe8a150d	-0.26969185
204	0x3e1611dd	0.14655252
205	0x3f235066	0.63794553
206	0x3e2c2cdc	0.16813987
207	0xbe481b02	-0.19541553
208	0xbc8b1b6e	-0.016980853
209	0x3ceb5133	0.028725242
210	0xbe4ddcef	-0.2010381
211	0xbe25158d	-0.16121502
212	0xbd44ee75	-0.048078973
213	0x3de6f549	0.11277253
214	0x3dbbdcfe	0.0917301
215	0x3d4e2721	0.050330285
216	0xbcbc5f98	-0.022994801
217	0x3d86f9c5	0.065906085
218	0xbe37ae42	-0.17937568
219	0x3d4cde16	0.050016485
220	0x3dda552c	0.106607765
221	0xbb17d0d6	-0.0023165247
222	0x3eca2c6b	0.39487013
223	0xbe01b4b6	-0.12666592
224	0xbe3b1b27	-0.18272077
225	0x3e09fc73	0.13475208
226	0x3e3c5578	0.18391979
227	0x3d636e68	0.055525213
228	0xbe0f5a28	-0.13999236
229	0xbca0dbb2	-0.019636009
230	0xbd771e82	-0.06033183
231	0xbd0c93a3	-0.034320485
232	0xbec0149b	-0.3751572
233	0xbebf83d6	-0.3740527
234	0x3dcd333b	0.10019537
235	0x3ec6a31f	0.38796327
236	0xbe13e2a3	-0.14441924
237	0xbde1f99b	-0.110339366
238	0xbe9693c9	-0.29409626
239	0x3ecd3ead	0.4008688
240	0xbe9f3c60	-0.3110075
241	0x3e10a071	0.14123704
242	0x3ed1a76c	0.40948045
243	0xbd74514f	-0.059647854
244	0xbe3033fb	-0.17207329
245	0xbe97aa1a	-0.29621965
246	0xbde7b9da	-0.11314745
247	0xbe8ee63e	-0.27910036
248	0xbd940ad6	-0.07228629
249	0x3ea7b90b	0.32758364
250	0xbe08719f	-0.13324593
251	0x3e29ebb5	0.16593821
252	0xbebbd748	-0.36687684
253	0xbccd96f7	-0.0250964
254	0x3ddc92bb	0.10770174
255	0x3eae6e5a	0.34068567

bias f4 [20]
0	0x3e601ea9	0.21886696
1	0x3dca1f4a	0.09869249
2	0xbe16c4e2	-0.14723542
3	0xbe3f08cb	-0.18655698
4	0x3d721051	0.05909759
5	0x3ca7c332	0.020478819
6	0xbe0eb36e	-0.13935634
7	0x3e1fa3bb	0.15589802
8	0x3cef9d93	0.029249942
9	0x3e5cdf3f	0.21569537
10	0x3e034158	0.12817895
11	0xbd940c3d	-0.07228897
12	0xbde6ca01	-0.11268998
13	0xbd3b655a	-0.045750953
14	0x3e0c92b3	0.13727836
15	0xbd8ea5b1	-0.06965197
16	0x3dbcb077	0.092133455
17	0xbb73e55d	-0.0037215569
18	0xbbc8f28e	-0.0061324304
19	0xbe4c82a0	-0.19971704

weight f4 [20, 20]
0	0x3f6f1fa7	0.9340767
1	0xbe9b16c6	-0.30290812
2	0xbf18ec0d	-0.59735185
3	0xbf219e62	-0.631323
4	0xbef300a7	-0.47461435
5	0xbd73bebd	-0.059508074
6	0xbe0cd65e	-0.1375365
7	0x3ee54739	0.447809
8	0xbccb18c9	-0.024792092
9	0x40066ddb	2.100455
10	0x3e028b7e	0.12748525
11	0xbf6132bc	-0.8796804
12	0xbeb7a9c3	-0.35871705
13	0x3d362bed	0.044475485
14	0x3c13d134	0.009022046
15	0xbe8c9c04	-0.2746278
16	0x3e6489d2	0.223182
17	0x3e3ceafe	0.18449017
18	0x3d26dfe9	0.04074088
19	0xbe5eb946	-0.21750364
20	0xbf5bddf2	-0.85885537
21	0xbd0a0acb	-0.0337017
22	0xbe5b0856	-0.21389899
23	0x3e65f415	0.22456391
24	0x3e30c18a	0.1726133
25	0xbf00449d	-0.50104696
26	0x3f007cfe	0.5019072
27	0xbe718024	-0.23584038
28	0x3e7f3c1c	0.24925274
29	0xbe8c145e	-0.2735929
30	0x3e8fea7a	0.2810858
31	0x3c688335	0.014191438
32	0x3e93845b	0.28811917
33	0xbe0a38e8	-0.1349827
34	0xbdd16d41	-0.10225917
35	0xbe2bfa8f	-0.167948
36	0xbf1c7741	-0.6111947
37	0xbe939475	-0.288242
38	0x3f48cbf0	0.78436184
39	0x3f12780c	0.57214427
40	0xbebe6f02	-0.37194067
41	0xbe8dfd70	-0.2773242
42	0x3e8139a5	0.25239292
43	0x3e9def04	0.30846417
44	0xbdfeefc1	-0.12448073
45	0x3e081d38	0.13292396
46	0x3e67353c	0.22578901
47	0xbc7ba6bb	-0.015359576
48	0x3f06e9e0	0.52700615
49	0x3e41ca85	0.18924911
50	0xbe3cd993	-0.18442373
51	0x3e1b21fa	0.1514968
52	0xbe50330f	-0.20331977
53	0x3c32ef0e	0.010921253
54	0xbd237459	-0.03990588
55	0xbe5b2bca	-0.21403423
56	0x3eff564d	0.4987053
57	0x3e8deabf	0.2771816
58	0x3f23ec62	0.64032567
59	0xbe987d84	-0.2978326
60	0xbed8713e	-0.42273897
61	0xbeae2961	-0.34015945
62	0xbecc8e45	-0.39952293
63	0xbe86f476	-0.26358384
64	0x3e3aae39	0.18230523
65	0xbec54032	-0.3852554
66	0xbb26ec8b	-0.002547058
67	0xbee08f47	-0.43859312
68	0x3df95d23	0.121759675
69	0x3d1176f5	0.035513837
70	0xbe027726	-0.12740764
71	0x3e45ed69	0.19328846
72	0x3e984520	0.29740238
73	0x3e92d306	0.28676623
74	0x3d83a15b	0.064272605
75	0xbd43914f	-0.047746
76	0xbe3a913a	-0.18219462
77	0xbe69a0cb	-0.22815244
78	0x3f320486	0.6953815
79	0x3e6484a7	0.22316228
80	0x3cee461e	0.029086169
81	0x3e81acf9	0.2532728
82	0x3e94385b	0.28949246
83	0x3dd966ce	0.106153116
84	0x3d8ee6ac	0.06977591
85	0x3ed33984	0.41254818
86	0x3e9a2fb0	0.30114508
87	0xbe5f66c6	-0.21816549
88	0xbe059f84	-0.13049132
89	0xbcb6ed90	-0.022330076
90	0x3cc6d151	0.024269732
91	0x3d50cbd8	0.05097565
92	0x3e9493d5	0.29019037
93	0xbe4a83c6	-0.1977683
94	0xbf2e2b62	-0.68034947
95	0x3ee20ec5	0.44151893
96	0x3c93163a	0.017954934
97	0xbe46ab78	-0.19401348
98	0xbe902b7d	-0.2815818
99	0x3b55de7c	0.0032633832
100	0x3e6c2b69	0.23063435
101	0xbf04a81c	-0.51819015
102	0x3df8b4df	0.121438734
103	0x3e27b97f	0.16379355
104	0xbea17b7b	-0.3153952
105	0x3e9c86bc	0.30571544
106	0xbd34aa3f	-0.04410767
107	0xbea00d41	-0.31260112
108	0x3cc125ef	0.023577658
109	0x3dafefa2	0.08590628
110	0x3e323763	0.17403941
111	0x3df554f0	0.11979091
112	0x3eecd52b	0.46256384
113	0xbdf16c73	-0.11788263
114	0x3e6a17fa	0.22860709
115	0x3e1260d4	0.1429475
116	0xbf03c960	-0.5147915
117	0xbde023f3	-0.10944357
118	0x3e91b8a0	0.2846117
119	0xbdc4a199	-0.09601135
120	0xbdc3f126	-0.0956748
121	0xbe770c05	-0.24125679
122	0xbe152b6a	-0.14567342
123	0x3e2b802a	0.1674811
124	0xbe85f85d	-0.2616605
125	0xbe4d29cd	-0.20035477
126	0x3e824a21	0.2544718
127	0x3e5a190e	0.2129862
128	0xbd0d89d9	-0.03455529
129	0xbae4897d	-0.0017435994
130	0x3dbabf73	0.09118547
131	0x3eb53611	0.35392812
132	0xbece93cb	-0.40347132
133	0xbcdc065a	-0.026858497
134	0xbd86cdcf	-0.065822236
135	0x3eee5150	0.46546412
136	0x3c528159	0.012848222
137	0x3eb610c3	0.35559663
138	0xbeff370b	-0.49846682
139	0x3f2797ff	0.654663
140	0x3e08478c	0.13308543
141	0x3eeb12ac	0.45912683
142	0x3ead42cd	0.33840027
143	0x3e163a1e	0.14670607
144	0x3ee9586d	0.45575276
145	0xbd2534b9	-0.040333483
146	0xbd8bcd4b	-0.06826266
147	0xbe1bef90	-0.15228105
148	0x3e8fcf5c	0.2808789
149	0xbb8f0727	-0.0043648663
150	0xbdefd32f	-0.11710202
151	0x3dc31640	0.09525728
152	0xbdf4909e	-0.11941646
153	0x3e557eeb	0.20849197
154	0x3d5b1ad9	0.0534924
155	0xbde8ae42	-0.11361362
156	0xbe212d64	-0.15739971
157	0x3c0d2a0c	0.008615982
158	0x3e9b8867	0.30377504
159	0xbd8f85ef	-0.07007968
160	0xbed51016	-0.41613835
161	0xbc8e0962	-0.017338458
162	0xbead423a	-0.3383959
163	0x3dd7829e	0.1052296
164	0x3d028516	0.031865202
165	0xbe08c644	-0.13356882
166	0x3e3894f7	0.18025576
167	0xbf10bece	-0.56541145
168	0xbc9083f6	-0.017641049
169	0xbf2dacfb	-0.6784207
170	0x3eb4009c	0.35156715
171	0x3ea9a9fb	0.33137497
172	0x3ea90bd3	0.33016834
173	0x3e429a0f	0.19004081
174	0x3d774804	0.060371414
175	0x3e2c24cb	0.1681091
176	0xbacefa72	-0.0015791191
177	0x3d71689f	0.058937665
178	0xbeec01ad	-0.4609503
179	0xbebbb5db	-0.36662182
180	0xbdf19f48	-0.117979586
181	0xbd3900c9	-0.045166764
182	0xbdbf858a	-0.093516424
183	0x3e81575e	0.25261968
184	0xbec87e01	-0.39158633
185	0x3e9130f0	0.2835765
186	0xbeacb0c4	-0.3372861
187	0x3eda919a	0.4268921
188	0x3e6170de	0.22015712
189	0x3f2a172e	0.6644162
190	0x3a11829a	0.0005550772
191	0x3e73f9be	0.23825738
192	0xbee76d9b	-0.4520081
193	0xbe3df78f	-0.18551467
194	0x3f1df3b0	0.6169996
195	0x3e51f27f	0.20502661
196	0x3ed6856f	0.41898677
197	0x3cffab6c	0.03120967
198	0xbd662dc9	-0.056196008
199	0xbeb57b25	-0.35445514
200	0x3ed94f2f	0.42443225
201	0x3eab322d	0.3343672
202	0x3c5b0ecd	0.013370228
203	0xbdbdcb72	-0.0926732
204	0x3e529ea1	0.20568325
205	0xbb05a4f0	-0.00203925
206	0xbd9bc170	-0.07605255
207	0x3e1aa56d	0.15102167
208	0xbd3e1c87	-0.046413925
209	0x3f17aad3	0.5924503
210	0xbecc08c7	-0.39850447
211	0xbe13636e	-0.14393398
212	0xbe85f884	-0.26166165
213	0xbe23e13f	-0.16003893
214	0xbe677c61	-0.2260604
215	0xbddf988b	-0.10917767
216	0x3d0a67aa	0.033790268
217	0x3e87ce95	0.26524797
218	0xbe7dcc2c	-0.24784917
219	0x3f052066	0.5200256
220	0x3dc71db5	0.09722463
221	0x3e4ce562	0.20009378
222	0xbd89f2fd	-0.067357995
223	0x3d365847	0.04451778
224	0xbe03caf3	-0.12870388
225	0x3da0c887	0.078507476
226	0x3ce9bfbf	0.028533814
227	0x3d2fa36d	0.042880464
228	0x3d7962e2	0.060885318
229	0xbdf2c342	-0.11853649
230	0x3ea32045	0.31860557
231	0xbe5eb3aa	-0.21748224
232	0x3d83784e	0.06419431
233	0xbea54e0f	-0.32286116
234	0x3ecf93c7	0.40542433
235	0xbb9bfd90	-0.0047604516
236	0x3e27763e	0.163537
237	0xbda11f08	-0.07867247
238	0x3d843ef9	0.064573236
239	0x3ee0abd7	0.43881103
240	0x3f05a28a	0.5220114
241	0xbefa894c	-0.48932874
242	0x3ec25eb8	0.3796289
243	0x3e868e0b	0.26280245
244	0x3de62685	0.11237816
245	0xbe0f613c	-0.14001936
246	0xbe52cd83	-0.20586209
247	0xbd7cbd23	-0.061703812
248	0xbd940270	-0.072270274
249	0x3f01470d	0.5049904
250	0x3dad204c	0.08453426
251	0xbe4efb4f	-0.20213054
252	0x3d986f35	0.07443086
253	0x3e0515f4	0.12996656
254	0xbe242c56	-0.16032538
255	0x3e86836d	0.26272145

bias f4 [20]
0	0x3dc4dc94	0.096123844
1	0xbd7d75ac	-0.0618798
2	0xbc7d33cd	-0.015454245
3	0xbb5b5d4c	-0.0033472357
4	0xbd5e6b22	-0.05430139
5	0xbd162147	-0.03665283
6	0xbdcce8f6	-0.10005371
7	0xbcf6f2eb	-0.03014513
8	0x3d7b7240	0.061388254
9	0x3d899ee0	0.06719756
10	0xbd083876	-0.03325697
11	0xbb9334a3	-0.004492359
12	0x3bff2664	0.007786559
13	0x3df3e2af	0.11908471
14	0xbb205ac1	-0.0024468156
15	0x3c94f8ab	0.01818498
16	0x3d8140e7	0.06311207
17	0x3d2a6217	0.041597452
18	0x3d21a45b	0.039463382
19	0xbb9792c8	-0.004625652

weight f4 [20, 20]
0	0xbc1a98aa	-0.009435812
1	0x3eccc1ab	0.39991507
2	0x3d9bab81	0.07601071
3	0xbcc0d1a9	-0.023537474
4	0x3f1ab6d5	0.6043523
5	0xbcfba76f	-0.030719487
6	0x3ee00427	0.43753168
7	0xbe46c735	-0.19411929
8	0x3e3aefb4	0.18255502
9	0xbe16185a	-0.14657727
10	0xbe3ec1dd	-0.1862864
11	0xba31404d	-0.0006761596
12	0x3e95f103	0.2928544
13	0x3dbd76a0	0.092511415
14	0x3e8efeca	0.27928764
15	0xbd8e2397	-0.06940382
16	0x3dd1c240	0.10242128
17	0xbf248e13	-0.6427929
18	0xbe9d2d1b	-0.30698475
19	0xbdfb3e20	-0.12267709
20	0xbe92d7bb	-0.28680214
21	0x3e166550	0.14687085
22	0xbe0839e2	-0.1330333
23	0x3dcaf72c	0.099104255
24	0x3ddfd387	0.109290175
25	0xbd8cd6f1	-0.06876934
26	0x3cafd3f2	0.021463368
27	0x3ecea7a6	0.4036228
28	0x3ea70df0	0.3262782
29	0xbee35a04	-0.44404614
30	0x3d044b20	0.032298207
31	0x3eaf7d98	0.34275508
32	0xbe97e805	-0.29669204
33	0x3c710491	0.014710561
34	0xbde17086	-0.1100779
35	0x3e87b572	0.2650562
36	0x3dd577a0	0.10423207
37	0xbe0a373f	-0.13497637
38	0x3c9bf132	0.01903591
39	0x3e88a8bf	0.26691243
40	0xbf5d052d	-0.8633602
41	0xbc9ae44b	-0.018907687
42	0xbe3e38f7	-0.18576418
43	0x3e9dba93	0.30806407
44	0x3df38407	0.118904166
45	0xbe4ca57a	-0.19985
46	0x3ce71667	0.028208924
47	0xbed02223	-0.40651044
48	0x3ecbccb2	0.39804608
49	0xbe60cb21	-0.21952488
50	0xbedf25ac	-0.4358343
51	0xbe4a7f9a	-0.19775239
52	0xbe752444	-0.23939615
53	0xbf193101	-0.598404
54	0x3db11017	0.08645647
55	0xbe2da835	-0.16958697
56	0x3de73591	0.11289514
57	0xbe6dec5c	-0.23234695
58	0x3d7ea77a	0.062171437
59	0xbe2805a6	-0.16408405
60	0x3ea7428e	0.32667965
61	0xbe2b952d	-0.16756125
62	0x3e3b14af	0.18269609
63	0xbd73ce16	-0.05952271
64	0xbe6fe372	-0.23426607
65	0xbdd0fd0f	-0.10204517
66	0x3def0525	0.11670903
67	0xbda2cabe	-0.07948826
68	0xbe3aae22	-0.18230489
69	0x3e92cf52	0.28673798
70	0x3d5c5e87	0.053801086
71	0xbed02ae0	-0.4065771
72	0x3df10182	0.11767866
73	0x3eb6e1f8	0.35719275
74	0x3e8bf586	0.27335757
75	0x3d9dfc98	0.07714194
76	0x3e04d85c	0.1297316
77	0xbe6e30e8	-0.23260844
78	0x3edc6da8	0.4305241
79	0xbe06937c	-0.13142198
80	0xbe8714c9	-0.26383045
81	0x3f146b80	0.5797653
82	0x3e0b7143	0.13617425
83	0x3e4c4acf	0.19950412
84	0xbecf6ed6	-0.4051425
85	0x3d8e2f62	0.06942631
86	0x3dcc6e34	0.09981957
87	0x3ed90e1b	0.42393574
88	0x3df5d689	0.1200381
89	0xbf24fb9e	-0.6444644
90	0xbe12f5dc	-0.143516
91	0x3dead779	0.114668794
92	0xbf34d1c4	-0.70632577
93	0xbf1ab707	-0.6043553
94	0xbe598ba5	-0.21244676
95	0x3dd16201	0.10223771
96	0xbe3774eb	-0.17915694
97	0x3e0df5e5	0.13863333
98	0xbebb1465	-0.36538997
99	0x3dec55a3	0.115397714
100	0xbe9f494c	-0.3111061
101	0x3de6b8d0	0.11265719
102	0x3cd76e25	0.026297638
103	0xbe4b996b	-0.19882743
104	0x3ed460d4	0.41480124
105	0x3e976fb6	0.29577416
106	0x3d906e93	0.0705234
107	0x3e2702b0	0.16309619
108	0x3e7dfe4c	0.24804038
109	0xbee6d80f	-0.45086715
110	0xbe3281ed	-0.17432375
111	0xbdfa54d5	-0.12223212
112	0x3dba2241	0.09088565
113	0x3e7319ad	0.23740263
114	0x3e2ed2ff	0.17072676
115	0xbe3dbec1	-0.18529798
116	0xbd95f7cb	-0.073226534
117	0xbeaa904e	-0.3331322
118	0xbdfe3e07	-0.124141745
119	0xbdb746cb	-0.089490496
120	0x3d08bce9	0.033383284
121	0x3e67fe30	0.22655559
122	0x3e0cfbf3	0.13767986
123	0x3e172baf	0.14762758
124	0xbd81f2a5	-0.06345109
125	0xbdcc2fb9	-0.0997004
126	0xbd76223c	-0.060091242
127	0xbe4bb147	-0.19891845
128	0x3b2b4365	0.00261327
129	0x3e2ba37d	0.16761585
130	0xbe503b3d	-0.20335098
131	0xbe40ed73	-0.1884058
132	0xbd1b8d4c	-0.037976548
133	0x3d7987a5	0.060920376
134	0x3eb42ae9	0.35188988
135	0xbe033b15	-0.12815507
136	0x3cdd4dab	0.027014574
137	0xbe8ed5db	-0.27897534
138	0xbe6f9514	-0.23396713
139	0x3d0b8a06	0.034067176
140	0x3eff572f	0.49871203
141	0xbe160157	-0.14648949
142	0x3e58a46b	0.2115647
143	0x3db7e58b	0.08979329
144	0x3e9b2dda	0.3030842
145	0x3e8b4fa3	0.27209195
146	0xbe44a962	-0.1920524
147	0xbe85f6ef	-0.26164958
148	0x3eb69bff	0.3566589
149	0x3d8ca386	0.06867127
150	0xbd82f4bf	-0.06394338
151	0xbea5aad5	-0.32356897
152	0x3e6014a4	0.21882874
153	0xbec9f288	-0.3944285
154	0x3e971808	0.29510522
155	0xbe484758	-0.19558465
156	0xbd523222	-0.05131734
157	0x3ec867af	0.39141604
158	0x3ec34345	0.3813726
159	0xbda67b3e	-0.08128975
160	0xbe68b72c	-0.22726125
161	0xbb1e4542	-0.0024150168
162	0x3dfa270e	0.1221448
163	0xbda55df1	-0.080745585
164	0x3ebd8d95	0.3702208
165	0xbc8ee87e	-0.017444845
166	0xbe0dea95	-0.13859017
167	0x3e8d1be6	0.27560347
168	0x3e92e876	0.2869298
169	0xbd4a6d96	-0.049420916
170	0xbe850309	-0.25978878
171	0x3d68cb9b	0.0568348
172	0x3e84a111	0.25904134
173	0xbec98d10	-0.39365435
174	0xbeb915f6	-0.36149567
175	0x3d829da4	0.06377724
176	0x3ebd0786	0.36919802
177	0x3e8b4b04	0.2720567
178	0xbe32c190	-0.1745665
179	0xbceacda6	-0.028662514
180	0x3f0d0e16	0.5509962
181	0x3cb0c3d7	0.021577759
182	0x3d5846eb	0.052802008
183	0x3e999ffe	0.30004877
184	0xbec1a372	-0.3782001
185	0xbd09c7e1	-0.033637885
186	0x3efe2f12	0.49645287
187	0xbe353bff	-0.17698668
188	0xbf11674e	-0.56798255
189	0xbd7e6803	-0.062110912
190	0x3ea6722b	0.32508978
191	0xbd9f53ca	-0.07779653
192	0x3eaf639b	0.3425568
193	0x3e0492b3	0.12946586
194	0x3b260310	0.0025331415
195	0xbda7d5a8	-0.081950486
196	0x3d38c2b5	0.045107562
197	0xbe900bbe	-0.2813396
198	0x3eb44c7a	0.35214597
199	0x3cd94144	0.026520379
200	0x3f1b4bd8	0.60662603
201	0xbeba92a9	-0.36440018
202	0x3ed83913	0.42231044
203	0xbe0aeff0	-0.13568091
204	0x3c4c1c0c	0.012457859
205	0x3b334dd7	0.0027359629
206	0x3d4382de	0.047732227
207	0xbe45f51d	-0.19331785
208	0xbe3a7e83	-0.18212323
209	0x3e6343d5	0.22193845
210	0x3dd6dec6	0.104917094
211	0x3e5f9560	0.21834326
212	0x3ea5b51e	0.32364744
213	0x3ee0934d	0.43862382
214	0x3ed30c48	0.41220307
215	0xbe2932e7	-0.16523324
216	0x3e95e303	0.2927476
217	0x3e9c04d0	0.30472422
218	0x3f038562	0.513754
219	0x3e6e1502	0.23250201
220	0x3c6b8be1	0.014376611
221	0x3f862722	1.0480692
222	0x3dd37f2d	0.10326991
223	0x3db69259	0.08914632
224	0xbd51358b	-0.051076453
225	0x3ecf375d	0.40471926
226	0x3ed242f1	0.41066697
227	0xbcab2dca	-0.020895857
228	0xbe2875ec	-0.16451234
229	0x3d8431af	0.06454789
230	0x3e89ebcd	0.26937714
231	0x3e977f3e	0.29589266
232	0xbdd42545	-0.10358671
233	0xbe8537d7	-0.26019165
234	0xbddd03ac	-0.10791716
235	0x3d6f929b	0.058489423
236	0xbe560885	-0.20901687
237	0x3e18b7b7	0.14913832
238	0xbea3940e	-0.31948894
239	0x3d9e2559	0.07721967
240	0xbd9a226e	-0.07526098
241	0xbdba245d	-0.09088967
242	0xbee94004	-0.45556653
243	0xbdd23bd3	-0.10265317
244	0x3f1932df	0.5984325
245	0xbe2893bd	-0.16462608
246	0x3ed7c55f	0.4214277
247	0xbc99a198	-0.018753812
248	0x3d69e68d	0.057104636
249	0xbe988b62	-0.2979384
250	0xbd46316d	-0.04838698
251	0xbe28109e	-0.16412589
252	0x3e2810a2	0.16412595
253	0xbe5438cc	-0.20724791
254	0x3dfba9af	0.12288224
255	0xbe80c0ef	-0.25147197

bias f4 [20]
0	0xbde37224	-0.11105755
1	0xbc3f608e	-0.011680735
2	0xbc75e9e1	-0.015009374
3	0x3bd4fbfc	0.0064997654
4	0xbe145ae1	-0.14487793
5	0xbbc233c3	-0.0059265806
6	0xbd153ab9	-0.036432955
7	0xbd0ff3fd	-0.035144795
8	0x3d21da09	0.039514575
9	0xbd010245	-0.031496305
10	0x3d339d35	0.043851096
11	0xbd882a01	-0.066486366
12	0xbdc71091	-0.09719957
13	0x3c4f2dfa	0.012645239
14	0xbb91a81c	-0.004445089
15	0xbcb67647	-0.022273196
16	0xbdc43314	-0.09580055
17	0x3dfe52da	0.124181464
18	0x3d46c8f8	0.048531502
19	0x3ba49bcf	0.0050234566

weight f4 [20, 20]
0	0x3e7d7cbc	0.24754614
1	0x3e9fd61c	0.3121804
2	0x3cb1ba7e	0.021695372
3	0x3e9a3bac	0.3012365
4	0x3dfbf413	0.12302413
5	0x3e44faeb	0.19236343
6	0x3d19557c	0.03743504
7	0xbe886cec	-0.266456
8	0x3d8cc5ee	0.068736896
9	0xbda97247	-0.0827375
10	0x3df61ae5	0.120168485
11	0xbcd9c49e	-0.026583012
12	0xbe89f1e3	-0.26942357
13	0x3db9e97f	0.09077739
14	0xbe17f16f	-0.14838193
15	0xbe334a8a	-0.17508903
16	0x3f056831	0.5211211
17	0x3d7fd682	0.06246043
18	0xbcc13800	-0.023586273
19	0xbe016937	-0.12637793
20	0xbd863cb1	-0.06554545
21	0x3e848644	0.25883687
22	0xbe59dc97	-0.21275555
23	0x3e0e1bd3	0.13877802
24	0x3bd6a971	0.0065509607
25	0x3ea44aa3	0.32088193
26	0x3dc7ec9b	0.09761926
27	0xbd479a6e	-0.04873126
28	0xbdc22c31	-0.09481085
29	0xbd28b867	-0.041191485
30	0x3d8fa79d	0.070143916
31	0xbe2d365d	-0.16915269
32	0xbe865896	-0.2623946
33	0x3e25a1ae	0.16174957
34	0xbd14d45f	-0.036335345
35	0x3e4e0223	0.20118003
36	0xbd2880f3	-0.0411386
37	0xbe09a8ab	-0.13443248
38	0x3e7d216c	0.2471978
39	0xbe3e4327	-0.18580304
40	0x3eb866c7	0.36015913
41	0x3e2503c2	0.16114715
42	0x3d6d65a5	0.057958264
43	0xbe01e490	-0.12684846
44	0xbe270e36	-0.16314015
45	0x3bed091e	0.007233753
46	0x3e4fb08d	0.20282193
47	0x3e50bafc	0.20383829
48	0xbe41b38b	-0.18916146
49	0xbcbb8547	-0.0228907
50	0x3b3dd1de	0.0028964202
51	0x3dc00367	0.09375649
52	0x3ec666e6	0.3875038
53	0x3dbf7e41	0.09350253
54	0xbdea0a30	-0.11427724
55	0x3e16e7b5	0.14736827
56	0x3d1f914d	0.03895693
57	0xbd38542f	-0.04500216
58	0xbdcfa3a8	-0.10138637
59	0xbdfff2e8	-0.124975026
60	0xbe0ecb44	-0.13944727
61	0xbea2e67c	-0.3181647
62	0x3e93afd7	0.28845093
63	0x3e6c8101	0.23096086
64	0xbeefc166	-0.4682724
65	0x3ea3a68c	0.31963003
66	0x3e843da1	0.2582827
67	0x3f180454	0.59381604
68	0x3d2935dc	0.04131113
69	0x3eef619f	0.46754166
70	0x3e970f7c	0.29504
71	0x3e5ce1dd	0.21570535
72	0x3e1f95bf	0.15584467
73	0xbe55320b	-0.20819871
74	0x3d8ac440	0.06775713
75	0xbe1bd580	-0.15218163
76	0xbd463246	-0.04838779
77	0x3ead3e76	0.33836716
78	0x3db0bbab	0.08629545
79	0xbe278339	-0.16358651
80	0xbe39125d	-0.18073411
81	0xbe53a33f	-0.20667742
82	0xbc9e5bf4	-0.019330956
83	0x3efebb5d	0.49752322
84	0xbe8cb7ba	-0.27483922
85	0x3e80163f	0.25016972
86	0x3e10419d	0.1408753
87	0x3dbd63e1	0.09247566
88	0xbe8b13e6	-0.2716362
89	0x3e4dda8a	0.20102897
90	0x3e1207d8	0.14260805
91	0x3de1a05b	0.110169135
92	0xbea3de14	-0.3200537
93	0xbe2c5835	-0.16830523
94	0xbdf619e5	-0.12016658
95	0x3d83e6b0	0.064404845
96	0x3d8b226e	0.06793676
97	0x3ea06509	0.31327084
98	0xbe89b104	-0.26892865
99	0xbe33e9ba	-0.17569628
100	0xbebc5b1b	-0.36788258
101	0x3d34c1c4	0.0441301
102	0xbe108b27	-0.14115582
103	0x3cca6df0	0.024710625
104	0xbee0bc30	-0.43893576
105	0xbe1a04e4	-0.15040928
106	0x3c0140a7	0.0078889495
107	0xbcdde09d	-0.027084643
108	0x3d6d9b37	0.058009353
109	0xbdafe2b1	-0.0858816
110	0x3d114de3	0.03547467
111	0x3d5ec433	0.05438633
112	0xbd78657c	-0.060643658
113	0x3e5d05e0	0.21584272
114	0x3ecd629c	0.40114295
115	0x3e42aae8	0.19010508
116	0x3ecfcb6a	0.4058488
117	0xbe841c3c	-0.2580279
118	0x3ea899a8	0.3292973
119	0x3e8b69ff	0.27229306
120	0xbec13dba	-0.37742406
121	0xbe8caf1f	-0.27477357
122	0xbe95ada1	-0.2923403
123	0xbe2481ca	-0.16065136
124	0x3e0442ac	0.12916058
125	0xbdcd2b75	-0.100180544
126	0x3e6d1685	0.23153122
127	0x3d9b444b	0.07581385
128	0xbe11f132	-0.14252165
129	0x3e5635aa	0.20918909
130	0xbdd2da9a	-0.10295601
131	0x3e1825cd	0.1485817
132	0xbec71d4b	-0.38889536
133	0xbd641cba	-0.05569146
134	0xbe94ec55	-0.29086557
135	0xbdb611dc	-0.08890125
136	0xbdf67821	-0.120346315
137	0x3e02340a	0.12715164
138	0xbddf37f5	-0.10899345
139	0xbdb41364	-0.08792761
140	0x3e64d79a	0.2234787
141	0xbe870752	-0.26372772
142	0xbea60182	-0.32423025
143	0xbeb8e3ba	-0.36111242
144	0xbd77cf84	-0.060500637
145	0x3e449809	0.19198622
146	0x3e9fef93	0.31237468
147	0xbd8887a3	-0.06666496
148	0xbeb2b214	-0.34901488
149	0x3f2f2f90	0.6843195
150	0x3ee32c11	0.44369557
151	0x3e3435d5	0.1759866
152	0x3f1d944c	0.6155441
153	0xbd8939e1	-0.06700493
154	0xbe8a5571	-0.27018312
155	0x3d215b5a	0.03939376
156	0x3ec40064	0.38281548
157	0xbc94f06d	-0.01818105
158	0xbdb0302d	-0.08602939
159	0xbf2a1ff7	-0.66455024
160	0x3ee80436	0.45315713
161	0xbe696ad9	-0.22794665
162	0x3ec063f5	0.3757626
163	0xbeece17c	-0.4626578
164	0x3e20630b	0.15662782
165	0x3dbea649	0.0930906
166	0x3e1fa579	0.15590467
167	0xbd9132ed	-0.070897914
168	0x3d0e0cf0	0.034680307
169	0xbe55c981	-0.20877649
170	0xbd767df4	-0.060178712
171	0xbb735397	-0.003712868
172	0xbea0f6bb	-0.3143824
173	0x3e1dc419	0.15406837
174	0x3d236df9	0.0398998
175	0x3eea354b	0.45743784
176	0xbe7ce27e	-0.24695775
177	0x3e3053d4	0.17219478
178	0xbecff1be	-0.40614122
179	0xbeaa7dd4	-0.33299124
180	0x3e5ddf32	0.21667174
181	0xbe88e142	-0.26734358
182	0xbe55a42b	-0.20863406
183	0x3e4e5768	0.2015053
184	0xbe4d66eb	-0.20058791
185	0xbcf2fbbd	-0.029661054
186	0xbd87613a	-0.06610341
187	0x3de5502e	0.11196934
188	0x3e20a7ae	0.15688965
189	0xbe18bacf	-0.14915012
190	0x3e6cf701	0.231411
191	0xbf26bf89	-0.6513601
192	0x3e03312a	0.12811723
193	0x3ea7ef79	0.3279989
194	0x3f094452	0.53619874
195	0x3e7fac17	0.24967991
196	0xbe89c1f1	-0.26905778
197	0xbdc0f9e7	-0.09422665
198	0xbeafc600	-0.3433075
199	0xbe2f2b71	-0.17106415
200	0x3e554e71	0.20830704
201	0xbecae0bb	-0.3962458
202	0x3d8457da	0.06462069
203	0x3e58819b	0.2114319
204	0x3d86f526	0.06589727
205	0xbdedb289	-0.116063185
206	0x3e0ef5ea	0.13960996
207	0xbe5d916b	-0.21637504
208	0xbe35c5be	-0.17751214
209	0x3eb79485	0.358555
210	0xbc8fe4b7	-0.017565114
211	0xbe044e78	-0.12920558
212	0xbd88e1aa	-0.06683667
213	0xbecebe2f	-0.40379474
214	0x3e4f8f07	0.20269404
215	0xbe1ef063	-0.15521388
216	0x3df40d80	0.119166374
217	0x3d89ddf1	0.06731785
218	0x3e418c4a	0.18901172
219	0xbe6f4dd6	-0.23369536
220	0xbd787e21	-0.06066716
221	0x3e2754f2	0.16340998
222	0xbe81f76e	-0.25384086
223	0xbedcf652	-0.43156677
224	0xbeaa6a6a	-0.33284312
225	0x3de78da3	0.11306312
226	0x3ed3adff	0.41343686
227	0xbef7664a	-0.48320228
228	0x3eb210e3	0.3477851
229	0x3db83b30	0.08995664
230	0x3ef53664	0.4789306
231	0xbe23aa8a	-0.15983024
232	0x3d5af2ef	0.053454336
233	0xbccc0ab4	-0.024907447
234	0x3df54d29	0.11977608
235	0xbd13de26	-0.03610053
236	0x3ea6fb47	0.32613584
237	0xbdbc7e29	-0.09203751
238	0x3ec04b38	0.37557387
239	0xbd27e71f	-0.0409919
240	0xbe88f599	-0.26749876
241	0x3ebfcb87	0.37459967
242	0xbe935194	-0.28773177
243	0xbee138a2	-0.4398852
244	0xbdc4c063	-0.09607007
245	0xbce0d2d3	-0.027444279
246	0x3c1e0557	0.009644828
247	0xbdb5806b	-0.088623844
248	0x3e20a4e8	0.15687907
249	0xbe1cd04e	-0.15313837
250	0xbe31928c	-0.1734106
251	0xbe306dc4	-0.17229372
252	0x3dedbb26	0.11607961
253	0x3eb5e71c	0.35527885
254	0x3bf6d0c0	0.007532209
255	0x3f3453fe	0.7044066

bias f4 [20]
0	0xbb8f7d6c	-0.004378965
1	0x3a49a0a0	0.00076914765
2	0xbca02e5b	-0.019553354
3	0x3bc00792	0.0058602775
4	0x3d4eaf98	0.050460428
5	0x3d7a9ebc	0.061186537
6	0x3d72058c	0.05908732
7	0xbd856d5c	-0.06514999
8	0x3bee1c47	0.0072665545
9	0x3c312e07	0.010814196
10	0x3d26a37e	0.040683262
11	0x3c88be6a	0.016692359
12	0x3bc6ee8f	0.006070919
13	0xbdbdd40d	-0.09268961
14	0x3d0a1f56	0.03372129
15	0x3e0eed49	0.13957705
16	0xbd1cf3cb	-0.038318437
17	0xbd78185e	-0.060570113
18	0xbd2962ed	-0.04135411
19	0xbc8de2a4	-0.017319985

weight f4 [20, 20]
0	0x3ee96064	0.45581353
1	0xbe0d7150	-0.13812757
2	0xbe4923db	-0.19642584
3	0xbebff31d	-0.37490168
4	0xbe16cda7	-0.14726888
5	0x3bff4266	0.0077898977
6	0xbe1885a3	-0.14894728
7	0xbe39e2f0	-0.18152976
8	0x3d9cbd1b	0.076532565
9	0xbf02809a	-0.5097748
10	0x3da38e0c	0.07986078
11	0xbeae0770	-0.3399005
12	0x3e8b0cf9	0.27158335
13	0xbec08c82	-0.376072
14	0xbd80352b	-0.06260141
15	0xbcf06c85	-0.029348621
16	0x3dc89fed	0.097961284
17	0x3d3afb6f	0.045649942
18	0xbdd7da21	-0.10539652
19	0xbdf6965f	-0.120404
20	0xbdc2dad0	-0.095143914
21	0xbda1630c	-0.0788022
22	0xbc676223	-0.014122519
23	0xbe8a3c07	-0.26998922
24	0xbea6ed8a	-0.32603103
25	0x3d46993f	0.04848599
26	0x3d824e5a	0.063626006
27	0xbdb2e643	-0.08735325
28	0xbd615918	-0.055016607
29	0x3d89bace	0.06725083
30	0x3d90741b	0.07053395
31	0x3ba91731	0.0051602353
32	0xbd80e791	-0.06294168
33	0x3eb7b8e7	0.35883257
34	0x3ec74b5c	0.38924682
35	0xbc816e55	-0.01579968
36	0x3e07167a	0.13192168
37	0xbefba000	-0.49145508
38	0x3ea02bb9	0.31283358
39	0xbe90ca42	-0.2827931
40	0xbdd15809	-0.102218695
41	0xbe134a6d	-0.1438386
42	0x3d8910df	0.06692671
43	0x3b86b5a0	0.004111007
44	0x3e7548f7	0.23953615
45	0xbd46dcf8	-0.048550576
46	0xbd86decf	-0.06585466
47	0xbd8f3ef6	-0.06994431
48	0xbeb5e155	-0.35523477
49	0x3e0a8f79	0.13531293
50	0x3ead2fdf	0.33825585
51	0xbcfed35e	-0.031106647
52	0xbd2d08ed	-0.04224484
53	0x3dfde2b2	0.12396754
54	0x3eae7d94	0.34080184
55	0x3ee3e2ee	0.4450907
56	0x3ea51cd6	0.32248563
57	0x3e950b1d	0.2911004
58	0xbe2bb776	-0.16769204
59	0x3e33ed4c	0.1757099
60	0xbc933db3	-0.017973756
61	0x3df4e7a4	0.119582444
62	0xbd1dd4e1	-0.038533095
63	0x3e71214f	0.23547862
64	0x3d4c93e7	0.04994574
65	0xbc432c2d	-0.011912388
66	0xbd4df2d3	-0.050280403
67	0xbeed26c3	-0.46318635
68	0x3de1895f	0.110125296
69	0x3d0536fb	0.032523137
70	0xbda0617d	-0.078310944
71	0x3d697d52	0.05700428
72	0x3ec1c551	0.37845853
73	0xbdd083f3	-0.10181417
74	0xbe01d63f	-0.12679385
75	0xbed9b1c0	-0.42518425
76	0xbe9b27e8	-0.30303884
77	0x3e803889	0.25043133
78	0x3e2e103d	0.16998382
79	0xbe25cfdb	-0.16192572
80	0x3d61185f	0.054954883
81	0x3e9a8926	0.3018276
82	0xbd89a731	-0.06721342
83	0xbd94bea1	-0.07262922
84	0xbec07d79	-0.37595728
85	0x3ea796bb	0.32732186
86	0xbec88d3f	-0.39170262
87	0xbe178e25	-0.14800318
88	0xbe868f35	-0.26281133
89	0x3e967ec0	0.29393578
90	0x3e902af5	0.28157774
91	0x3ed5bef2	0.41747242
92	0xbe0221e2	-0.12708238
93	0xbe241dc1	-0.16026975
94	0x3dd0cf6c	0.101958126
95	0x3eca65de	0.39530843
96	0x3d86f2c1	0.065892704
97	0x3e624ac6	0.22098836
98	0x3e9d1f37	0.30687878
99	0x3e6bc144	0.23022944
100	0x3db6aade	0.08919309
101	0xbdc5d171	-0.096590884
102	0x3eac28af	0.3362479
103	0x3e5027d3	0.20327692
104	0xbe7e686c	-0.24844521
105	0xbd1552a6	-0.036455773
106	0xbd099318	-0.033587545
107	0x3e4bdc90	0.19908357
108	0xbee8517e	-0.45374674
109	0xbe397b46	-0.18113431
110	0xbe2fccd4	-0.1716798
111	0x3baeda0a	0.005336051
112	0xbeb1365a	-0.3461178
113	0x3dab5a79	0.08366866
114	0x3de876e6	0.11350803
115	0x3ba1cbb2	0.0049376125
116	0xbd85d64d	-0.06535015
117	0x3f10846e	0.5645207
118	0x3d5b01f8	0.053468674
119	0x3e8717ef	0.26385447
120	0xbe48e76f	-0.19619535
121	0x3e9ec5bb	0.3101023
122	0x3e511b09	0.2042047
123	0xbe4b46c8	-0.1985122
124	0x3e4f2fa1	0.20233013
125	0xbebf4d27	-0.3736355
126	0x3da0bbd3	0.078483246
127	0x3e036b73	0.12833957
128	0xbe17b6e0	-0.14815855
129	0x3d942c45	0.07235006
130	0x3e2961cc	0.16541213
131	0xbdb0b176	-0.08627598
132	0x3dd2fd29	0.10302193
133	0xbdc34ab2	-0.095357314
134	0x3e4b4d5d	0.1985373
135	0xbe2e0f7b	-0.16998093
136	0x3e45029d	0.19239278
137	0x3d4ff567	0.050771143
138	0xbde68550	-0.11255896
139	0xbd9cb00b	-0.07650765
140	0xbe0f3047	-0.1398326
141	0xbe2369d8	-0.15958345
142	0x3e21b74b	0.15792577
143	0xbe3218b1	-0.17392232
144	0xbed1dd74	-0.40989268
145	0x3e0a9e94	0.13537055
146	0x3ecec95e	0.40388006
147	0x3e2e7b3b	0.17039196
148	0xbd4e2cda	-0.050335743
149	0xbd91859f	-0.07105564
150	0xbef69a62	-0.4816466
151	0x3e5216f3	0.20516567
152	0x3d6c5751	0.05770046
153	0x3d97edfe	0.0741844
154	0xbe916395	-0.28396288
155	0xbf0afb14	-0.54289365
156	0xbe3a9b36	-0.18223271
157	0x3e97aba6	0.29623145
158	0x3dd72862	0.10505749
159	0xbe9c5115	-0.3053061
160	0x3deac6d3	0.11463704
161	0x3e4ef6b5	0.20211299
162	0x3d1cdd57	0.038297024
163	0x3e91cfa0	0.28478718
164	0xbedb4fab	-0.4283422
165	0x3d4e50d0	0.050370038
166	0x3dc640bf	0.09680318
167	0x3db031b2	0.08603229
168	0x3d3b6f99	0.045760725
169	0x3e1b5b1a	0.15171471
170	0x3d81f24c	0.063450426
171	0xbeb15e25	-0.3464214
172	0xbd92941d	-0.071571566
173	0x3ec26aa5	0.37971988
174	0xbc6d1dc6	-0.014472431
175	0xbd8614c3	-0.06546929
176	0x3d7ab005	0.06120302
177	0x3e3d90f0	0.1851232
178	0x3d2a56a9	0.04158655
179	0x3daecc07	0.08535009
180	0xbcb033ba	-0.02150904
181	0x3e033e6d	0.12816782
182	0x3e8c770c	0.27434576
183	0x3df8a637	0.12141078
184	0xbe0c8aac	-0.13724774
185	0xbca404b2	-0.02002177
186	0x3eb96d42	0.3621617
187	0xbd957fe6	-0.07299785
188	0x3e705fa6	0.23473987
189	0xbdb98a66	-0.090596005
190	0xbe0752c3	-0.13215165
191	0xbdd831bd	-0.10556362
192	0xbe2c8a84	-0.16849715
193	0x3e28d1cc	0.16486281
194	0x3d8d2ae2	0.06892945
195	0x3f018127	0.50587696
196	0x3c687cc7	0.0141899055
197	0x3e22eb0d	0.15909977
198	0xbdb7103c	-0.08938643
199	0xbe27c433	-0.16383438
200	0xbe668bbe	-0.22514245
201	0x3c13d0bf	0.009021937
202	0x3df52b8f	0.11971199
203	0xbd940cd3	-0.072290085
204	0x3e28f308	0.16498959
205	0x3e2c4d3a	0.16826335
206	0xbe134c48	-0.14384568
207	0xbd733b3c	-0.059382662
208	0xbe0f988e	-0.14023039
209	0x3da8fc27	0.08251219
210	0xbe22259c	-0.1583466
211	0x3e61d3ab	0.22053401
212	0x3e9e72c0	0.30946922
213	0xbd7e64e0	-0.06210792
214	0xbe4fa64c	-0.20278281
215	0xbd6eeb1d	-0.05832969
216	0xbdc6c8a0	-0.09706235
217	0xbeeabdd4	-0.45847952
218	0xbe1029a2	-0.14078382
219	0x3eb1217a	0.34595853
220	0xbe9b1a71	-0.3029361
221	0x3dcc1b14	0.09966102
222	0x3e0e6b29	0.13908066
223	0xbec64f58	-0.3873241
224	0xbb5724e7	-0.0032828392
225	0x3e37bf37	0.17944036
226	0xbdc1266e	-0.09431158
227	0x3df3bea3	0.119015954
228	0x3e9ef80c	0.3104862
229	0xbf0cd026	-0.5500511
230	0x3dfbcab5	0.12294523
231	0x3ecc1ac8	0.39864182
232	0xbe0bd995	-0.1365722
233	0xbeb623d7	-0.3557422
234	0xbe028542	-0.12746146
235	0x3e08816d	0.13330622
236	0x3e8797ab	0.264829
237	0x3d79ebeb	0.061016005
238	0xbc7e9d32	-0.015540408
239	0xbda5506b	-0.08071979
240	0x3ed485a3	0.41508207
241	0x3c9209a2	0.017826859
242	0xbd57b97b	-0.052667122
243	0xbd499e52	-0.04922325
244	0x3e33b9bf	0.17551325
245	0xbe32237e	-0.17396352
246	0xbd86ee1d	-0.06588385
247	0xbdf784bc	-0.12085864
248	0xbd4769dd	-0.048684943
249	0x3d3aadd8	0.045575947
250	0xbd254154	-0.040345505
251	0xbe0638ad	-0.13107558
252	0xbcdb279d	-0.026752288
253	0x3eac4805	0.33648697
254	0xbd30a1e3	-0.043123137
255	0xbdf83a75	-0.12120525

bias f4 [20]
0	0xbcb894a9	-0.022531824
1	0xbd38e8f5	-0.04514404
2	0x3b11bbe7	0.0022237243
3	0x3cae8d97	0.02130775
4	0xb7950614	-1.7765014e-05
5	0xbd85ff3b	-0.06542822
6	0xbb7b2932	-0.0038324115
7	0x3d062763	0.032752406
8	0x3c3fbc0f	0.0117025515
9	0xbab1d11c	-0.0013566348
10	0xbda38cec	-0.07985863
11	0xbc9c6f35	-0.019095996
12	0xbcd2ae0f	-0.025717763
13	0x3c2ad424	0.010426555
14	0x3c3f503c	0.011676844
15	0xbd0cf3ee	-0.034412317
16	0x3cc51bc0	0.024061084
17	0x3d940f1b	0.07229444
18	0x3ca4c44a	0.02011313
19	0x3ac8bf97	0.0015315887

weight f4 [1, 20]
0	0x3d53510a	0.051590957
1	0xbba0d5a7	-0.004908282
2	0x3ece0d85	0.4024469
3	0x3e8a900e	0.2706303
4	0x3e74fec7	0.23925315
5	0xbef08754	-0.46978247
6	0x39478daa	0.00019030893
7	0x3ecedcfe	0.4040298
8	0xbdadcf4f	-0.084868066
9	0x3d8423b2	0.06452121
10	0x3b079288	0.0020686705
11	0xbd325eb8	-0.043547362
12	0x3c0f2e9b	0.008739139
13	0x3c080a47	0.008303232
14	0x3dc2d522	0.09513308
15	0xbdb8fad1	-0.090322144
16	0xbc999026	-0.018745493
17	0x3afb3ec1	0.0019168482
18	0xbef2681e	-0.4734506
19	0xbaf9441a	-0.0019017488
